Assets/Crossroads/Models/CrossroadLights(modelA).onnx (onnx, 341762 bytes, 9 tensors)

106 f4 [1, 256, 128]
-0.18990459 0.16230607 0.30854267 -0.1286697 -0.027874023 0.011126044 0.040119067 0.100887135
-0.09795476 -0.101969376 -0.25522372 0.21309407 -0.08557579 0.11858173 0.20687817 -0.1611028
-0.18409905 -0.07794005 -0.057843752 -0.028627057 -0.23567863 -0.11062502 0.001066652 0.2761405
0.017408421 -0.20266348 -0.12647887 0.01745287 0.02702636 -0.115172975 -0.085399784 0.14182222
0.38310435 -0.039726995 0.04755654 -0.0632338 -0.111326315 -0.06378736 0.13461746 0.0068452884
-0.06651644 -0.0009559252 -0.036239143 0.0035524757 -0.07368107 0.1505393 0.12286982 0.06095253
0.011989032 -0.081017815 -0.15261114 -0.25999677 -0.21784349 -0.02892438 0.08224643 0.20183466
0.011266719 0.1656467 -0.052275553 -0.14875774 0.06967053 0.091185935 -0.3779147 0.1257586
0.030730827 -0.052240387 0.021121528 -0.13023509 0.18201281 0.06596469 -0.21955378 -0.33719042
0.018611457 0.013048334 -0.21463123 -0.20196992 0.16493973 0.2087407 -0.16492406 -0.12602365
0.107984915 0.06357275 -0.050328553 -0.03897935 0.05019998 -0.013516239 -0.14101705 -0.039306723
0.09267757 0.21175088 0.19095191 -0.4684704 -0.040788785 -0.19398482 0.2237003 -0.05216486
0.24348915 0.2340149 0.24867705 -0.13613446 0.029044053 0.027294634 0.23062049 -0.10148938
0.27403876 -0.1767551 0.37353188 0.13194625 -0.28155372 -0.06465202 0.1039784 0.079361714
-0.18741512 -0.0654881 0.17377216 -0.39043278 -0.28368583 0.20484954 0.065150894 0.03584344
-0.091850705 0.026934877 0.033201072 0.09030683 -0.20330907 -0.08603399 -0.12571883 -0.18513994
-0.23050246 0.14740187 0.014747935 -0.12458227 0.02225887 -0.031818904 -0.024131052 0.10306252
0.0708073 -0.0753872 -0.1403582 -0.18254915 -0.019510156 -0.285086 0.07084238 -0.043585364
-0.050034 -0.08714012 -0.21736683 -0.25959745 -0.06649252 0.08262229 -0.045362514 -0.07525957
-0.22847079 -0.028798342 -0.097195156 0.06947044 -0.13615195 0.20034982 -0.2912084 -0.0636911
-0.016386094 -0.118827716 0.0034932739 0.101356946 -0.110378906 -0.12844132 -0.2171452 -0.039190516
0.20911351 -0.07092448 -0.12622376 -0.09313265 0.038729724 -0.04698913 -0.124630466 0.07175423
-0.2633908 0.00913128 -0.08711245 -0.22590145 0.13975857 -0.06873516 0.0073687653 -0.15651087
0.08283196 0.18066916 0.049221296 -0.013826878 -0.4847934 0.25489473 0.097142994 -0.0016668979
0.037348352 -0.033100422 -0.2720631 0.025430078 -0.051448826 0.2591402 0.047100663 -0.15164965
0.07486439 -0.07748659 -0.03275616 0.20140785 -0.31197622 -0.2869164 -0.106984384 -0.09473551
-0.07368032 -0.07206032 0.056377277 -0.22540349 -0.15512022 -0.18682875 0.16412762 0.13220663
0.12131234 0.117855854 -0.094696246 -0.29818013 -0.2161173 -0.2095988 -0.21477684 -0.01988854
0.13223054 0.023920482 -0.034698684 0.20413189 -0.33761933 -0.19702333 0.34271747 0.23539546
0.08825167 0.026718637 -0.17561013 0.33035475 -0.28003943 0.05605837 -0.35362065 0.018437231
0.045397706 0.09912493 0.21014339 -0.04053957 0.07077868 0.25303686 -0.1317376 -0.3018636
-0.074467346 0.0066431314 -0.039849646 -0.039089352 -0.055801146 -0.024817744 0.07673461 0.05814835
00000000: 5976 42be 9033 263e 4ef9 9d3e fdc1 03be
00000010: 1058 e4bc 034a 363c e453 243d ea9d ce3d
00000020: 819c c8bd 52d5 d0bd afac 82be 5535 5a3e
00000030: 5c42 afbd fada f23d dfd7 533e 22f8 24be
00000040: 7684 3cbe 089f 9fbd 92ed 6cbd 4a83 eabc
00000050: bd55 71be 5f8f e2bd e7ce 8b3a 4a62 8d3e
00000060: 1b9c 8e3c 0487 4fbe ad83 01be 52f9 8e3c
00000070: 6366 dd3c cfdf ebbd 15e6 aebd d839 113e
00000080: 4126 c43e c6b8 22bd a6ca 423d b980 81bd
00000090: 0dff e3bd f3a2 82bd 29d9 093e 714e e03b
000000a0: c539 88bd 0e97 7aba 7f6f 14bd a7d0 683b
000000b0: 1ae6 96bd f926 1a3e 2ca3 fb3d 5ca9 793d
000000c0: a56d 443c abec a5bd 1846 1cbe 4c1e 85be
000000d0: 5d12 5fbe d2f2 ecbc d170 a83d bfad 4e3e
000000e0: 0b98 383c 4a9f 293e e41e 56bd f353 18be
000000f0: 6caf 8e3d b1bf ba3d 097e c1be ddc6 003e
00000100: 37bf fb3c 04fa 55bd 0e07 ad3c 595c 05be
00000110: 9161 3a3e 7f18 873d b5d2 60be 39a4 acbe
00000120: 0e77 983c aec8 553c 4ac8 5bbe 34d1 4ebe
00000130: f6e5 283e 1fc0 553e dae1 28be 580c 01be
00000140: 3227 dd3d 6e32 823d 5025 4ebd d0a8 1fbd
00000150: 7f9e 4d3d 3773 5dbc c666 10be 1600 21bd
00000160: bdcd bd3d 39d5 583e e688 433e 5adb efbe
00000170: 2412 27bd f5a3 46be b111 653e d2aa 55bd
00000180: 3855 793e 9aa1 6f3e 32a5 7e3e d566 0bbe
00000190: cbed ed3c ff98 df3c c727 6c3e aad9 cfbd
000001a0: cf4e 8c3e 4aff 34be 923f bf3e eb1c 073e
000001b0: cf27 90be 4768 84bd a1f2 d43d 6588 a23d
000001c0: c0e9 3fbe a01e 86bd 54f1 313e cee6 c7be
000001d0: 453f 91be 14c4 513e d56d 853d 92d0 123d
000001e0: 391c bcbd 88a6 dc3c d9fd 073d caf2 b83d
000001f0: 4130 50be 9732 b0bd 70bc 00be 5395 3dbe
00000200: d608 6cbe 84f0 163e 53a1 713c fd24 ffbd
00000210: 3c58 b63c 8a54 02bd 7cae c5bc 7112 d33d
00000220: 6b03 913d 9b64 9abd 0fba 0fbe 2aee 3abe
00000230: c3d3 9fbc cbf6 91be cf15 913d 9186 32bd
00000240: 74f0 4cbd 8576 b2bd 6995 5ebe f5e9 84be
00000250: 3b2d 88bd e035 a93d 0bce 39bd b021 9abd
00000260: 3ff4 69be 80ea ebbc 410e c7bd 8546 8e3d
00000270: 6b6b 0bbe 8128 4d3e 4419 95be 7b70 82bd
00000280: 213c 86bc f25b f3bd 69ef 643b 3b94 cf3d
00000290: 560e e2bd 1f86 03be 505b 5ebe 3c86 20bd
000002a0: da21 563e db40 91bd cd40 01be 55bc bebd
000002b0: 0fa3 1e3d ad77 40bd 423e ffbd e2f3 923d
000002c0: 29db 86be 5d9b 153c 0368 b2bd b652 67be
000002d0: df1c 0f3e 05c5 8cbd af75 f13b 6344 20be
000002e0: cda3 a93d 5601 393e 459c 493d 218a 62bc
000002f0: d736 f8be 9081 823e e8f2 c63d d07b daba
00000300: 96fa 183d 4f94 07bd db4b 8bbe bd52 d03c
00000310: 01bc 52bd 06ae 843e a0ec 403d 0c4a 1bbe
00000320: 8052 993d 4ab1 9ebd 532b 06bd dc3d 4e3e
00000330: 59bb 9fbe b5e6 92be a11a dbbd b104 c2bd
00000340: b5e5 96bd 5c94 93bd dceb 663d 2cd0 66be
00000350: d6d7 1ebe 0950 3fbe 1211 283e 2d61 073e
00000360: 9b72 f83d 695e f13d 1bf0 c1bd 11ab 98be
00000370: da4d 5dbe 11a1 56be 76ee 5bbe 4bed a2bc
00000380: 7167 073e e3f4 c33c 3520 0ebd f307 513e
00000390: 71dc acbe 7cc0 49be aa78 af3e 820b 713e
000003a0: 4bbd b43d 0be1 da3c 24d3 33be 4224 a93e
000003b0: 5461 8fbe 769d 653d c40d b5be ad09 973c
000003c0: f2f2 393d 0302 cb3d d42f 573e d20c 26bd
000003d0: 6af4 903d 0c8e 813e 39e6 06be de8d 9abe
000003e0: 5682 98bd a0ae d93b 6239 23bd 281c 20bd
000003f0: be8f 64bd 954e cbbc 0927 9d3d f72c 6e3d

107 f4 [1, 256, 64]
-0.25728348 -0.14166309 0.3108527 -0.13228798 -0.021845562 -0.0068602106 -0.3112341 -0.24972472
0.016566198 0.011960783 0.017915143 0.0070337937 -0.0020925582 -0.12431558 -0.30199626 0.0078564575
-0.20255809 -0.17244141 -0.38778272 0.42265323 0.18536538 0.1254268 -0.038875945 0.104558095
-0.34503582 0.23199065 0.2506701 -0.22467369 -0.2687807 -0.065333925 -0.35655814 0.025432298
0.23379757 0.264589 0.4743653 -0.3368709 -0.1644729 0.119190365 0.07864161 -0.20137903
0.2787504 0.13115302 -0.05328489 -0.12804326 -0.14076433 -0.15327753 -0.060167484 -0.26187313
-0.1833767 -0.19442305 -0.19983198 -0.1566419 -0.18055162 0.043583717 0.109195046 -0.007985841
0.099697605 0.3805519 -0.3997707 -0.023866516 0.18868136 0.38746536 -0.46202862 -0.008968717
-0.050064895 -0.10383262 0.029001584 0.017690469 -0.33811042 0.20566092 0.34487352 -0.09631683
-0.06438399 -0.035246417 0.16841477 -0.043319028 0.0037342017 -0.19029664 0.028805656 -0.08073631
-0.06942722 0.06606207 -0.0004699772 0.095142506 0.08097969 0.17528042 0.1973338 0.13591366
0.2722099 -0.27485135 0.11146454 -0.104127996 -0.03794965 0.23155086 -0.10189763 -0.2824608
-0.061542865 0.020166222 -0.27305558 -0.0068904865 -0.005470526 -0.04837178 -0.23441032 0.0203818
0.073301524 -0.14578843 -0.022299204 0.06118798 -0.08630617 0.11522456 -0.14290155 -0.03910647
0.28103048 -0.19943455 -0.050449725 0.09313491 0.0044531487 0.24478216 0.16822222 0.07040629
0.12666091 0.03940625 -0.11915803 0.060859192 0.084771976 0.09760617 0.32583424 -0.014724827
0.22045836 -0.20503376 0.17801425 -0.17431359 -0.24571061 0.19652987 -0.07197779 -0.11763383
0.14553721 0.06426616 0.13500544 0.15497372 -0.017146876 0.11870074 -0.07041229 0.087251544
-0.1447574 0.012655304 0.11559003 -0.086693406 -0.019308697 0.01050013 0.000329786 0.109173834
0.20541011 0.18498813 0.19370231 0.34638995 0.0684009 -0.11938882 0.30043575 0.04358695
-0.13117011 0.30142635 0.2159062 0.20730633 -0.16169998 -0.005698494 -0.043307755 -0.18452759
-0.06755541 -0.15966542 0.20637076 -0.21515335 0.23670186 -0.12673107 -0.15377922 0.19154198
0.16471529 -0.1968944 0.010136446 0.20099626 -0.11644991 0.045708098 -0.12421516 -0.18225805
0.024749136 0.07970962 -0.055805128 0.28041223 -0.056996115 -0.03114714 -0.006407555 0.22227779
0.37768793 0.07567085 0.1617231 0.30606547 0.18894956 0.13961072 0.0072001335 -0.120274074
0.36836988 -0.013480709 -0.083426274 -0.0164221 0.12308616 -0.32113507 -0.030312331 -0.09969601
-0.2782392 -0.0030645567 0.13721402 -0.1500558 0.14954445 -0.2410783 -0.22816797 0.34107342
-0.16382629 -0.11915333 0.084086016 0.085985534 -0.21220385 0.07693214 0.1212905 0.3033108
0.016146926 -0.17098382 0.1473995 -0.10582075 0.1701208 -0.12698545 -0.2826932 -0.06140784
-0.07373544 -0.37929115 0.062284786 -0.050470438 0.10549381 0.1286192 -0.048757225 -0.047729753
0.16271497 0.08719161 -0.31078386 0.05430363 -0.013671607 -0.12824064 -0.12839262 -0.27571568
0.1493004 -0.101947844 0.39677712 0.05969796 -0.09805305 0.22143184 0.13803622 -0.29272187
00000000: a9ba 83be 2110 11be 1628 9f3e 8076 07be
00000010: 77f5 b2bc 9ecb e0bb 135a 9fbe d6b7 7fbe
00000020: d6b5 873c 29f7 433c c7c2 923c bd7b e63b
00000030: 4d23 09bb 2b99 febd 419f 9abe 5fb8 003c
00000040: 636b 4fbe 7b94 30be 758b c6be 0166 d83e
00000050: 6cd0 3d3e e26f 003e 623c 1fbd 8e22 d63d
00000060: 89a8 b0be f58e 6d3e d557 803e dc10 66be
00000070: a09d 89be cbcd 85bd ca8e b6be 6557 d03c
00000080: a168 6f3e 3678 873e 02e0 f23e 587a acbe
00000090: 956b 28be 141a f43d da0e a13d 4e36 4ebe
000000a0: 5fb8 8e3e fa4c 063e 4241 5abd c61d 03be
000000b0: 8624 10be c9f4 1cbe 2e72 76bd 3c14 86be
000000c0: 1ac7 3bbe d616 47be c1a0 4cbe bc66 20be
000000d0: 86e2 38be d784 323d a7a1 df3d 0bd7 02bc
000000e0: 422e cc3d b3d7 c23e bfae ccbe b683 c3bc
000000f0: b035 413e dc61 c63e 048f ecbe 87f1 12bc
00000100: d910 4dbd 32a6 d4bd bb94 ed3c 9aeb 903c
00000110: cf1c adbe c798 523e 4393 b03e c241 c5bd
00000120: c1db 83bd 8c5e 10bd ec74 2c3e 4b6f 31bd
00000130: 82b9 743b 1fdd 42be d7f9 eb3c 1459 a5bd
00000140: dc2f 8ebd 8d4b 873d 4667 f6b9 13da c23d
00000150: aed8 a53d b67c 333e df11 4a3e f32c 0b3e
00000160: 195f 8b3e 51b9 8cbe 8547 e43d 0f41 d5bd
00000170: 1871 1bbd ab1b 6d3e b4af d0bd b49e 90be
00000180: 5f14 7cbd a233 a53c f1cd 8bbe 97c9 e1bb
00000190: 1942 b3bb 7d21 46bd 4209 70be bcf7 a63c
000001a0: 1c1f 963d 9049 15be d2ac b6bc 3fa0 7a3d
000001b0: 4ac1 b0bd dbfa eb3d c954 12be 1b2e 20bd
000001c0: 3ae3 8f3e 9238 4cbe 5fa4 4ebd 84bd be3d
000001d0: b8eb 913b 2da8 7a3e 7242 2c3e 2c31 903d
000001e0: 66b3 013e 7368 213d 2009 f4bd 7d47 793d
000001f0: ee9c ad3d bee5 c73d bfd3 a63e 6740 71bc
00000200: d6bf 613e 5ff4 51be 5e49 363e 437f 32be
00000210: 909b 7bbe 203f 493e 1769 93bd 01ea f0bd
00000220: b507 153e fa9d 833d de3e 0a3e 6eb1 1e3e
00000230: 9b77 8cbc 6019 f33d 5234 90bd f0b0 b23d
00000240: 493b 14be 3158 4f3c 77ba ec3d 508c b1bd
00000250: 462d 9ebc bd08 2c3c 21e7 ac39 8896 df3d
00000260: 0757 523e 876d 3d3e e659 463e 065a b13e
00000270: c515 8c3d 2082 f4bd b7d2 993e 3b88 323d
00000280: 7551 06be 8e54 9a3e 8416 5d3e 1c48 543e
00000290: ae94 25be 6fba babb 7963 31bd cdf4 3cbe
000002a0: 7e5a 8abd 557f 23be db52 533e 2951 5cbe
000002b0: f961 723e cac5 01be 4d78 1dbe 9523 443e
000002c0: 20ab 283e b09e 49be 5613 263c f7d1 4d3e
000002d0: 4a7d eebd 6a38 3b3d 8564 febd dba1 3abe
000002e0: b3be ca3c cc3e a33d eb93 64bd 3192 8f3e
000002f0: c274 69bd 4928 ffbc 78f6 d1bb ca9c 633e
00000300: 5060 c13e 52f9 9a3d be9a 253e 9db4 9c3e
00000310: fe7b 413e 1df6 0e3e 19ef eb3b 4152 f6bd
00000320: fa9a bc3e 31de 5cbc 65db aabd a487 86bc
00000330: 9914 fc3d d16b a4be 9151 f8bc 6c2d ccbd
00000340: 5e75 8ebe bbd6 48bb d581 0c3e 3aa8 19be
00000350: 2e22 193e 3bdd 76be dda4 69be 2da1 ae3e
00000360: 14c2 27be a906 f4bd 4a35 ac3d 2f19 b03d
00000370: f74b 59be 998e 9d3d 2767 f83d 8e4b 9b3e
00000380: 8f46 843c 6216 2fbe e5ef 163e 8db8 d8bd
00000390: 2634 2e3e 7908 02be 2abd 90be ca86 7bbd
000003a0: 9b02 97bd 7332 c2be 551e 7f3d 17ba 4ebd
000003b0: 230d d83d c0b4 033e a8b5 47bd 4680 43bd
000003c0: c19e 263e 8491 b23d 101f 9fbe 7c6d 5e3d
000003d0: e0fe 5fbc 8451 03be 5b79 03be 9b2a 8dbe
000003e0: 34e2 183e 08ca d0bd 5f26 cb3e d985 743d
000003f0: 0ad0 c8bd 07bf 623e 5e59 0d3e a4df 95be

108 f4 [1, 512]
0.09352498 -0.17872718 -0.10196616 0.0068585565 -0.0028127169 -0.09542428 0.05557525 -0.099835195
-0.08960505 -0.14952748 -0.12320915 0.013691694 -0.04290123 -0.19280933 -0.1775741 -0.1606917
-0.026262721 -0.060718697 -0.0035973026 -0.08837474 -0.19187856 -0.07931775 -0.15340985 -0.10029407
-0.13143732 -0.18135999 -0.09780156 -0.0868466 -0.009085886 -0.23741442 -0.029882876 -0.14110631
-0.17399459 -0.06167565 -0.029222582 -0.15356646 0.051355537 -0.13335593 -0.03250479 -0.10754151
-0.02352968 -0.106144 -0.0861813 0.0008334313 -0.0678968 -0.068130374 -0.16113594 -0.073922
-0.09584292 -0.13016334 -0.3090203 -0.0043815076 -0.07213041 -0.044955336 -0.027226685 -0.08914343
-0.05614099 -0.008454428 -0.19013911 -0.0018075748 -0.07016391 -0.06883929 0.009743099 -0.033196192
-0.010567811 0.023185698 -0.023684155 0.0951474 0.03306746 -0.22539544 0.11556921 -0.0014963431
-0.117362045 -0.041844547 0.12276843 0.05292711 -0.045329634 -0.084877275 0.0539534 -0.21946509
0.072835386 -0.13355388 0.0585823 -0.024639037 -0.076659754 -0.16196229 -0.041487135 0.11379246
0.05058782 -0.11556365 0.016957812 -0.05341549 -0.091035776 -0.0818027 -0.05723612 0.11447748
0.042991098 0.08590676 -0.12087077 0.15482628 0.120756395 0.09785898 0.0617924 -0.02219868
0.10984359 -0.10573663 -0.08344095 -0.070881315 -0.010706784 -0.14491698 -0.014807652 -0.060011316
0.0012112801 -0.042075764 -0.07989229 0.03965887 0.09226549 0.020251032 -0.08332821 -0.06453735
-0.019944096 0.05818004 -0.10271409 0.1281273 -0.005254856 -0.06667521 -0.04759141 0.00898115
1.0848055 0.87072736 0.9654544 0.9321511 0.9953213 0.9736313 0.9947001 0.9572027
0.8859752 0.8371597 0.89009637 1.0776682 0.9583875 0.7622964 0.9191782 0.86018187
0.9620152 0.8623743 0.80523056 0.9776981 0.88080174 1.0259423 1.014206 0.82478714
0.8886518 0.69991577 0.9785356 0.9756568 0.81215155 0.78098685 1.0525696 0.8299804
0.82657516 0.8631596 0.82748014 0.8772671 1.0232434 0.94337535 0.8197022 0.8372721
0.8963388 0.88639826 0.8930899 0.97163844 1.1032697 0.80920523 0.8371114 1.0117534
0.8679292 0.88113683 0.721335 0.8624302 0.91253114 1.0296305 0.9288074 0.81256706
0.7966503 1.1280191 0.95246387 0.9016977 1.0766047 1.0361549 0.86926943 1.0133395
0.011133938 -0.01774701 0.0076716 -0.012378797 0.05386716 0.013969519 0.09544243 -0.090461865
0.0021260346 -0.1195954 0.027575912 0.096561685 -0.010634975 0.0062883734 0.023537751 -0.005152479
0.032051552 -0.035142276 -0.09251963 -0.029741209 -0.034309503 0.18758526 -0.07384492 0.005578218
0.053228173 0.03070059 0.037927352 0.06318508 0.00086144 -0.064344786 -0.10939432 -0.013820023
-0.057891835 0.009565917 -0.029153341 0.047635317 -0.02152843 0.0015512997 0.034897193 0.043130085
-0.017296778 0.049372174 -0.07755902 -0.07076399 -0.03314178 0.05861254 -0.04339434 -0.06898638
0.058052443 0.0242947 0.12671854 0.10368267 -0.042210482 0.10927163 -0.0884252 0.06577551
-0.034883097 0.020676682 -0.010248783 0.059786145 0.07289528 0.0068136463 -0.056188043 0.0066841138
00000000: 068a bf3d 4204 37be a2d3 d0bd bebd e03b
00000010: 8f55 38bb ce6d c3bd e0a2 633d 6576 ccbd
00000020: da82 b7bd bb1d 19be 1455 fcbd 2053 603c
00000030: 33b9 2fbd cf6f 45be fcd5 35be 5d8c 24be
00000040: eb24 d7bc 2bb4 78bd b9c0 6bbb d1fd b4bd
00000050: d07b 44be 5871 a2bd 7917 1dbe fa66 cdbd
00000060: 8197 06be 6fb6 39be 2f4c c8bd a1dc b1bd
00000070: f8dc 14bc c41c 73be efcc f4bc 2c7e 10be
00000080: a32b 32be 9b9f 7cbd 3264 efbc 8740 1dbe
00000090: 2f5a 523d 758e 08be be23 05bd b93e dcbd
000000a0: 51c1 c0bc 0762 d9bd d27f b0bd a17a 5a3a
000000b0: 7a0d 8bbd f087 8bbd d200 25be 6b64 97bd
000000c0: 4b49 c4bd 8a49 05be e937 9ebe c092 8fbb
000000d0: 1cb9 93bd 1623 38bd 7f0a dfbc d590 b6bd
000000e0: 18f4 65bd 7184 0abc d4b3 42be 25ec ecba
000000f0: 19b2 8fbd 9dfb 8cbd 85a1 1f3c bbf8 07bd
00000100: 9d24 2dbc efef bd3c 4605 c2bc a4dc c23d
00000110: bf71 073d 10ce 66be 8daf ec3d f120 c4ba
00000120: 835b f0bd 3065 2bbd 046e fb3d 19ca 583d
00000130: 91ab 39bd 23d4 adbd 3efe 5c3d 75bb 60be
00000140: b82a 953d 59c2 08be fef3 6f3d ced7 c9bc
00000150: caff 9cbd 71d9 25be 6aee 29bd 050c e93d
00000160: 2d35 4f3d a3ac ecbd 1ceb 8a3c 33ca 5abd
00000170: f770 babd 2d88 a7bd 6c70 6abd 2b73 ea3d
00000180: 6f17 303d e2ef af3d 188b f7bd c88a 1e3e
00000190: 214f f73d 4a6a c83d 071a 7d3d 02da b5bc
000001a0: adf5 e03d 728c d8bd 17e3 aabd 392a 91bd
000001b0: 826b 2fbc 1e65 14be cb9b 72bc 6dce 75bd
000001c0: d1c3 9e3a a357 2cbd 929e a3bd 5771 223d
000001d0: b0f5 bc3d 7ee5 a53c fba7 aabd 282c 84bd
000001e0: cd61 a3bc 324e 6e3d c45b d2bd ce33 033e
000001f0: ed30 acbb 038d 88bd 36ef 42bd ac25 133c
00000200: e8da 8a3f fde7 5e3f 0528 773f 74a1 6e3f
00000210: 60cd 7e3f e73f 793f aaa4 7e3f 3c0b 753f
00000220: 45cf 623f 1950 563f 5bdd 633f 08f1 893f
00000230: e258 753f db25 433f 434f 6b3f e134 5c3f
00000240: a146 763f 90c4 5c3f 9723 4e3f 6c4a 7a3f
00000250: 397c 613f 1452 833f 81d1 813f 4025 533f
00000260: af7e 633f ae2d 333f 4f81 7a3f a5c4 793f
00000270: 2ae9 4f3f c1ee 473f 9aba 863f 9879 543f
00000280: 6e9a 533f 07f8 5c3f bdd5 533f 9494 603f
00000290: a4f9 823f 0c81 713f 01d8 513f 7757 563f
000002a0: 7676 653f ffea 623f 8aa1 643f 4cbd 783f
000002b0: f137 8d3f 1328 4f3f ef4c 563f 2381 813f
000002c0: 9c30 5e3f 2f92 613f 69a9 383f 3ac8 5c3f
000002d0: a49b 693f efca 833f 52c6 6d3f 6504 503f
000002e0: 46f1 4b3f ee62 903f acd4 733f a9d5 663f
000002f0: 2fce 893f b9a0 843f 7188 5e3f 1cb5 813f
00000300: 1f6b 363c 2d62 91bc 0c62 fb3b 70d0 4abc
00000310: d0a3 5c3d 69e0 643c 5277 c33d 1244 b9bd
00000320: f154 0b3b 6fee f4bd e1e6 e13c 22c2 c53d
00000330: 513e 2ebc b30e ce3b 3ed2 c03c 20d6 a8bb
00000340: 7d48 033d 59f1 0fbd ef7a bdbd d6a3 f3bc
00000350: 1f88 0cbd 5a16 403e 013c 97bd 7cc9 b63b
00000360: c905 5a3d ce7f fb3c b659 1b3d 2e67 813d
00000370: 43d2 613a 33c7 83bd 210a e0bd 616d 62bc
00000380: fd1f 6dbd 5dba 1c3c fdd2 eebc 401d 433d
00000390: 645c b0bc fb54 cb3a 5cf0 0e3d 2ca9 303d
000003a0: f9b1 8dbc 7a3a 4a3d 43d7 9ebd b6ec 90bd
000003b0: adbf 07bd b413 703d 43be 31bd bb48 8dbd
000003c0: 66c8 6d3d ae05 c73c 81c2 013e 9457 d43d
000003d0: e6e4 2cbd cec9 df3d 4518 b5bd 50b5 863d
000003e0: 94e1 0ebd 2562 a93c 83ea 27bc 51e2 743d
000003f0: 1f4a 953d 0245 df3b 6f25 66bd 6906 db3b

action_model._discrete_distribution.branches.0.bias f4 [5]
-0.09090065 0.0763165 -0.12457586 0.15226726 0.12007345
00000000: 1f2a babd d34b 9c3d a121 ffbd f3eb 1b3e
00000010: 12e9 f53d

action_model._discrete_distribution.branches.0.weight f4 [5, 64]
-0.1343355 0.023875637 0.31725973 -0.4880431 0.074266136 0.041872684 -0.1725374 0.08064432
0.04999744 0.55097216 -0.17565753 0.14653733 -0.045063213 -0.14217868 -0.0038002739 0.18627557
-0.23712455 -0.11710593 -0.09772389 0.070699334 0.18095067 0.018985778 -0.03637503 -0.20584658
-0.037793178 -0.1429999 -0.19055246 -0.31408018 0.032380126 -0.10081789 0.11666667 0.43028164
0.37972376 -0.16584595 -0.0624814 0.0065728677 -0.5519564 -0.071528465 0.035668626 -0.100797474
-0.06921884 -0.17013709 -0.30551186 0.05842829 0.69585675 0.4328512 0.32538426 -0.053697985
0.1305137 -0.53496444 0.10130776 0.14403981 0.20375547 0.17192726 -0.3262723 -0.06927558
0.020990817 -0.18966413 -0.048086293 -0.071685486 -0.01572849 0.28633407 0.19102363 -0.117568016
0.68270767 -0.012061574 -0.58825827 0.28520748 0.2783037 0.19412333 0.71329284 -0.3099208
-0.48916194 -0.26152474 0.19752233 -0.062478185 -0.10539387 0.042205095 0.54798764 -0.13186927
0.25045615 0.35314834 0.2811225 -0.5845935 -0.23703344 -0.35649684 0.22479402 0.4676073
0.5382774 -0.07076878 -0.11307906 -0.056626 -0.40156862 0.12325895 0.3298676 -1.0386521
-0.12369511 -0.39090022 -0.28966472 0.67317504 1.0126407 -0.3932648 -0.17460792 0.25573617
-0.39184138 -0.13689621 -0.19372734 -0.1273479 -0.3571019 0.13197139 -0.48425186 0.044488575
-0.27314138 0.29620627 0.094866656 0.42005605 0.23101993 0.3907147 -0.10612105 -0.052002642
-0.0030550472 -0.4599017 -0.15166922 0.52788514 -0.28685105 -0.12060728 0.3264965 -0.14708588
-0.5912585 0.076362066 0.24728379 -0.31352934 -0.14463343 0.0016920384 -0.11615103 0.41179553
0.24894676 -0.063911304 0.10338234 -0.028481586 0.25610602 -0.040705133 0.13525231 -0.34317115
-0.35366493 -0.35539067 0.008621276 0.15880403 -0.27998224 -0.18746716 0.074031904 0.34375656
-0.44519162 -0.06836187 -0.13460866 0.0062804827 -0.15673012 -0.2705953 -0.018292286 0.26671228
0.26879886 0.35451216 -0.024725433 -0.39140463 -0.57204306 0.17979628 0.18424177 0.38015068
0.35803184 0.40973136 0.029495338 -0.4356333 -0.0683139 0.0665636 -0.23161747 -0.27065757
0.23212662 0.4423031 -0.27202326 -0.22608991 -0.06624291 -0.47866315 0.2816315 0.06077781
0.043018162 -0.18833743 -0.17160964 0.2368193 0.21233833 0.33384866 0.06418821 0.17438518
-0.41166797 0.09021843 0.05727276 -0.82864374 -0.38770667 -0.20850357 -0.37052426 0.22482291
-0.21115074 0.43186766 0.46573493 0.08149283 0.043949425 0.08108551 -0.48364827 0.2561627
0.33249524 0.17177017 0.033510536 0.016434513 0.0788313 0.3387226 -0.3311713 -0.42541987
-0.08451567 0.12987337 0.14229527 -0.06466138 0.06281696 0.19977729 0.011928678 0.5505504
-0.9308513 0.24788538 0.15380026 0.21833232 0.18265629 0.27850902 -0.32734758 0.012028305
-0.34833273 0.31565237 0.1238019 0.13582467 0.7515869 -0.37842762 0.3375031 0.06433352
0.2385196 -0.52090985 -0.25061542 -0.2764738 -0.2123254 -0.34690705 -0.10150948 0.47108743
0.50729597 0.34688136 -0.058392048 -0.098137364 -0.11650084 -0.13092554 -0.27582335 0.1972581
00000000: 3f8f 09be d796 c33c de6f a23e c9e0 f9be
00000010: d818 983d b182 2b3d a5ad 30be d928 a53d
00000020: 1eca 4c3d 830c 0d3f 91df 33be e20d 163e
00000030: 3494 38bd 4a97 11be 040e 79bb 06bf 3e3e
00000040: c7d0 72be 3cd5 efbd 7623 c8bd d0ca 903d
00000050: 224b 393e 1088 9b3c fcfd 14bd 72c9 52be
00000060: 05cd 1abd 916e 12be 2f20 43be 1ecf a0be
00000070: 06a1 043d 9c79 cebd efee ee3d e04d dc3e
00000080: 276b c23e 85d3 29be 7fec 7fbd 3661 d73b
00000090: 044d 0dbf 847d 92bd 4419 123d e86e cebd
000000a0: 9bc2 8dbd 6b38 2ebe 0d6c 9cbe 8152 6f3d
000000b0: ab23 323f ac9e dd3e c498 a63e 6bf2 5bbd
000000c0: 62a5 053e 6ef3 08bf 717a cf3d 2c7f 133e
000000d0: 46a5 503e b30d 303e 2a0d a7be 5be0 8dbd
000000e0: eff4 ab3c 5037 42be 22f6 44bd d7cf 92bd
000000f0: 09d9 80bc 619a 923e b39b 433e 80c7 f0bd
00000100: eec5 2e3f e89d 45bc 1898 16bf b706 923e
00000110: d37d 8e3e 44c8 463e 5c9a 363f f0ad 9ebe
00000120: 6f73 fabe 92e6 85be 4b43 4a3e 20e9 7fbd
00000130: bed8 d7bd 40df 2c3d eb48 0c3f bd08 07be
00000140: ca3b 803e dccf b43e 4aef 8f3e eba7 15bf
00000150: e5b8 72be c186 b6be 6730 663e 396a ef3e
00000160: 8ccc 093f 39ef 90bd ff95 e7bd aaf0 67bd
00000170: 679a cdbe 306f fc3d 68e4 a83e 8df2 84bf
00000180: dd53 fdbd 1324 c8be ef4e 94be 3355 2c3f
00000190: 369e 813f 015a c9be 6bcc 32be daef 823e
000001a0: 6f9f c8be 852e 0cbe 7660 46be 7d67 02be
000001b0: 0fd6 b6be 8223 073e dcef f7be a739 363d
000001c0: 30d9 8bbe 59a8 973e 7349 c23d 9611 d73e
000001d0: 7d90 6c3e c20b c83e fe55 d9bd b900 55bd
000001e0: 3037 48bb 3c78 ebbe 2d4f 1bbe 7b23 073f
000001f0: 24de 92be f300 f7bd 8d2a a73e ae9d 16be
00000200: b85c 17bf b763 9c3d f637 7d3e eb86 a0be
00000210: c91a 14be 63c7 dd3a 97e0 edbd ddd6 d23e
00000220: e6eb 7e3e eee3 82bd 1fba d33d 3752 e9bc
00000230: 5420 833e 6dba 26bd 957f 0a3e 21b4 afbe
00000240: 9213 b5be c4f5 b5be 4140 0d3c 869d 223e
00000250: d559 8fbe 64f7 3fbe 0a9e 973d dc00 b03e
00000260: 28f0 e3be 4f01 8cbd dad6 09be 82cc cd3b
00000270: dc7d 20be 788b 8abe b4d9 95bc 838e 883e
00000280: 01a0 893e 9e82 b53e fe8c cabc 3066 c8be
00000290: 6a71 12bf 841c 383e e0a9 3c3e 1ca3 c23e
000002a0: f34f b73e 4fc8 d13e 35a0 f13c 540b dfbe
000002b0: 28e8 8bbd 7f52 883d 212d 6dbe a193 8abe
000002c0: 9ab2 6d3e 8d75 e23e a246 8bbe 1d84 67be
000002d0: 5daa 87bd 5613 f5be 0132 903e 27f2 783d
000002e0: d033 303d 87db 40be 70ba 2fbe c280 723e
000002f0: 386f 593e 36ee aa3e 1c75 833d 0792 323e
00000300: 25c6 d2be 71c4 b83d d796 6a3d ff21 54bf
00000310: 7d81 c6be f681 55be 5bb5 bdbe fa37 663e
00000320: e637 58be c21d dd3e cf74 ee3e b6e5 a63d
00000330: 5004 343d 2910 a63d bfa0 f7be c227 833e
00000340: d13c aa3e 85e4 2f3e 5842 093d aca1 863c
00000350: 4e72 a13d 0c6d ad3e 498f a9be a2d0 d9be
00000360: 8d16 adbd 86fd 043e dab5 113e 306d 84bd
00000370: 2ea6 803d 6b92 4c3e 8070 433c dff0 0c3f
00000380: 454c 6ebf aad5 7d3e d17d 1d3e 8292 5f3e
00000390: 400a 3b3e bc98 8e3e 1a9a a7be 5e12 453c
000003a0: ab58 b2be 309d a13e da8b fd3d 9f15 0b3e
000003b0: 0068 403f 44c1 c1be 35cd ac3e 4bc1 833d
000003c0: 7b3e 743e 595a 05bf aa50 80be f98d 8dbe
000003d0: d46b 59be cd9d b1be 34e4 cfbd 5f32 f13e
000003e0: 26de 013f 6f9a b13e 802c 6fbd 3efc c8bd
000003f0: fe97 eebd 5811 06be b838 8dbe 07fe 493e

network_body.linear_encoder.seq_layers.0.bias f4 [128]
-0.02558651 -0.015689515 -0.059542175 -0.066630065 -0.07502833 0.020552734 0.07028913 -0.12036249
0.03088891 -0.09749022 0.013737141 -0.011341313 0.035501115 -0.1366692 -0.083349265 -0.10042436
-0.15063849 0.043557443 -0.123470075 -0.061293606 0.082806006 -0.008715304 0.012468982 0.05041044
0.017868 0.03868762 0.016500914 -0.019879496 -0.12906465 0.057657614 -0.046425205 -0.070004985
-0.03613136 -0.02611043 -0.024932157 0.043288447 -0.08095644 -0.04432286 -0.044784427 0.027220452
-0.03625194 -0.031085825 -0.13955021 -0.023688436 -0.0014124904 -0.04173698 -0.04146579 -0.047905087
-0.0354499 0.07135884 0.033466633 0.02169293 0.03355333 -0.06712832 0.03450525 -0.061460402
-0.0050489767 0.028574182 -0.0055052666 -0.008196201 0.11011151 -0.0625439 0.018130956 -0.029307464
-0.015696887 -0.060076892 -0.083504885 -0.009438489 0.065627925 -0.028041016 -0.06777662 0.023411052
-0.018932374 -0.057236854 -0.0056957495 -0.05805927 0.0464945 0.02145239 -0.030807508 0.038684577
0.044675075 -0.07345082 0.012353076 -0.04477169 0.009706439 -0.036322378 -0.051741183 0.00096965785
0.07042745 -0.037285022 0.055406854 -0.016389925 -0.05467704 0.045996815 0.041004863 0.010543593
-0.09610756 -0.025284741 0.054754138 -0.08931605 -0.041596774 0.0054784236 -0.056585625 -0.03790923
0.13222317 -0.0165484 0.025892535 -0.11553377 -0.056068197 0.0031593624 0.011849109 -0.03568335
0.15002252 -0.06028045 -0.07279839 0.027605092 -0.04633532 0.015734693 -0.010468829 -0.06269098
0.11433731 0.021495452 0.11472474 -0.059392013 -0.04500323 0.03480265 -0.08523227 -0.027782042
00000000: cd9a d1bc 4c87 80bc 7fe2 73bd 5875 88bd
00000010: 74a8 99bd 355e a83c bff3 8f3d 9c80 f6bd
00000020: bd0a fd3c f4a8 c7bd bf11 613c ead0 39bc
00000030: 9e69 113d 03f3 0bbe 05b3 aabd 49ab cdbd
00000040: fa40 1abe 4a69 323d e1dd fcbd 010f 7bbd
00000050: 3296 a93d a2ca 0ebc b34a 4c3c 2d7b 4e3d
00000060: e95f 923c e976 1e3d ed2c 873c 53da a2bc
00000070: 8629 04be 642a 6c3d 5b28 3ebd c65e 8fbd
00000080: 7afe 13bd 8ae5 d5bc 863e ccbc 3a4f 313d
00000090: 7dcc a5bd e38b 35bd e06f 37bd 6dfd de3c
000000a0: ea7c 14bd b3a7 febc 40e6 0ebe 400e c2bc
000000b0: 5023 b9ba 65f4 2abd 08d8 29bd 2038 44bd
000000c0: ea33 11bd 9524 923d 4f14 093d 5fb5 b13c
000000d0: 376f 093d 937a 89bd 6155 0d3d e7bd 7bbd
000000e0: e371 a5bb 6714 ea3c 8665 b4bb 5c49 06bc
000000f0: 2582 e13d 0417 80bd 5f87 943c 3516 f0bc
00000100: c296 80bc 3013 76bd 9c04 abbd e4a3 1abc
00000110: ef67 863d 46b6 e5bc 78ce 8abd 89c8 bf3c
00000120: 1118 9bbc 3171 6abd 69a3 babb 8fcf 6dbd
00000130: 0471 3e3d ecbc af3c 0760 fcbc b873 1e3d
00000140: 36fd 363d 626d 96bd 8e64 4a3c 8562 37bd
00000150: c207 1f3c c6c6 14bd 90ee 53bd a330 7e3a
00000160: 443c 903d 2eb8 18bd 4cf2 623d 2a44 86bc
00000170: 08f5 5fbd 2867 3c3d b7f4 273d 09bf 2c3c
00000180: 0ad4 c4bd f221 cfbc e045 603d 55eb b6bd
00000190: 6161 2abd 5984 b33b 54c6 67bd b546 1bbd
000001a0: 8365 073e 8390 87bc 951c d43c f89c ecbd
000001b0: c4a7 65bd 4e0d 4f3b c422 423c b428 12bd
000001c0: 819f 193e a2e8 76bd 5317 95bd 1324 e23c
000001d0: 1bca 3dbd 0be6 803c 7485 2bbc 2164 80bd
000001e0: ae29 ea3d 3b17 b03c cef4 ea3d 0a45 73bd
000001f0: 4f55 38bd 398d 0e3d 428e aebd 2a97 e3bc

network_body.linear_encoder.seq_layers.0.weight f4 [128, 141]
-0.17325792 -0.02981503 0.22098732 0.24341352 0.015446546 0.103467174 0.17797571 -0.18071796
0.03359844 0.17916775 0.061645925 0.07422797 -0.0907097 -0.12892447 0.16819236 0.21886215
-0.10010693 0.033268988 0.26707292 0.1649005 0.083166465 0.12137944 0.15348154 0.08185134
0.30724728 -0.03895038 -0.0598665 0.061362978 0.25906998 -0.03485026 -0.17063445 -0.10241577
0.13404635 0.11787292 0.010258475 -0.0033564148 -0.053809147 -0.09769862 -0.16559209 0.17431746
0.06392941 -0.045699347 0.3674801 -0.14183353 -0.30909908 -0.087015025 -0.016851097 0.041442804
0.22812498 0.02222661 -0.20333478 0.05647883 0.024138927 0.04671514 0.363222 0.0491269
0.21465679 0.34705085 -0.029991146 -0.014964237 0.20492543 -0.101293005 -0.016728768 -0.070403844
0.1632234 -0.023789335 0.10084609 0.096254155 0.007870089 0.31586128 -0.099185534 -0.05874054
-0.005232336 -0.12643255 0.097998895 -0.22512446 -0.0831649 0.032312702 0.11373823 -0.20148909
-0.18220386 -0.47848356 -0.05591339 -0.18116318 0.00926781 -0.14338619 -0.34771553 0.4321198
-0.34818724 0.028404288 0.14418028 0.07399558 0.147903 0.35484985 0.36149988 -0.1098184
-0.06631058 0.042599402 0.61222917 0.3927349 0.0023832703 -0.10696989 0.10440144 -0.002485914
-0.015105914 0.20362307 -0.06467563 0.053304248 -0.1895488 0.25296104 -0.0033757088 0.19124341
0.12493593 -0.00083661196 0.1062307 0.20869696 0.23184267 0.0450576 0.31019047 0.020260185
-0.08576218 0.05407122 0.040208053 -0.1365994 -0.021694861 -0.009633807 -0.43406487 -0.072858214
-0.1027651 -0.018377034 -0.09623557 -0.22094214 0.2525324 -0.21015027 0.17182988 0.021602226
0.0060858256 -0.06388313 -0.071408674 -0.12086503 0.033913728 0.36421797 -0.09225584 -0.055559278
-0.16710185 0.04636143 -0.18461874 0.15485865 0.024675718 -0.21373971 0.0041457787 -0.03767252
-0.34849623 0.088867955 -0.0876934 -0.43793762 0.13021381 -0.2249969 0.023968523 0.06689878
0.0021581727 0.08331523 -0.1808502 -0.2736999 -0.29185906 0.012168882 -0.18939999 -0.20705344
0.025120106 -0.26563472 -0.11761609 0.26489246 0.010471696 -0.3991798 0.10272661 -0.18884361
-0.27835673 0.1404346 0.14022584 -0.20627658 0.12308602 -0.025008844 -0.048249293 -0.24083647
-0.04129861 -0.14682463 0.3890108 0.17379014 -0.011858268 -0.14725755 -0.043758493 -0.22309092
0.2566039 -0.26878396 -0.69039303 0.1094478 -0.025937315 -0.14592665 -0.087682694 -0.11475782
-0.3462998 0.22323377 0.0077860965 -0.3324652 0.3928546 -0.17226408 0.09442104 -0.1827182
-0.09704905 -0.081822164 0.18305042 -0.25044876 -0.44944254 -0.19061324 -0.009995332 0.1218378
0.4743109 0.16583651 -0.6673923 0.27975872 -0.07815717 -0.18126285 0.0502419 0.20106494
0.1651776 0.20068304 -0.07538791 -0.32611936 -0.07480491 0.048521165 -0.23981741 0.7179586
-0.10459883 0.15461966 -0.32767686 -0.27922773 -0.09240769 0.24602345 -0.64300364 -1.3277436
0.13525197 -0.1981421 -0.17341071 0.11291441 -0.042336185 -0.35748374 0.21217127 0.09172391
-0.34713453 0.28144118 -0.20203146 0.18705995 -0.27756467 -0.058388814 -0.19220635 0.40368253
00000000: 866a 31be a63e f4bc 804a 623e 6541 793e
00000010: 8213 7d3c 99e6 d33d 443f 363e 210e 39be
00000020: 859e 093d c077 373e 7080 7c3d d504 983d
00000030: 02c6 b9bd c704 04be 9e3a 2c3e 661d 603e
00000040: dd04 cdbd 1045 083d c8bd 883e addb 283e
00000050: 2e53 aa3d c995 f83d 442a 1d3e ada1 a73d
00000060: 844f 9d3e 6f8a 1fbd 9336 75bd bf57 7b3d
00000070: d2a4 843e 25bf 0ebd ccba 2ebe 5cbf d1bd
00000080: 7243 093e 5c67 f13d 2a13 283c 4cf7 5bbb
00000090: fb66 5cbd 3716 c8bd f990 29be 4780 323e
000000a0: 6ced 823d 3d2f 3bbd 5a26 bc3e cf3c 11be
000000b0: 3c42 9ebe ef34 b2bd 500b 8abc eebf 293d
000000c0: 9899 693e 9414 b63c fe36 50be 5856 673d
000000d0: 00bf c53c 6058 3f3d 3cf8 b93e 4a39 493d
000000e0: fdce 5b3e a6b0 b13e feaf f5bc 8f2c 75bc
000000f0: f9d7 513e b572 cfbd c50a 89bc e42f 90bd
00000100: 0924 273e dae1 c2bc 6588 ce3d e620 c53d
00000110: 8cf1 003c 92b8 a13e c921 cbbd ec99 70bd
00000120: 0474 abbb 8977 01be a5b3 c83d 0787 66be
00000130: 5c52 aabd 535a 043d 97ef e83d 2853 4ebe
00000140: a693 3abe ccfb f4be 7005 65bd d782 39be
00000150: 03d8 173c d4d3 12be c507 b2be ce3e dd3e
00000160: 9945 b2be 1cb0 e83c ffa3 133e ff8a 973d
00000170: e273 173e e1ae b53e 8316 b93e 78e8 e0bd
00000180: d7cd 87bd b67c 2e3d 0dbb 1c3f 8c14 c93e
00000190: a430 1c3b 0813 dbbd 6cd0 d53d b7ea 22bb
000001a0: cc7e 77bc 9182 503e a874 84bd 8e55 5a3d
000001b0: 1519 42be 1c84 813e ff3a 5dbb 50d5 433e
000001c0: 69de ff3d 1450 5bba 7b8f d93d a8b4 553e
000001d0: 2a68 6d3e 518e 383d 49d1 9e3e b0f8 a53c
000001e0: 15a4 afbd c979 5d3d 33b1 243d b7e0 0bbe
000001f0: 6cb9 b1bc 1ed7 1dbc c03d debe b036 95bd
00000200: 8276 d2bd 6f8b 96bc 2817 c5bd a83e 62be
00000210: ed4b 813e a231 57be 2cf4 2f3e 27f7 b03c
00000220: 9b6b c73b 29d5 82bd b63e 92bd 1688 f7bd
00000230: 1fe9 0a3d c77a ba3e a1f0 bcbd 2092 63bd
00000240: bf1c 2bbe 7ce5 3d3d b20c 3dbe 4493 1e3e
00000250: bb24 ca3c 95de 5abe 50d9 873b 804e 1abd
00000260: 196e b2be 6700 b63d 9998 b3bd 5c39 e0be
00000270: c556 053e 9665 66be a359 c43c 3a02 893d
00000280: 2170 0d3b 2da1 aa3d cb30 39be 6522 8cbe
00000290: 8d6e 95be fe5f 473c 12f2 41be d105 54be
000002a0: aec8 cd3c 4601 88be b4e0 f0bd fc9f 873e
000002b0: 7a91 2b3c 4b61 ccbe 5462 d23d 3860 41be
000002c0: c684 8ebe 16ce 0f3e 5d97 0f3e 2b3a 53be
000002d0: 8614 fc3d 59df ccbc 0da1 45bd d69d 76be
000002e0: bb28 29bd 3259 16be 6c2c c73e 0bf6 313e
000002f0: 2e49 42bc afca 16be 1b3c 33bd f271 64be
00000300: 9661 833e 0d9e 89be 99bd 30bf 2b26 e03d
00000310: 7e7a d4bc cc6d 15be fc92 b3bd 2606 ebbd
00000320: 354e b1be 6597 643e 8322 ff3b e138 aabe
00000330: 3d24 c93e ff65 30be d15f c13d 7b1a 3bbe
00000340: a7c1 c6bd 6192 a7bd 9271 3b3e d23a 80be
00000350: 551d e6be 1e30 43be 76c3 23bc 1986 f93d
00000360: e1d8 f23e 0cd1 293e 39da 2abf 893c 8f3e
00000370: de10 a0bd f89c 39be 73ca 4d3d f8e3 4d3e
00000380: 5124 293e db7f 4d3e fa64 9abd 1ef9 a6be
00000390: 5133 99bd 21be 463d b292 75be 23cc 373f
000003a0: e937 d6bd 9e54 1e3e 43c5 a7be f0f6 8ebe
000003b0: 3e40 bdbd 92ed 7b3e e39b 24bf 81f3 a9bf
000003c0: 7e7f 0a3e c3e5 4abe 9492 31be ac3f e73d
000003d0: b568 2dbd 1c08 b7be 6d43 593e bfd9 bb3d
000003e0: 9ebb b1be 0f19 903e 56e1 4ebe a58c 3f3e
000003f0: f51c 8ebe 1c29 6fbd bed1 44be 7aaf ce3e

network_body.linear_encoder.seq_layers.2.bias f4 [128]
0.11261319 -0.06177922 0.08588911 -0.05335172 -0.0377679 -0.08579829 0.12025365 -0.1895489
-0.0694291 -0.10181353 0.0012317756 0.13530587 -0.037805006 -0.029473942 -0.02806917 -0.0429561
0.08363002 -0.013965378 -0.09966258 -0.037977643 0.024656387 0.0030433757 0.10447864 -0.018137764
-0.050711326 -0.0028615592 -0.07732302 0.13347664 -0.019851688 -0.13336857 0.06296403 -0.008248568
0.0064685275 0.048695683 -0.06075304 -0.027865974 -0.093307115 0.08165442 0.0623664 -0.12690164
0.06587927 0.03383736 -0.024677712 -0.009991277 -0.0037456974 0.051869903 0.012102275 -0.0004143182
-0.007654236 -0.074220695 -0.02461744 0.076571755 0.023506945 -0.054565497 0.12159399 -0.03383621
0.018395968 -0.0642469 -0.065836415 0.11081058 0.024067298 -0.020019911 -0.031163488 0.038828183
-0.04377685 -0.035318878 -0.041881 0.06070539 -0.09533479 0.019909598 -0.113069475 0.05563728
-0.0065988866 0.09411763 0.017613139 0.022221323 -0.0051199025 0.03114045 0.06475009 0.013117471
-0.08590334 -0.04326145 0.05348876 0.03443611 -0.034053136 0.022652933 -0.035747305 -0.021419063
0.006719584 -0.05292917 -0.08329446 0.14969203 -0.07924988 0.00031409986 0.0027203946 0.08152421
0.007571343 -0.025624383 0.016855516 -0.03593161 0.07286799 0.035980582 0.010351388 -0.1311464
-0.17280272 -0.04774056 0.09565038 -0.05692443 0.04494836 -0.04684196 0.05893955 0.03651262
0.011149721 -0.08067914 -0.01982213 0.06886682 0.12730065 0.027146056 0.030124398 0.003040267
0.1179235 -0.115396194 0.023436723 -0.07340742 -0.03928049 -0.06834221 -0.055289574 0.06685868
00000000: bfa1 e63d 350c 7dbd a1e6 af3d 5587 5abd
00000010: 83b2 1abd 04b7 afbd 8c47 f63d 1b19 42be
00000020: d830 8ebd 9d83 d0bd 8873 a13a 9f8d 0a3e
00000030: 6cd9 1abd 5673 f1bc 51f1 e5bc bcf2 2fbd
00000040: 3746 ab3d 0acf 64bc e51b ccbd 728e 1bbd
00000050: 31fc c93c 5f73 473b e6f8 d53d a695 94bc
00000060: aeb6 4fbd ff88 3bbb 885b 9ebd 1aae 083e
00000070: 02a0 a2bc c591 08be 49f3 803d 0025 07bc
00000080: f1f5 d33b 2075 473d 2ed8 78bd 2f47 e4bc
00000090: cd17 bfbd 6f3a a73d e973 7f3d 81f2 01be
000000a0: b6eb 863d 0b99 0a3d ea28 cabc 74b2 23bc
000000b0: 607a 75bb 8975 543d 9f48 463c d938 d9b9
000000c0: 63d0 fabb 0501 98bd 83aa c9bc a7d1 9c3d
000000d0: a391 c03c 1280 5fbd 4506 f93d d697 0abd
000000e0: 24b3 963c e193 83bd 3ed5 86bd a8f0 e23d
000000f0: c828 c53c cc00 a4bc 924a ffbc 4d0a 1f3d
00000100: 5b4f 33bd 87aa 10bd 698b 2bbd 37a6 783d
00000110: e33e c3bd 7419 a33c f890 e7bd ebe3 633d
00000120: 793b d8bb bec0 c03d 6e49 903c 7e09 b63c
00000130: dbc4 a7bb 421a ff3c b29b 843d a9ea 563c
00000140: 17ee afbd eb32 31bd 0817 5b3d e10c 0d3d
00000150: 4d7b 0bbd a592 b93c c46b 12bd 0877 afbc
00000160: f52f dc3b 42cc 58bd 4996 aabd de48 193e
00000170: c34d a2bd c5ad a439 a648 323b 2af6 a63d
00000180: 0719 f83b 3aea d1bc 9414 8a3c 062d 13bd
00000190: d03b 953d 6060 133d de98 293c 3e4b 06be
000001a0: 32f3 30be 9b8b 43bd 59e4 c33d 9729 69bd
000001b0: c61b 383d 5bdd 3fbd 996a 713d 428e 153d
000001c0: 52ad 363c 1b3b a5bd 0562 a2bc 0c0a 8d3d
000001d0: 1a5b 023e 6861 de3c 71c7 f63c 373f 473b
000001e0: e081 f13d d754 ecbd 5ffe bf3c a156 96bd
000001f0: 94e4 20bd 00f7 8bbd 5277 62bd 34ed 883d

network_body.linear_encoder.seq_layers.2.weight f4 [128, 128]
0.26875412 0.2178397 0.10158197 0.07681023 0.05137319 0.25662977 -0.1464087 0.36852643
0.047807723 0.20179206 -0.044911385 -0.07767362 0.09229025 -0.015710544 0.13736372 0.08838343
0.08696014 0.15882008 0.12725787 -0.098263904 0.13559093 -0.18126822 0.1600781 0.08594528
0.15985388 -0.072732076 0.19921596 0.10084804 0.055570863 0.24402608 0.010939022 0.022639832
0.020653497 -0.07153156 0.01841266 0.2500079 -0.19565746 0.24276517 -0.0883011 0.265686
0.23206337 0.006336888 -0.17728136 0.091417484 -0.06540777 0.018679949 0.17619868 -0.14095035
0.18269841 0.04779444 0.037870314 -0.06298002 0.27123374 -0.01927513 0.09440606 0.1488648
-0.030761663 -0.102051675 0.11372383 -0.18603146 -0.02089585 0.2337153 0.01227172 0.014469449
0.106415205 0.04459089 0.014469678 0.11399494 0.010973175 -0.06027668 0.086347125 -0.049415477
-0.09432048 -0.026028262 -0.035195325 -0.0015393333 0.0017407095 -0.0047456156 -0.0047208625 0.16439085
0.13454959 0.35330698 -0.030712398 0.07706965 0.021622451 -0.004859246 -0.2191265 0.09903516
0.14357623 -0.013821564 0.2327888 -0.008295487 -0.027657771 -0.015279284 0.14005019 -0.12583183
0.2501923 0.12662385 0.06395648 0.13433479 -0.035920102 -0.09491375 0.045514032 -0.059902344
0.08961344 -0.08546848 -0.15817745 0.008709355 0.018547669 -0.0019342141 0.096141174 0.07600466
-0.0462474 0.058344744 0.10202557 0.15825705 0.06659274 -0.08775726 -0.17319016 0.1693863
-0.07210082 -0.15619685 -0.14483061 -0.038405944 -0.09197439 0.03820987 0.1870695 0.16130692
-0.080856636 0.08554716 -0.00051772967 -0.08895061 -0.043204688 0.024534559 0.23340042 0.020861449
0.13468225 -0.17878321 -0.1578684 -0.053118072 0.0203665 0.01775504 -0.031822592 -0.20951648
-0.17268342 0.105506875 -0.025508858 -0.05956904 0.015358848 0.11657986 0.11178602 -0.14082728
-0.058728695 0.14557461 0.019215783 -0.13628021 -0.05762959 0.1580438 0.016316319 -0.070458345
-0.045691587 -0.20419179 -0.061624225 -0.13369991 -0.10124566 -0.10058496 -0.011794606 -0.068051256
-0.21488754 0.09714602 0.34299874 0.022047766 0.008338805 -0.055386208 0.21942517 -0.21753417
0.070559904 -0.043960374 -0.021039497 0.016563416 0.21285406 -0.023329051 -0.048131492 0.15821771
-0.057904556 -0.317707 0.028680718 0.10002861 0.07052459 -0.061201435 -0.0685425 0.30045494
-0.1621909 -0.060541447 0.14842841 -0.18621376 0.029213704 0.4297572 -0.053834144 0.22938135
0.07439726 0.08095391 -0.10024696 -0.20428795 -0.14195146 0.1271671 0.045257162 0.34498096
0.05121472 -0.031890277 0.27593783 0.18050444 -0.09194509 0.1586859 0.1752803 0.048473947
-0.25169992 0.078035474 0.30093956 0.11767907 -0.0098703625 0.031574927 0.030313827 -0.12360582
-0.02701691 0.4221617 -0.059796616 -0.17502876 0.019994572 0.009487098 -0.04245203 0.3784587
0.17923719 0.16182253 -0.14026006 -0.10448014 -0.10989032 -0.008342446 0.032170415 0.18127947
-0.14285766 -0.21864977 0.070728175 -0.005562623 -0.10903348 -0.17418453 -0.11176263 0.00929879
-0.041048206 -0.059521187 0.1788896 -0.17075907 -0.054597016 0.4120101 0.013553269 -0.06301107
00000000: 249a 893e 5f11 5f3e 350a d03d af4e 9d3d
00000010: b26c 523d fa64 833e 2aec 15be 7faf bc3e
00000020: 08d2 433d 94a2 4e3e 00f5 37bd 5913 9fbd
00000030: ac02 bd3d 66b3 80bc 13a9 0c3e 5f02 b53d
00000040: 2818 b23d bba1 223e e34f 023e 963e c9bd
00000050: 59d8 0a3e 609e 39be 83eb 233e 1404 b03d
00000060: bcb0 233e 8ef4 94bd 45ff 4b3e 6b89 ce3d
00000070: 469e 633d f9e1 793e 9539 333c 2b77 b93c
00000080: 8631 a93c 237f 92bd 26d6 963c 0901 803e
00000090: 6e5a 48be 6f97 783e 35d7 b4bd ff07 883e
000000a0: 05a2 6d3e aba5 cf3b 3f89 35be 1739 bb3d
000000b0: 82f4 85bd b106 993c 6d6d 343e 4a55 10be
000000c0: 4b15 3b3e 1ac4 433d e71d 1b3d abfb 80bd
000000d0: 26df 8a3e e1e6 9dbc f757 c13d 0470 183e
000000e0: e2ff fbbc 7800 d1bd 0ae8 e83d 087f 3ebe
000000f0: c62d abbc 1053 6f3e 530f 493c 4511 6d3c
00000100: 37f0 d93d f0a4 363d 3a12 6d3c 2e76 e93d
00000110: d5c8 333c aee4 76bd c3d6 b03d e267 4abd
00000120: 192b c1bd 3939 d5bc f928 10bd 74c3 c9ba
00000130: 8528 e43a 1c81 9bbb 77b1 9abb 1356 283e
00000140: 5ec7 093e a7e4 b43e 9198 fbbc b1d6 9d3d
00000150: 9121 b13c 4f3a 9fbb b262 60be f2d2 ca3d
00000160: a605 133e d773 62bc 3060 6e3e cbe9 07bc
00000170: 8d92 e2bc f655 7abc 5169 0f3e 0fda 00be
00000180: 3519 803e afa9 013e 9dfb 823d 0f8f 093e
00000190: f520 13bd 2462 c2bd ec6c 3a3d 295c 75bd
000001a0: 4087 b73d 190a afbd 45f9 21be afb1 0e3c
000001b0: 48f1 973c 7585 fdba aae5 c43d 55a8 9b3d
000001c0: ea6d 3dbd e6fa 6e3d c8f2 d03d 230e 223e
000001d0: c661 883d 14ba b3bd c358 31be 9a73 2d3e
000001e0: 98a9 93bd 11f2 1fbe 7a4e 14be 8d4f 1dbd
000001f0: 125d bcbd f481 1c3d 268f 3f3e a42d 253e
00000200: 2a98 a5bd 5933 af3d 40b8 07ba bd2b b6bd
00000210: 66f7 30bd b3fc c83c 8500 6f3e a1e5 aa3c
00000220: 25ea 093e f212 37be 41a8 21be 5692 59bd
00000230: a5d7 a63c 0573 913c 6858 02bd 7d8b 56be
00000240: ecd3 30be fd13 d83d f4f7 d0bc aafe 73bd
00000250: ada3 7b3c 6cc1 ee3d 12f0 e43d 0735 10be
00000260: 808d 70bd 8311 153e 6b6a 9d3c 0a8d 0bbe
00000270: 010d 6cbd 3cd6 213e cda9 853c 774c 90bd
00000280: 1a27 3bbd a717 51be af69 7cbd a1e8 08be
00000290: e259 cfbd 7dff cdbd 2a3e 41bc 755e 8bbd
000002a0: 7b0b 5cbe 7ef4 c63d 889d af3e 849d b43c
000002b0: 7c9f 083c a6dc 62bd feb0 603e 47c1 5ebe
000002c0: b681 903d cb0f 34bd 065b acbc 00b0 873c
000002d0: 6af6 593e 911c bfbc 8725 45bd d303 223e
000002e0: 542d 6dbd 7eaa a2be d3f3 ea3c cddb cc3d
000002f0: 326f 903d 5bae 7abd 0360 8cbd 3bd5 993e
00000300: 5f15 26be 4ffa 77bd 9efd 173e d2ae 3ebe
00000310: 9451 ef3c 2309 dc3e 3181 5cbd f2e2 6a3e
00000320: 975d 983d 2acb a53d 474e cdbd dc30 51be
00000330: b95b 11be 1838 023e 935f 393d 58a1 b03e
00000340: 87c6 513d 619f 02bd b947 8d3e 28d6 383e
00000350: b54d bcbd 8e7e 223e ae7c 333e 9e8c 463d
00000360: d0de 80be 10d1 9f3d c014 9a3e b901 f13d
00000370: 4db7 21bc b654 013d b454 f83c 0c25 fdbd
00000380: 9152 ddbc 9425 d83e 4ced 74bd bd3a 33be
00000390: a8cb a33c c66f 1b3c 2ee2 2dbd 57c5 c13e
000003a0: f489 373e ceb4 253e 55a0 0fbe aff9 d5bd
000003b0: 2d0e e1bd c1ae 08bc 20c5 033d 53a1 393e
000003c0: 4749 12be bae5 5fbe efd9 903d aa46 b6bb
000003d0: f24c dfbd 6e5d 32be cee3 e4bd f459 183c
000003e0: 2a22 28bd 7dcc 73bd d62e 373e 77db 2ebe
000003f0: 1fa1 5fbd fdf2 d23e 880e 5e3c f30b 81bd
