Assets/Crossroads/Models/CrossroadLights.onnx (onnx, 479971 bytes, 15 tensors)

network_body.observation_encoder.processors.0.conv_layers.0.weight f4 [16, 9, 8, 8]
-0.058936212 -0.011838821 -0.32817605 -0.5105318 -0.21546407 -0.104609765 0.05560256 0.258477
-0.17251913 0.079033844 -0.18586048 -0.4707175 -0.30483267 -0.15008382 -0.04456205 0.022568997
-0.007665405 -0.11054147 -0.046691854 -0.16674487 0.059412096 -0.1771247 -0.24703655 0.05196734
-0.06503288 -0.15445398 -0.18016326 0.19768268 0.11219888 -0.22114182 0.01246452 0.006345443
-0.16667762 -0.28514707 -0.10263905 0.067225195 0.08087056 -0.049941424 0.06391985 -0.059100498
-0.66368943 -0.4445066 0.14416303 0.38450018 0.24013862 0.2534214 0.20460059 -0.037760682
-0.59954464 -0.39951313 0.041385554 0.16411366 0.21489309 0.12589604 0.12568726 -0.11164872
-0.16351119 0.22359045 0.013397287 -0.047089648 0.16427778 -0.06594594 -0.066233836 -0.017656518
0.11840638 -0.037302002 -0.396914 -0.14553417 0.053983074 0.25003985 0.32013923 0.23197934
0.062604316 -0.0746189 -0.2617805 -0.35574076 -0.08644429 0.22896218 0.2641708 -0.0026116266
0.04884162 -0.13492548 -0.050164767 -0.011395882 -0.28900343 -0.1358166 0.04145605 -0.2825761
-0.121665835 -0.11426223 -0.064654045 -0.013651299 -0.03932869 -0.1789463 -0.2438928 -0.03256293
-0.17574131 -0.16974245 -0.21282664 -0.08283322 -0.0320718 0.03444698 0.10929669 0.35101074
-0.3860984 -0.40610164 -0.26375344 -0.27502975 -0.029418211 -0.29427594 -0.2749611 0.09592439
-0.026759269 -0.437514 -0.17525712 -0.089298755 -0.3096916 -0.35864776 -0.5306774 -0.09633809
-0.0035165926 0.036653765 -0.2374805 -0.18929654 -0.041427474 -0.2083224 0.004382667 -0.16917068
-0.06013622 -0.0035548327 -0.20545001 -0.06173613 -0.10005164 0.2914805 0.23278674 -0.23810768
-0.036592167 -0.26427203 -0.09663806 -0.3370294 0.13196482 0.32827622 0.34729904 0.23792809
0.21295285 -0.07248514 -0.3293569 -0.39007223 0.030044377 0.44218656 0.31608334 0.13987555
-0.00919328 -0.24096388 -0.12855196 0.06535272 0.07567071 0.29895806 0.16869982 0.293121
0.055887878 -0.47850114 -0.22646883 -0.2268722 -0.16711879 -0.033141915 0.17955816 0.036766294
-0.07191254 -0.2618573 -0.093189456 -0.08135355 -0.013072386 -0.28187576 -0.10741866 0.053909943
0.2069639 0.19070028 0.38226023 0.3473413 0.08338599 -0.2515183 -0.4140421 -0.15529147
-0.089723155 0.104249224 0.29842806 0.57273495 0.015054733 -0.23760179 0.11338316 0.15931213
-0.21025252 0.16530244 -0.02213563 -0.24022938 0.04959096 0.17478164 0.22789742 0.2608364
0.23414353 -0.0010674711 -0.23341416 -0.3722436 -0.22554849 0.17729414 0.27774468 0.111452706
-0.2475924 -0.11916464 0.040383816 -0.143366 -0.005351772 0.10738015 0.26361912 0.12565316
-0.15999705 -0.100131534 -0.03765896 0.012888406 0.07285779 0.12599628 -0.06264596 0.016751999
-0.2522915 -0.4024847 -0.27994308 0.20342468 0.1805902 0.39612925 0.24238758 0.08987877
-0.56019586 -0.4492475 -0.04145358 0.02389769 0.16020766 0.15086088 0.2258518 0.25541043
0.02850629 0.15281697 0.31958333 0.105349734 0.005724345 0.08397185 0.18675971 -0.04384674
0.0019899758 0.1102462 0.17185408 -0.18622294 -0.32099968 -0.20382473 0.09951113 0.054078616
00000000: 1967 71bd 9df7 41bc b106 a8be 36b2 02bf
00000010: 9da2 5cbe a53d d6bd 83bf 633d 1957 843e
00000020: dba8 30be 7fdc a13d 3652 3ebe e201 f1be
00000030: 0713 9cbe 93af 19be b286 36bd 9ee2 b83c
00000040: 142e fbbb 9163 e2bd f53f 3fbd 2bbf 2abe
00000050: 195a 733d 2d60 35be 26f7 7cbe b5db 543d
00000060: f52f 85bd 2f29 1ebe b87c 38be 546d 4a3e
00000070: 87c8 e53d 0073 62be fc37 4c3c 6fed cf3b
00000080: 8aad 2abe ccfe 91be 6c34 d2bd 5dad 893d
00000090: 779f a53d 618f 4cbd 69e8 823d 5d13 72bd
000000a0: 8de7 29bf 5e96 e3be 799f 133e 35dd c43e
000000b0: e6e6 753e 73c0 813e d182 513e f2aa 1abd
000000c0: c27b 19bf fc8c ccbe e683 293d 690d 283e
000000d0: ef0c 5c3e e4ea 003e 29b4 003e 16a8 e4bd
000000e0: 7a6f 27be e5f4 643e 4b80 5b3c 13e1 40bd
000000f0: 6f38 283e aa0e 87bd 9ba5 87bd 67a4 90bc
00000100: 0b7f f23d fcc9 18bd 5038 cbbe e906 15be
00000110: 5b1d 5d3d 3905 803e 4ae9 a33e fe8b 6d3e
00000120: b136 803d cbd1 98bd 1808 86be a723 b6be
00000130: b409 b1bd 1075 6a3e 6541 873e d327 2bbb
00000140: 270e 483d e829 0abe 9279 4dbd cbb5 3abc
00000150: 42f8 93be 8213 0bbe d2cd 293d d1ad 90be
00000160: f02b f9bd 5102 eabd 5769 84bd b3a9 5fbc
00000170: 1f17 21bd b33d 37be 09bf 79be b560 05bd
00000180: 88f5 33be f7d0 2dbe 3aef 59be 77a4 a9bd
00000190: b85d 03bd 4718 0d3d f1d6 df3d aeb7 b33e
000001a0: b1ae c5be 8eec cfbe b10a 87be b3d0 8cbe
000001b0: 76fe f0bc 56ab 96be b4c7 8cbe 0274 c43d
000001c0: 4136 dbbc d601 e0be 9a76 33be 44e2 b6bd
000001d0: e68f 9ebe aea0 b7be 79da 07bf e84c c5bd
000001e0: a276 66bb 4222 163d 172e 73be f4d6 41be
000001f0: dbaf 29bd 7852 55be 7a9c 8f3b 143b 2dbe
00000200: 6651 76bd 32f8 68bb 7d61 52be 06df 7cbd
00000210: e0e7 ccbd ef3c 953e a65f 6e3e 80d2 73be
00000220: abe1 15bd aa4e 87be 2dea c5bd 1e8f acbe
00000230: c921 073e d213 a83e 2ed1 b13e 6ca3 733e
00000240: 5010 5a3e 1773 94bd 78a1 a8be 8cb7 c7be
00000250: a01f f63c 4766 e23e add5 a13e 893b 0f3e
00000260: 699f 16bc 3cbf 76be 20a3 03be a6d7 853d
00000270: 3ff9 9a3d 0811 993e a5bf 2c3e f513 963e
00000280: b0ea 643d 1afe f4be 72e7 67be 3051 68be
00000290: 3021 2bbe d1bf 07bd 18de 373e 4198 163d
000002a0: e246 93bd 2912 86be 1dda bebd b19c a6bd
000002b0: 902d 56bc 0552 90be 50fe dbbd acd0 5c3d
000002c0: 58ee 533e ef46 433e 9db7 c33e b8d6 b13e
000002d0: 46c6 aa3d 02c7 80be 53fd d3be ba04 1fbe
000002e0: c6c0 b7bd 9e80 d53d 90cb 983e c29e 123f
000002f0: 20a8 763c e24d 73be 6e35 e83d b822 233e
00000300: 704c 57be 0b45 293e c855 b5bc b1fe 75be
00000310: e41f 4b3d f5f9 323e f15d 693e 598c 853e
00000320: 52c3 6f3e 63ea 8bba 1f04 6fbe b796 bebe
00000330: 2ff6 66be 988c 353e 8d34 8e3e 5141 e43d
00000340: dd88 7dbe 970c f4bd 8069 253d 89ce 12be
00000350: eb5d afbb 20ea db3d 16f9 863e 39ab 003e
00000360: 44d6 23be c311 cdbd 4840 1abd e529 533c
00000370: 7736 953d 2b05 013e 864c 80bd 7d3b 893c
00000380: 5a2c 81be 7912 cebe b354 8fbe 8f4e 503e
00000390: a3ec 383e 74d1 ca3e 7334 783e 5c12 b83d
000003a0: ff68 0fbf c503 e6be 3bcb 29bd 17c5 c33c
000003b0: 7a0d 243e 467b 1a3e b245 673e 28c5 823e
000003c0: 0686 e93c 0d7c 1c3e 6da0 a33e 9ac1 d73d
000003d0: 4993 bb3b 6ff9 ab3d f03d 3f3e a498 33bd
000003e0: 416a 023b c2c8 e13d 84fa 2f3e 3ab1 3ebe
000003f0: 125a a4be 6eb7 50be 7ecc cb3d 8a81 5d3d

network_body.observation_encoder.processors.0.conv_layers.0.bias f4 [16]
-0.46374762 -0.11488054 -0.22818038 -0.17650329 -0.13838577 -0.1178175 -0.2468515 -0.32264605
0.052748546 0.05401708 -0.21238835 -0.2406825 -0.18006296 0.09270336 -0.20833977 -0.5856249
00000000: 5470 edbe 7d46 ebbd 1ea8 69be 47bd 34be
00000010: 00b5 0dbe 4d4a f1bd a4c6 7cbe dd31 a5be
00000020: dc0e 583d 0441 5d3d 557c 59be 7975 76be
00000030: 6d62 38be 42db bd3d 0557 55be 83eb 15bf

network_body.observation_encoder.processors.0.conv_layers.2.weight f4 [32, 16, 4, 4]
-0.3839503 -0.046623178 0.031037727 -0.17174111 0.21561287 -0.14867747 -0.19719459 -0.05382007
0.25478697 -0.115549564 -0.33483034 -0.03405533 0.18283145 0.2872613 -0.117436945 0.13207807
0.22619846 -0.48937812 -0.3556253 0.45800272 0.10346342 0.09409587 0.3997516 0.11886834
-0.06420293 0.008068518 0.012489359 0.1499885 -0.16307779 -0.33415282 0.20351861 0.38183275
0.3387779 -0.11000522 -0.3641713 -0.014060639 0.06139485 0.28589645 0.277892 0.06818349
-0.43209618 -0.40385538 -0.14178567 -0.21861732 -0.19904605 -0.27127904 -0.3110422 -0.7378329
0.14227933 -0.091404885 -0.48779514 -0.14857465 0.23852295 0.308554 -0.28652164 0.37568867
-0.21087326 -0.35615996 0.47808972 0.4138335 -0.4447161 -0.15892549 -0.29350427 0.21255203
0.053069398 -0.3318886 -0.6605967 -0.33911103 -0.108065 -0.042306166 0.15685037 0.02004119
-0.19826181 -0.13538262 -0.11474299 0.03132277 0.09032432 -0.17378159 0.059000038 -0.15524268
-0.22801882 0.10383491 0.030630268 0.35699064 -0.049783014 0.045444213 -0.15479113 0.22094962
0.3345989 0.15496068 -0.0017172528 -0.30206633 -0.1222734 0.22478266 0.05402324 0.32571942
0.09934355 -0.33591172 -0.60230005 -0.08428375 0.22818968 -0.08113318 0.54081804 0.19377182
-0.23505835 -0.1730816 -0.2531015 0.41701806 -0.054004326 -0.06250227 -0.32489818 -0.1643287
-0.1738307 -0.1572575 -0.55544966 -0.7034996 -0.09002442 -0.36050716 0.048734743 0.33859935
-0.29604033 -0.060727768 -0.33529842 0.13583311 -0.34434685 0.11783622 -0.10205891 0.09309835
-0.066989146 -0.3482722 -0.41647083 -0.28992772 0.08104907 0.0691424 0.01313799 0.14676052
0.19515003 -0.4922094 0.25887698 -0.08007537 0.14437355 -0.21738103 -0.23312877 0.0651812
-0.2601218 -0.14477684 0.06082137 0.037003763 -0.30248126 -0.37281033 -0.37528124 0.15907907
-0.16012663 0.062209602 -0.39780563 0.14095186 0.541343 0.35567233 0.08471766 -0.1362653
-0.22219692 -0.2413049 0.1954082 0.21052955 0.08397237 -0.383979 0.46071362 0.14446972
-0.14506115 -0.070440404 0.1534663 0.09640782 0.062252503 0.14271256 -0.20635948 -0.33726838
0.06256278 -0.444068 -0.86632705 -0.7037358 0.15733255 -0.22955585 0.2612018 0.06535902
-0.23002568 -0.28194463 -0.1389648 -0.3146545 -0.05401381 0.060308516 0.026456656 0.06908394
0.03088125 -0.31543803 -0.45579252 -0.4099406 0.15962072 -0.12815456 -0.49030226 0.07932258
-0.17583285 0.24536847 -0.2921115 0.031240428 0.04876884 0.013727579 -0.29128274 -0.24115184
0.2349084 0.04842467 -0.25717074 -0.18373314 -0.012578589 0.15647817 0.17730804 0.06955477
-0.04738137 -0.3480611 0.46897927 0.29837003 0.17760001 -0.22010699 -0.44429302 -0.29514408
-0.06090325 -0.34955478 -0.18151072 -0.080265746 0.28525183 -0.10858051 -0.38908595 -0.13245212
0.039705146 0.20069195 -0.4760837 -0.06930692 -0.08657877 0.014731097 0.15033655 0.21054792
-0.522832 -0.05119108 -0.24328032 0.06514399 -0.08675844 0.14321987 0.04837875 0.26446763
0.08243 -0.33377132 0.084548116 0.25706586 -0.2674276 -0.1215548 -0.40069088 -0.36981887
00000000: 2295 c4be f2f7 3ebd d542 fe3c e7dc 2fbe
00000010: 9fc9 5c3e e83e 18be 61ed 49be 6f72 5cbd
00000020: 7073 823e 40a5 ecbd e26e abbe 9a7d 0bbd
00000030: 2b38 3b3e ea13 933e c882 f0bd 793f 073e
00000040: 92a0 673e c58f fabe 8514 b6be 557f ea3e
00000050: a1e4 d33d 56b5 c03d 3eac cc3e 3f71 f33d
00000060: d37c 83bd d131 043c 2ba0 4c3c 9696 193e
00000070: ddfd 26be 1416 abbe 2f67 503e 957f c33e
00000080: 4c74 ad3e 6b4a e1bd a974 babe 985e 66bc
00000090: 2b79 7b3d 0561 923e dc47 8e3e c9a3 8b3d
000000a0: b63b ddbe 22c6 cebe 4330 11be 38dd 5fbe
000000b0: bad2 4bbe 16e5 8abe ec40 9fbe 9ee2 3cbf
000000c0: acb1 113e 7c32 bbbd 49c0 f9be f423 18be
000000d0: 5c3f 743e cafa 9d3e f7b2 92be 445a c03e
000000e0: 29ef 57be 995a b6be 2dc8 f43e fce1 d33e
000000f0: d4b1 e3be 5dbd 22be 3146 96be 3da7 593e
00000100: 4c5f 593d 4ded a9be de1c 29bf f69f adbe
00000110: 2f51 ddbd 3b49 2dbd 629d 203e 6c2d a43c
00000120: 2505 4bbe bea1 0abe 5ffe eabd 4e4c 003d
00000130: f5fb b83d cdf3 31be 06aa 713d f0f7 1ebe
00000140: c47d 69be 66a7 d43d 54ec fa3c 7ac7 b63e
00000150: 46e9 4bbd b623 3a3d 9181 1ebe 9e40 623e
00000160: 8c50 ab3e 03ae 1e3e 7115 e1ba 70a8 9abe
00000170: 7a6a fabd 6d2d 663e 7947 5d3d b2c4 a63e
00000180: a274 cb3d 9ffc abbe 5630 1abf f59c acbd
00000190: 8eaa 693e 2729 a6bd 0d73 0a3f 1f6c 463e
000001a0: 23b3 70be 4e3c 31be 8596 81be 6483 d53e
000001b0: a433 5dbd 3101 80bd 0e59 a6be c845 28be
000001c0: ad00 32be 1c08 21be f331 0ebf 8d18 34bf
000001d0: b95e b8bd 6594 b8be 159e 473d e55c ad3e
000001e0: 9992 97be aebd 78bd 3cac abbe d617 0b3e
000001f0: 3b4e b0be 1e54 f13d 4304 d1bd 59aa be3d
00000200: 9b31 89bd bc50 b2be aa3b d5be 6871 94be
00000210: 0efd a53d 889a 8d3d b940 573c 6448 163e
00000220: 69d5 473e df02 fcbe 868b 843e 8efe a3bd
00000230: a9d6 133e 2299 5ebe 4fb9 6ebe b97d 853d
00000240: af2e 85be 6140 14be d41f 793d 4291 173d
00000250: d3de 9abe ffe0 bebe dd24 c0be a0e5 223e
00000260: 3cf8 23be 7fcf 7e3d 2ead cbbe af55 103e
00000270: 7495 0a3f af1a b63e 7480 ad3d 2189 0bbe
00000280: 9787 63be a218 77be 1619 483e 0f95 573e
00000290: b5f9 ab3d e598 c4be a8e2 eb3e dfef 133e
000002a0: e98a 14be 0f43 90bd 4526 1d3e 7771 c53d
000002b0: 7bfc 7e3d 3e23 123e e64f 53be 71ae acbe
000002c0: ea20 803d e25c e3be 9cc7 5dbf 0828 34bf
000002d0: c91b 213e b010 6bbe 3ebc 853e f3da 853d
000002e0: da8b 6bbe 0c5b 90be ca4c 0ebe 651a a1be
000002f0: 963d 5dbd 1006 773d a1bb d83c e17b 8d3d
00000300: adfa fc3c 1881 a1be a35d e9be bce3 d1be
00000310: 9d73 233e f33a 03be e608 fbbe e073 a23d
00000320: 870d 34be df41 7b3e a38f 95be edeb ff3c
00000330: d6c1 473d a4e9 603c 0323 95be 82f0 76be
00000340: d48b 703e f258 463d e2ab 83be 8a24 3cbe
00000350: 6d16 4ebc d03b 203e 3d90 353e bb72 8e3d
00000360: f812 42bd 1135 b2be 0d1e f03e f5c3 983e
00000370: c7dc 353e ba63 61be 607a e3be 201d 97be
00000380: b075 79bd d8f8 b2be f2dd 39be 5e62 a4bd
00000390: 870c 923e 755f debd 4636 c7be 87a1 07be
000003a0: dda1 223d 3182 4d3e 3ec1 f3be c9f0 8dbd
000003b0: 3650 b1bd b35a 713c d3f1 193e e099 573e
000003c0: 51d8 05bf bdad 51bd 7a1e 79be 366a 853d
000003d0: 69ae b1bd 3ba8 123e cc28 463d 4d68 873e
000003e0: 0fd1 a83d 13e4 aabe 9027 ad3d 239e 833e
000003f0: 45ec 88be b9f1 f8bd 5b27 cdbe e658 bdbe

network_body.observation_encoder.processors.0.conv_layers.2.bias f4 [32]
0.109624185 -0.07492904 0.022512514 0.0069096885 0.10661824 0.11348261 0.23034394 -0.16731767
0.026760837 -0.10076846 -0.14623824 0.25820205 -0.042964175 0.032370478 0.14482498 -0.16410722
0.030584715 0.052569654 -0.05421301 0.030759778 -0.06880815 0.13768157 -0.08089423 0.02788339
-0.113589846 -0.24791846 0.2107129 -0.13309254 -0.21476878 0.07873863 -0.040977668 0.04864786
00000000: a582 e03d 6674 99bd 2a6c b83c ab6a e23b
00000010: aa5a da3d 9269 e83d 48df 6b3e 5355 2bbe
00000020: 8b39 db3c b25f cebd 7abf 15be 0f33 843e
00000030: 34fb 2fbd e896 043d 004d 143e b90b 28be
00000040: cc8c fa3c 4753 573d 760e 5ebd eefb fb3c
00000050: 4aeb 8cbd 66fc 0c3e e0ab a5bd b56b e43c
00000060: cba1 e8bd 56de 7dbe 1fc5 573e 6949 08be
00000070: 59ec 5bbe b841 a13d 33d8 27bd fa42 473d

network_body.observation_encoder.processors.0.dense.0.weight f4 [128, 32]
0.04659387 -0.050868776 -0.40208384 0.9190413 0.107971534 -0.2147904 -0.47474924 0.32539105
-0.23246664 -0.0075555816 0.78208107 -0.20506822 -0.2896353 -0.08669622 -0.4204831 -0.41056722
-0.46382618 -0.14760375 0.31202677 0.034100708 0.006733689 0.12938647 -0.57764757 0.2610155
-0.021607568 -0.25451866 -0.2164197 0.33964932 0.2274807 0.6207184 -0.055920668 0.1701722
-0.262445 0.49693763 0.19824922 -0.379965 -0.33187422 -0.12943526 0.16741925 0.3806288
0.44998333 0.8098765 0.21048637 -0.13932896 0.3543311 0.2429222 -0.15424436 -1.0551361
0.2687583 -0.31512815 0.12693384 0.023383912 0.28470412 -0.20411412 -0.09082026 0.027642986
0.17716673 0.46662712 -0.3051411 -0.40374354 0.0055229794 -0.62219095 0.04845356 -0.038303617
0.23225552 -0.090662345 -0.31586495 -0.5887218 0.09854808 0.3629178 -0.088405624 0.360974
-0.12268931 -0.40813285 0.040125825 -0.13058914 0.22942846 -0.08078927 0.13500531 0.04703873
-0.005656179 -0.03933232 -0.19241887 0.20141381 -0.7773567 0.8120264 0.38403246 0.83459496
0.079522505 0.1668623 -0.05959615 0.28838786 -0.2430464 0.5300023 0.30783278 -0.06591105
0.24494262 -0.47463974 0.0017217131 -0.18512917 -0.6802721 0.22836481 -0.14318252 -0.61651546
0.11194514 -0.8843255 -0.32665253 -0.5735094 0.35294423 0.24109302 -0.1072189 0.1893662
0.05253154 0.20271835 0.010403541 -0.5990634 -0.6578992 0.26830935 0.05242171 0.38103154
-0.4093586 0.34240755 -0.43228424 -0.13432087 0.0644231 -0.25013918 0.26100639 -0.71565795
-0.3224496 0.16232601 0.21788552 -0.08634514 0.11385817 0.41388848 0.08080408 0.20950854
-0.07309216 0.33318084 0.14243397 -0.14560233 -0.012207119 -0.5686204 -0.16785014 0.29702404
0.00366868 0.42509675 0.05354436 0.10278241 -0.10275214 0.45903498 -0.039556682 0.34038976
-0.014005851 -0.33429724 0.038117208 -0.078665674 -0.42874104 0.14291346 0.43042415 0.35999238
-0.29368705 0.4334629 -0.06943906 -0.47918713 0.026214832 0.26060334 -0.34783944 0.6311876
0.6080305 -0.110787824 0.74577326 0.2543664 -0.06915172 0.07907355 0.721571 0.5517816
-0.048949406 -0.14229415 -0.64742446 0.022473894 -0.23661521 0.3808985 0.016862117 0.14509982
0.52863544 0.6223718 -0.065100655 -0.6884885 -0.26059353 0.018501587 0.20953062 -0.019399852
0.24141523 0.9972846 -0.26947284 -0.25205633 0.46687737 -0.2264995 -0.22985706 0.69395655
-0.037464622 0.040098377 0.09035514 -0.026436359 0.5151977 0.046764225 0.72132015 -0.08072933
0.5279147 -0.31151402 -0.0011150058 -0.5348777 -0.15736815 -0.15192907 0.3054653 0.65268785
0.33649746 -0.8166903 -0.5602419 -0.28627512 -0.21466535 0.018459339 0.36844304 0.092327565
-0.071828365 0.14067477 0.47565776 0.1796142 0.58837926 0.31208056 -0.22413316 0.29220518
-0.13775072 -0.24654248 0.14500436 -0.3311577 0.10881878 -0.35883176 0.31168154 0.3813663
0.70934004 -0.24803998 -0.3256572 -0.19684319 -0.10179372 -0.12568584 0.2477154 -0.10083894
0.03304834 0.06612526 0.14753848 0.36418656 -0.4671258 -0.33284286 0.0796826 -0.618406
00000000: 37d9 3e3d c75b 50bd efdd cdbe 4a46 6b3f
00000010: 2e20 dd3d 04f2 5bbe 5512 f3be a899 a63e
00000020: bc0b 6ebe d094 f7bb 7736 483f 67fd 51be
00000030: 144b 94be ca8d b1bd 9049 d7be de35 d2be
00000040: a07a edbe 7025 17be f9c1 9f3e 2fad 0b3d
00000050: 47a6 dc3b e37d 043e b6e0 13bf d3a3 853e
00000060: 5b02 b1bc 4550 82be 209d 5dbe 84e6 ad3e
00000070: b3f0 683e 67e7 1e3f 120d 65bd 9f41 2e3e
00000080: 315f 86be 9c6e fe3e d801 4b3e c68a c2be
00000090: 6beb a9be ad8a 04be f46f 2b3e c7e1 c23e
000000a0: 3764 e63e 1154 4f3f bd89 573e 40ac 0ebe
000000b0: e36a b53e 99c0 783e 3cf2 1dbe b30e 87bf
000000c0: b09a 893e 7a58 a1be f2fa 013e 9e8f bf3c
000000d0: bdc4 913e 4b03 51be f9ff b9bd 8b73 e23c
000000e0: 326b 353e c0e9 ee3e 743b 9cbe 79b7 cebe
000000f0: 1cfa b43b e847 1fbf 3d77 463d 41e4 1cbd
00000100: 64d4 6d3e 2ead b9bd 0db9 a1be 79b6 16bf
00000110: 93d3 c93d 5dd0 b93e 020e b5bd 96d1 b83e
00000120: 8844 fbbd caf6 d0be fa5a 243d 29b9 05be
00000130: 4bef 6a3e d874 a5bd d53e 0a3e afab 403d
00000140: 7857 b9bb ed1a 21bd 7409 45be 6c3f 4e3e
00000150: d900 47bf f6e0 4f3f e79f c43e 04a8 553f
00000160: b2dc a23d f3dd 2a3e 181b 74bd 93a7 933e
00000170: 28e1 78be 3bae 073f 429c 9d3e 5ffc 86bd
00000180: 3dd2 7a3e fb03 f3be 1bab e13a 8092 3dbe
00000190: 5026 2ebf 77d8 693e 709e 12be f5d3 1dbf
000001a0: 7e43 e53d 2863 62bf 003f a7be 83d1 12bf
000001b0: 1bb5 b43e 17e1 763e 9595 dbbd 37e9 413e
000001c0: 502b 573d 6695 4f3e 9d73 2a3c 385c 19bf
000001d0: 156c 28bf d85f 893e 26b8 563d 9116 c33e
000001e0: 7397 d1be 0b50 af3e 5c54 ddbe 698b 09be
000001f0: 42f0 833d 3e12 80be a1a2 853e 5c35 37bf
00000200: 1d18 a5be ca38 263e 621d 5f3e b9d5 b0bd
00000210: 792e e93d 31e9 d33e 9c7c a53d 6889 563e
00000220: 58b1 95bd ae96 aa3e 36da 113e c718 15be
00000230: 5e00 48bc 1b91 11bf e8e0 2bbe 8913 983e
00000240: 3d6e 703b 48a6 d93e 5551 5b3d 967f d23d
00000250: b76f d2bd a206 eb3e 3006 22bd 9147 ae3e
00000260: cc78 65bc 0229 abbe ca20 1c3d 781b a1bd
00000270: f283 dbbe e857 123e 8e60 dc3e ec50 b83e
00000280: 265e 96be d9ee dd3e 1136 8ebd 0458 f5be
00000290: 7dc0 d63c cd6d 853e 0318 b2be 8395 213f
000002a0: e3a7 1b3f bae4 e2bd ffea 3e3f 503c 823e
000002b0: 6b9f 8dbd 50f1 a13d e1b8 383f 8f41 0d3f
000002c0: 2c7f 48bd 8fb5 11be 9cbd 25bf 2c1b b83c
000002d0: 424b 72be 2105 c33e 6c22 8a3c 0c95 143e
000002e0: a754 073f c253 1f3f 7e53 85bd c840 30bf
000002f0: 846c 85be a490 973c 328f 563e 70ec 9ebc
00000300: 8e35 773e 0b4e 7f3f 58f8 89be 870d 81be
00000310: 8d0a ef3e 7cef 67be a65f 6bbe 23a7 313f
00000320: 8174 19bd 323e 243d 1e0c b93d 1091 d8bc
00000330: ffe3 033f d88b 3f3d 70a8 383f 6b55 a5bd
00000340: 6b25 073f c47e 9fbe 6325 92ba bfed 08bf
00000350: 1e25 21be 4b93 1bbe f365 9c3e 8d16 273f
00000360: 6549 ac3e 9e12 51bf 036c 0fbf a792 92be
00000370: 3cd1 5bbe 0a38 973c 91a4 bc3e 3c16 bd3d
00000380: c01a 93bd 0c0d 103e 6a89 f33e c9ec 373e
00000390: 06a0 163f 06c9 9f3e 2a83 65be eb9b 953e
000003a0: 860e 0dbe a275 7cbe 067c 143e 818d a9be
000003b0: 61dc de3d ccb8 b7be b994 9f3e 7242 c33e
000003c0: 4f97 353f 31fe 7dbe 8abc a6be 4391 49be
000003d0: 3a79 d0bd cab3 00be 1ba9 7d3e a584 cebd
000003e0: b25d 073d ae6c 873d 5414 173e a976 ba3e
000003f0: 1d2b efbe 616a aabe a230 a33d db4f 1ebf

network_body.observation_encoder.processors.0.dense.0.bias f4 [128]
0.11348672 0.12462943 -0.17632036 -0.13446677 0.20303503 -0.19539504 0.017644428 -0.07463426
-0.08158981 -0.12659903 -0.09732527 0.27883843 0.22106537 0.18814132 -0.2497353 -0.12086963
-0.18359928 0.13873059 -0.19351614 0.14839183 -0.20650926 0.0042725205 -0.05589895 -0.3915555
-0.035658162 -0.15294698 -0.03372071 0.013464947 -0.018462822 -0.19726016 -0.15305665 0.40242916
0.0030288075 0.11826557 -0.059653506 -0.2514678 -0.34511682 -0.19935337 -0.13101158 -0.1048826
-0.062125996 -0.169935 -0.041169856 -0.09401135 -0.06385592 -0.29577532 -0.31368428 0.30378935
-0.35893065 0.15673953 0.37327495 -0.3265089 -0.08995201 -0.1338361 -0.17013517 -0.14059384
-0.10951968 -0.19294234 -0.31705558 -0.1459667 0.047786444 -0.29324898 -0.26236066 0.032922085
-0.07311366 -0.018688938 -0.20049801 -0.4642936 -0.23539495 0.0762734 -0.02648456 -0.39673254
-0.08067127 0.10748335 -0.25240508 0.017999712 -0.0001063611 -0.18993406 -0.29447144 0.12811512
-0.08751173 -0.07997431 -0.07005889 -0.27223334 0.07235056 -0.08333486 -0.1516717 0.046444155
0.10121582 -0.024512447 0.11524684 0.2394023 -0.5015919 0.03143472 0.017245986 0.154522
-0.26564202 0.18256217 0.085583344 -0.12925667 0.1376092 0.23748264 -0.11802742 -0.09734966
0.093874216 0.17306517 -0.0798838 -0.07819646 0.15175952 0.19481285 -0.15201381 -0.26599282
-0.30333823 0.09359487 0.008567554 0.13921812 -0.2841685 -0.32700378 -0.17754921 0.19177704
-0.024010755 -0.26324138 -0.2220998 0.07232263 0.06371032 -0.0029455477 -0.17480078 -0.09461838
00000000: ba6b e83d b73d ff3d 538d 34be a8b1 09be
00000010: 6ae8 4f3e a315 48be 0c8b 903c d9d9 98bd
00000020: 8f18 a7bd 2da3 01be 7952 c7bd e9c3 8e3e
00000030: f65e 623e 1ea8 403e 9cba 7fbe 7f8a f7bd
00000040: 7301 3cbe 640f 0e3e 1829 46be 07f4 173e
00000050: 2a77 53be 8000 8c3b 4cf6 64bd f679 c8be
00000060: 4b0e 12bd 229e 1cbe ba1e 0abd 159c 5c3c
00000070: 583f 97bc 91fe 49be e2ba 1cbe 320b ce3e
00000080: f57e 463b 3835 f23d 3c57 74bd 63c0 80be
00000090: 27b3 b0be 4a23 4cbe e627 06be b0cc d6bd
000000a0: d477 7ebd 7103 2ebe b9a1 28bd 0689 c0bd
000000b0: e5c6 82bd dd6f 97be 3a9b a0be 478a 9b3e
000000c0: c2c5 b7be 5480 203e e51d bf3e 2d2c a7be
000000d0: c238 b8bd 550c 09be ea37 2ebe d5f7 0fbe
000000e0: db4b e0bd ad92 45be 1c55 a2be 4b78 15be
000000f0: b8bb 433d bb24 96be 2354 86be 4fd9 063d
00000100: 9dbc 95bd 8b19 99bc 5a4f 4dbe e4b7 edbe
00000110: 600b 71be 3a35 9c3d 26f6 d8bc 8720 cbbe
00000120: fb36 a5bd 3b20 dc3d 3d3b 81be 2274 933c
00000130: 2e0e dfb8 137e 42be f6c4 96be 9c30 033e
00000140: 5a39 b3bd 92c9 a3bd 097b 8fbd 2b62 8bbe
00000150: 882c 943d 78ab aabd d34f 1bbe 3a3c 3e3d
00000160: 3d4a cf3d 54ce c8bc 8906 ec3d e025 753e
00000170: 5468 00bf b1c1 003d 7447 8d3c 043b 1e3e
00000180: 3b02 88be 94f1 3a3e 5246 af3d dc5b 04be
00000190: 6de9 0c3e a62e 733e 5cb8 f1bd 425f c7bd
000001a0: 2041 c03d ff37 313e 1e9a a3bd 7725 a0bd
000001b0: d966 1b3e 057d 473e 82a9 1bbe 3630 88be
000001c0: 264f 9bbe abae bf3d ed5e 0c3c 328f 0e3e
000001d0: 897e 91be 0a6d a7be 76cf 35be 3361 443e
000001e0: 34b2 c4bc 93c7 86be 216e 63be e31d 943d
000001f0: 8e7a 823d 170a 41bb fafe 32be 48c7 c1bd

network_body._body_endoder.seq_layers.0.weight f4 [128, 239]
-0.04456928 -0.23704898 0.09591806 0.24023455 -0.04735334 0.29739076 0.21805525 0.31606862
0.21663487 -0.2545408 0.3936723 -0.33406827 0.014072222 -0.084652476 -0.07108733 0.12750366
0.1343121 -0.37523347 0.18876284 0.06551635 0.081594996 0.073793 0.22877795 -0.0998886
-0.10336967 0.52508616 0.16392894 0.540104 -0.060349137 0.02975283 0.32111543 0.13919482
0.028841695 0.266284 -0.11196067 0.044442393 -0.07841949 0.23004502 -0.022169538 0.12397005
0.014459904 0.044441625 0.26226112 0.27112344 0.21848458 0.1764089 0.1440089 0.032789145
0.2697999 -0.26152968 -0.100460954 0.33862874 0.042105384 0.35171434 0.51888394 0.26380515
0.3426005 0.109079055 0.07813999 0.024538236 -0.4020921 -0.147084 0.22581662 -0.15258431
-0.27484012 0.111113794 -0.052232355 0.0968496 -0.03927775 -0.114888854 -0.021270663 0.06612449
0.1832843 0.06254043 -0.20413508 -0.07490923 -0.28470665 -0.10362647 0.1679755 0.06493017
-0.1353039 -0.004703623 -0.09417141 0.23995154 -0.045667905 0.057672806 -0.0664652 0.112065725
-0.1326176 -0.064987026 0.26296353 0.05699167 0.21864393 0.27651185 0.056005504 0.3299571
-0.018831637 0.16530754 0.14599435 0.62927437 -0.14611503 0.39762172 0.22525612 0.09665609
-0.079251476 -0.03577049 -0.038152322 0.057059675 0.18148458 -0.40496254 -0.2427755 -0.06292465
0.3057761 0.19902658 0.071585216 0.21179353 -0.16938424 0.1042269 -0.33250594 -0.11044619
-0.32723594 0.17116545 0.027773272 0.34452823 0.3343914 0.29627258 -0.16681328 -0.08974063
-0.048033442 0.5817466 -0.43970928 -0.3086981 0.07108894 -0.314674 -0.17942768 0.4172935
0.17663069 0.2306589 -0.11254786 0.043434273 -0.120347366 -0.17697075 0.22979136 0.2391583
0.24430546 0.031293683 -0.19009493 -0.2931515 -0.22090246 0.21870609 0.22959489 0.161645
-0.3925476 -0.15397832 0.14713004 0.09001765 -0.0706191 0.154227 0.47113562 0.011780083
0.015855132 -0.047316298 -0.19705547 0.06338643 0.686425 -0.33678073 0.0064160354 -0.060915053
-0.25200287 0.018038625 0.2735587 0.13712698 0.022087522 0.1583279 0.17527862 -0.13382141
-0.20690653 0.20189507 0.1930662 0.0982066 0.20420831 0.105039865 -0.3519635 -0.01833283
-0.029930254 -0.07267464 -0.19079967 -0.13576965 -0.22175682 0.17878035 -0.04112021 -0.10928506
0.23658712 0.33498034 0.09191981 -0.05827585 0.25514436 -0.07258359 -0.017504966 0.17500247
-0.123424776 -0.10324209 0.07817753 -0.06690618 0.0013281928 0.05536265 0.09715625 -6.3990974e-06
-0.20539258 0.20801921 -0.21809982 -0.20945571 0.079864606 0.43903673 0.33913726 -0.03328746
0.11450528 0.047019754 0.14852951 0.1696158 -0.15141878 0.0012622471 -0.34356803 -0.27969393
0.42998302 -0.04989938 0.20917097 0.20949198 0.16975276 -0.27618924 -0.07293481 -0.23469493
-0.041547623 -0.30179864 0.64692885 -0.015287255 0.5633979 -0.09467384 0.8991609 -0.26050308
0.093290344 -0.034376968 -0.42209917 0.14994852 -0.09185734 0.009858686 0.13827148 0.039639547
0.16464314 0.12682043 0.33275032 0.059462108 0.11106305 -0.1652532 -0.014297625 -0.060275428
00000000: 478e 36bd f8bc 72be b070 c43d 0c00 763e
00000010: 93f5 41bd 9a43 983e e049 5f3e bfd3 a13e
00000020: 88d5 5d3e 2c53 82be 6a8f c93e ff0a abbe
00000030: 2d8f 663c 475e adbd 3c96 91bd 5290 023e
00000040: 1c89 093e 9a1e c0be 0c4b 413e 702d 863d
00000050: 471b a73d c920 973d c444 6a3e 6592 ccbd
00000060: 7ab3 d3bd 0c6c 063f fddc 273e 4144 0a3f
00000070: a830 77bd 35bc f33c 3e69 a43e 1689 0e3e
00000080: 6b45 ec3c 6056 883e a34b e5bd 3a09 363d
00000090: 669a a0bd ec90 6b3e e49c b5bc 02e4 fd3d
000000a0: 3ce9 6c3c 6c08 363d 1747 863e b1d0 8a3e
000000b0: 6cba 5f3e 89a4 343e 1277 133e e94d 063d
000000c0: 3623 8a3e 38e7 85be 79be cdbd bf60 ad3e
000000d0: b276 2c3d e713 b43e 94d5 043f 7811 873e
000000e0: 5569 af3e d764 df3d dc07 a03d 6904 c93c
000000f0: 04df cdbe 309d 16be 793c 673e 103f 1cbe
00000100: d8b7 8cbe a18f e33d 98f1 55bd 1559 c63d
00000110: b5e1 20bd d94a ebbd d03f aebc 476c 873d
00000120: e1ae 3b3e 3215 803d c908 51be 036a 99bd
00000130: 12c5 91be 1d3a d4bd c501 2c3e 1cfa 843d
00000140: 1b8d 0abe d920 9abb f1dc c0bd dbb5 753e
00000150: 450e 3bbd 523a 6c3d e81e 88bd b782 e53d
00000160: e8cc 07be eb17 85bd 28a3 863e 1970 693d
00000170: 32e4 5f3e f692 8d3e 0766 653d 23f0 a83e
00000180: ce44 9abc 6146 293e 8b7f 153e 2018 213f
00000190: 2e9f 15be 1395 cb3e 8aa9 663e a1f3 c53d
000001a0: 994e a2bd 1484 12bd 9c45 1cbd 68b7 693d
000001b0: 18d7 393e 4057 cfbe 249a 78be a4de 80bd
000001c0: af8e 9c3e a0cd 4b3e 459b 923d 67e0 583e
000001d0: 1073 2dbe ea74 d53d 383e aabe 9d31 e2bd
000001e0: 788b a7be ff45 2f3e c684 e33c 0166 b03e
000001f0: 5935 ab3e 0ab1 973e 1ad1 2abe efc9 b7bd
00000200: b7be 44bd 58ed 143f 9321 e1be ad0d 9ebe
00000210: 1497 913d f31c a1be e4bb 37be 7ea7 d53e
00000220: adde 343e d931 6c3e 7e7f e6bd 23e8 313d
00000230: ae78 f6bd d237 35be 6d4e 6b3e eae5 743e
00000240: 362b 7a3e ce2d 003d 3fa8 42be f417 96be
00000250: 4134 62be 7df4 5f3e ec1a 6b3e 4486 253e
00000260: 00fc c8be 7eac 1dbe 42a9 163e 2c5b b83d
00000270: bfa0 90bd afed 1d3e b038 f13e 4001 413c
00000280: 9fe2 813c bcce 41bd e9c8 49be bfd0 813d
00000290: 8cb9 2f3f 866e acbe 9b3d d23b 1082 79bd
000002a0: 8506 81be bdc5 933c e30f 8c3e 046b 0c3e
000002b0: e4f0 b43c b620 223e 3d7c 333e 7b08 09be
000002c0: 4edf 53be 95bd 4e3e 25b3 453e 8b20 c93d
000002d0: fc1b 513e 241f d73d 8f34 b4be bb2e 96bc
000002e0: 4b30 f5bc 71d6 94bd fd60 43be 3307 0bbe
000002f0: 3814 63be 3212 373e aa6d 28bd d8d0 dfbd
00000300: e543 723e 8b82 ab3e 7440 bc3d a8b2 6ebd
00000310: 48a2 823e b5a6 94bd 9366 8fbc d933 333e
00000320: 21c6 fcbd 9770 d3bd 8a1b a03d 1b06 89bd
00000330: c116 ae3a f2c3 623d dbf9 c63d d4b7 d6b6
00000340: 6f52 52be fd02 553e 8f55 5fbe 8f7b 56be
00000350: 0e90 a33d 6cc9 e03e 66a3 ad3e 6f58 08bd
00000360: bf81 ea3d c997 403d 1f18 183e c4af 2d3e
00000370: 860d 1bbe fc71 a53a 26e8 afbe 0b34 8fbe
00000380: bc26 dc3e 4b63 4cbd ea30 563e 1185 563e
00000390: abd3 2d3e ad68 8dbe d85e 95bd de53 70be
000003a0: d72d 2abd 5a85 9abe 219d 253f 6577 7abc
000003b0: d83a 103f 5ce4 c1bd 692f 663f a960 85be
000003c0: 020f bf3d ddce 0cbd 621d d8be 1b8c 193e
000003d0: b31f bcbd 5386 213c 0a97 0d3e 145d 223d
000003e0: 3698 283e 37dd 013e 405e aa3e 8a8e 733d
000003f0: 0675 e33d 2338 29be 9640 6abc 5ee3 76bd

network_body._body_endoder.seq_layers.0.bias f4 [128]
0.11200817 -0.3500311 0.17525676 -0.03926414 -0.16801725 -0.34497595 0.16582912 -0.013004216
-0.25159705 -0.07800944 0.028499134 -0.26796418 -0.15265107 -0.07826716 -0.18463375 -0.39371353
0.19729671 -0.2544248 -0.11377093 -0.040484723 -0.13567108 0.3067106 -0.03502157 -0.11597648
-0.1257144 0.11542398 -0.08601706 0.010424501 -0.13269974 -0.261427 -0.17477392 -0.2655685
0.30974534 -0.07504146 -0.24465124 0.5095256 0.11340785 -0.07929364 -0.02902561 -0.27176934
-0.081579275 -0.27175495 0.28370404 -0.11606016 -0.23732734 0.22302566 -0.02373531 0.01909272
-0.112627625 -0.22894555 -0.054337427 -0.18387823 -0.2917656 -0.05617007 -0.17428446 -0.28319123
-0.072546504 -0.26525426 -0.35193148 -0.1437961 -0.088590786 -0.12785386 0.03677004 0.5393347
-0.21444868 0.028277023 -0.11120983 -0.121036075 -0.029861774 -0.14839694 -0.09605374 0.18695636
-0.14928561 0.30366492 -0.2591866 -0.30643073 -0.29612666 -0.05964092 -0.20731875 -0.04138998
-0.07937087 0.43811738 -0.286113 -0.08830908 0.0717559 0.084618494 -0.19358693 -0.37177396
0.40275437 -0.22562538 0.043853004 -0.27194464 -0.010289529 0.3220806 -0.31176305 -0.16500121
-0.06580448 0.10351948 -0.1174666 -0.2446582 0.2135473 -0.359963 -0.2755521 -0.24335061
0.13006926 -0.4574095 -0.08127839 -0.23176928 -0.17578238 -0.2605762 -0.28671446 -0.38982114
-0.17204633 0.47043845 -0.33845982 -0.16521987 0.22079872 0.16129924 -0.35352758 -0.14182688
-0.17773502 -0.12536821 -0.27296317 0.12104213 -0.29311246 -0.014038782 0.23367037 0.5711419
00000000: 8a64 e53d 4737 b3be 8276 333e 6fd3 20bd
00000010: b70c 2cbe b0a0 b0be 1ccf 293e a30f 55bc
00000020: 54d1 80be 6ac3 9fbd 0477 e93c 9a32 89be
00000030: 9050 1cbe 884a a0bd a110 3dbe d294 c9be
00000040: 2608 4a3e f843 82be bc00 e9bd 4fd3 25bd
00000050: 5ced 0abe 2c09 9d3e c772 0fbd 1485 edbd
00000060: 47bb 00be 6863 ec3d b629 b0bd 87cb 2a3c
00000070: 71e2 07be c2d9 85be eff7 32be 98f8 87be
00000080: f196 9e3e 56af 99bd db85 7abe 4570 023f
00000090: 6042 e83d b464 a2bd 1ec7 edbc 5a25 8bbe
000000a0: 0913 a7bd 7723 8bbe a841 913e f3b0 edbd
000000b0: f005 73be d760 643e 8e70 c2bc 5668 9c3c
000000c0: 50a9 e6bd b470 6abe ec90 5ebd 934a 3cbe
000000d0: 4d62 95be 9612 66bd a077 32be 71fe 90be
000000e0: 4393 94bd 68cf 87be 5d30 b4be 493f 13be
000000f0: 166f b5bd 1fec 02be 2e9c 163d d711 0a3f
00000100: 6f98 5bbe 37a5 e73c fbc1 e3bd c3e1 f7bd
00000110: aea0 f4bc 5ef5 17be d3b7 c4bd 7d71 3f3e
00000120: 54de 18be f879 9b3e 1bb4 84be 7de4 9cbe
00000130: ea9d 97be 0a4a 74bd 5e4b 54be 8a88 29bd
00000140: 328d a2bd ec50 e03e 677d 92be 64db b4bd
00000150: c2f4 923d 764c ad3d a73b 46be 2859 bebe
00000160: d235 ce3e 570a 67be 359f 333d 543c 8bbe
00000170: 6a95 28bc c0e7 a43e 689f 9fbe 14f6 28be
00000180: 80c4 86bd 0502 d43d 5492 f0bd ae87 7abe
00000190: 25ac 5a3e 124d b8be 2a15 8dbe e730 79be
000001a0: e030 053e 9431 eabe 4975 a6bd ed54 6dbe
000001b0: 4c00 34be 3e6a 85be 3dcc 92be a396 c7be
000001c0: ea2c 30be 4fdd f03e 9b4a adbe 662f 29be
000001d0: 0f19 623e a12b 253e 9101 b5be 113b 11be
000001e0: 2b00 36be 8660 00be d4c1 8bbe f0e4 f73d
000001f0: d612 96be eb02 66bc 4947 6f3e 5b36 123f

network_body._body_endoder.seq_layers.2.weight f4 [128, 128]
-0.017321853 -0.29875156 0.059126828 0.0039788377 0.11332892 -0.12893088 0.3326633 0.113796115
-0.21551836 -0.3854161 0.39723468 -0.15493564 -0.40955082 -0.22476773 -0.3812439 -0.21493372
-0.10407726 -0.1345482 0.16021663 -0.044818066 0.07942786 0.3485266 0.38997748 0.3735195
0.022351917 0.5685341 0.119714126 0.07044677 -0.2765014 -0.035654392 -0.17935947 -0.14992933
0.03971018 0.32010144 0.14982748 0.23958114 0.0072303163 0.37471643 -0.02036244 -0.08780042
-0.19886994 -0.11432131 0.5165942 0.22702903 0.12744935 0.5632473 -0.36743417 0.32751107
0.20073053 -0.061969724 0.26969194 -0.14286411 0.22963172 0.029280549 0.15197426 0.07023061
0.0016678906 0.21336421 -0.20099428 -0.06826339 0.03816158 -0.1445502 -0.014632691 0.08567296
-0.08113654 0.4281402 -0.057787016 -0.2970811 0.07904182 -0.39739254 0.41880894 0.02018645
-0.4744026 0.012377268 -0.25830093 0.4314 -0.12449142 -0.100721456 -0.21555921 -0.46453017
-0.3664882 0.24664861 -0.12847383 -0.065561235 0.42782244 0.32231724 -0.6157214 0.17301223
0.34633428 -0.020810258 0.07558561 0.12521465 -0.048027884 0.45094028 0.19387223 0.20371415
-0.43321162 0.39721876 0.01725647 0.12333242 0.14274463 0.25602832 -0.31651485 0.016288152
0.29137984 -0.19516674 -0.32739183 -0.15223078 0.19548586 0.25691074 0.18994507 0.1608168
-0.30027702 0.20626609 -0.31579977 -0.05225288 0.6202093 -0.058158375 -0.08229147 -0.20516609
0.3558537 -0.10457599 0.093065 0.48093227 -0.10062741 0.09684794 0.42028704 0.097379796
-0.31655416 -0.017271865 -0.5299176 0.39006972 -0.22634564 -0.43647948 0.616899 0.43898314
-0.035757404 -0.2543904 0.3376281 -0.4905058 -0.20913315 0.2278519 -0.07247881 -0.43386656
-0.2950159 -0.26665133 0.04727369 0.60219854 0.07009487 0.24172702 0.1667038 0.31715888
0.012274578 0.6894726 -0.6026277 0.16530812 -0.22756612 -0.2720689 -0.47241083 -0.45935798
0.2123719 0.4128979 -0.5170314 0.5037659 -0.26098475 0.5303217 -0.021359956 -0.17213252
-0.27667603 -0.8267551 -0.19528912 0.111403055 -0.19245903 -0.018638592 -0.16419242 0.2079422
-0.23756215 -0.14745028 0.31957576 0.056800187 -0.35258257 0.20458548 -0.025790468 0.07618725
-0.13383652 0.0858778 -0.4847468 -0.14883506 0.3662748 0.01817407 0.25950396 0.44041905
-0.3910594 -0.29284874 -0.42094436 0.16659358 0.56504756 0.080128685 -0.17515562 0.038871095
-0.4361629 0.33291233 -0.28019264 -0.10983833 -0.42174837 -0.11264964 -0.36834309 0.022581315
-0.075793795 -0.2113869 -0.16220476 -0.45077065 0.20438327 0.46971637 -0.078143895 -0.023721341
0.4917231 -0.20429952 0.06189424 -0.23586486 -0.07320623 0.21008778 0.2895533 -0.24060307
-0.21473274 0.48450458 -0.39307767 0.13121974 0.62227046 -0.12358441 0.31858158 -0.63707507
0.60622066 0.32578832 0.070854194 -0.3663963 0.335952 0.060181193 -0.12950103 0.17367193
-0.39567116 0.45986325 0.09328468 -0.1438318 -0.32212734 -0.46041122 0.15577435 -0.6894999
0.3319319 -0.48196295 0.114045255 0.69234866 0.021277858 -0.085306495 0.68501097 0.43747985
00000000: 8fe6 8dbc f7f5 98be f92e 723d e960 823b
00000010: fe18 e83d 7506 04be d852 aa3e f00d e93d
00000020: d8b0 5cbe 4255 c5be 5862 cb3e 73a7 1ebe
00000030: a5b0 d1be 8329 66be 6732 c3be 9617 5cbe
00000040: 7526 d5bd 01c7 09be d40f 243e 2693 37bd
00000050: 13ab a23d 1472 b23e 21ab c73e f33d bf3e
00000060: 5e1b b73c 738b 113f ae2c f53d 6546 903d
00000070: 9791 8dbe 570a 12bd 02aa 37be 1387 19be
00000080: 24a7 223d 56e4 a33e 606c 193e c254 753e
00000090: 4aec ec3b d5da bf3e 22cf a6bc b5d0 b3bd
000000a0: 90a4 4bbe 4a21 eabd 843f 043f 4c7a 683e
000000b0: 1582 023e fa30 103f 5520 bcbe 88af a73e
000000c0: 4e8c 4d3e f7d3 7dbd 1015 8a3e f84a 12be
000000d0: 9424 6b3e c3dd ef3c 249f 1b3e 11d5 8f3d
000000e0: 1f9d da3a 267c 5a3e 72d1 4dbe adcd 8bbd
000000f0: 514f 1c3d f804 14be f4bd 6fbc 4e75 af3d
00000100: ea2a a6bd 3135 db3e 14b2 6cbd 041b 98be
00000110: ade0 a13d 0977 cbbe 206e d63e 0e5e a53c
00000120: e6e4 f2be 06ca 4a3c 0540 84be 76e0 dc3e
00000130: 5cf5 febd 0d47 cebd 8ebb 5cbe e6d6 edbe
00000140: 57a4 bbbe 7491 7c3e a58e 03be f844 86bd
00000150: 8b0b db3e c406 a53e eb9f 1dbf 1e2a 313e
00000160: ba52 b13e 467a aabc a1cc 9a3d 4538 003e
00000170: e3b8 44bd a5e1 e63e 7186 463e 719a 503e
00000180: eacd ddbe 4260 cb3e 715d 8d3c b595 fc3d
00000190: a62b 123e 2516 833e 3c0e a2be bb6e 853c
000001a0: bd2f 953e cad9 47be e79f a7be 63e2 1bbe
000001b0: 722d 483e ce89 833e f680 423e 29ad 243e
000001c0: e9bd 99be 6b37 533e 82b0 a1be 1e07 56bd
000001d0: 09c6 1e3f 7a37 6ebd 6e88 a8bd 0f17 52be
000001e0: 7532 b63e f02b d6bd dd98 be3d c13c f63e
000001f0: be15 cebd 3658 c63d dd2f d73e 0f6f c73d
00000200: 6313 a2be ba7d 8dbc aea8 07bf 38b7 c73e
00000210: 27c7 67be 3d7a dfbe 18ed 1d3f 66c2 e03e
00000220: 5b76 12bd 753f 82be 97dd ac3e 9423 fbbe
00000230: 0027 56be 0252 693e c56f 94bd c223 debe
00000240: 530c 97be 8686 88be 0fa2 413d af29 1a3f
00000250: e68d 8f3d 4a87 773e 67b4 2a3e a662 a23e
00000260: 501b 493c 4781 303f cf45 1abf 8846 293e
00000270: 1807 69be 9d4c 8bbe d5df f1be f830 ebbe
00000280: 0578 593e 5b67 d33e 2b5c 04bf cdf6 003f
00000290: cb9f 85be 2ac3 073f 13fb aebc 8243 30be
000002a0: 7ba8 8dbe 39a6 53bf dff9 47be 4927 e43d
000002b0: fb13 45be f6af 98bc 0f22 28be cdee 543e
000002c0: 7e43 73be 35fd 16be 6f9f a33e 50a7 683d
000002d0: b485 b4be db7e 513e 8846 d3bc 1008 9c3d
000002e0: 710c 09be b3e0 af3d bc30 f8be 3868 18be
000002f0: 5f88 bb3e cae1 943c b4dd 843e 9b7e e13e
00000300: f038 c8be 45f0 95be 0586 d7be 8297 2a3e
00000310: f5a6 103f 821a a43d ff5b 33be 4c37 1f3d
00000320: be50 dfbe 7c73 aa3e 6975 8fbe ebf2 e0bd
00000330: 67ef d7be dbb4 e6bd 7797 bcbe 73fc b83c
00000340: c739 9bbd cf75 58be 0119 26be 69cb e6be
00000350: d949 513e aa7e f03e e809 a0bd 4253 c2bc
00000360: 21c3 fb3e e533 51be d184 7d3d 8f86 71be
00000370: 26ed 95bd 4021 573e 5540 943e a760 76be
00000380: e6e2 5bbe fc10 f83e 7a41 c9be 785e 063e
00000390: 1e4d 1f3f d319 fdbd 201d a33e 5a17 23bf
000003a0: 4731 1b3f bacd a63e 011c 913d 4c98 bbbe
000003b0: e701 ac3e 8e80 763d eb9b 04be 0ed7 313e
000003c0: 6995 cabe 3273 eb3e 0a0c bf3d a548 13be
000003d0: e0ed a4be 05bb ebbe 5083 1f3e 1183 30bf
000003e0: faf2 a93e d9c3 f6be 8f90 e93d c33d 313f
000003f0: e74e ae3c 2cb5 aebd e15c 2f3f 5cfd df3e

network_body._body_endoder.seq_layers.2.bias f4 [128]
0.17221805 0.51175046 -0.06550813 0.28893673 0.22771285 -0.25432044 0.21405523 -0.069701724
-0.04596705 0.291394 -0.0062976005 -0.15655468 -0.047212653 0.096281536 -0.2594352 -0.32725903
0.12782034 -0.06326198 0.2177244 -0.24263017 0.4591524 0.078402735 0.10389 0.50956345
0.22777113 -0.2099021 0.8339741 -0.10123348 -0.09549587 0.33270788 0.1520932 0.03957218
-0.057368767 -0.017201994 -0.23107886 0.22637115 -0.2007558 -0.22902624 0.3398605 -0.26322588
-0.16623664 -0.14853331 0.1872681 -0.195664 0.0187034 -0.0759596 -0.04551169 0.16314547
0.17640243 0.34763154 0.03103826 0.3164982 -0.0066433195 -0.19500194 -0.012794542 0.04979292
-0.03384931 0.07695491 -0.054382786 0.034952708 0.0029279445 0.19359039 0.13421348 0.057117715
0.19587366 -0.116077654 0.22832713 -0.24548778 0.09998842 0.20987393 -0.46205097 -0.19511588
-0.083831 -0.21593328 -0.07359243 -0.107340716 -0.25697008 -0.19258897 0.10304634 -0.37026057
0.19209777 0.59179914 -0.22911383 -0.32352814 -0.18175289 -0.19257022 0.06337874 -0.03346392
-0.36423522 -0.0620609 -0.1583382 -0.122861296 -0.021276223 0.029657643 -0.11517625 -0.1577211
-0.24193788 -0.15571715 -0.1341852 -0.22290766 0.19864689 -0.2629822 -0.009088238 -0.014302314
-0.09357219 0.12725472 -0.16642359 -0.073441066 -0.26786765 0.10345652 -0.171897 -0.1307339
0.19331205 0.010480963 -0.270941 -0.093514174 0.2423486 0.04829335 -0.12160005 -0.16463713
0.13911621 0.011323971 -0.088472664 -0.24417701 -0.3764048 0.053339057 0.23256987 0.20008308
00000000: ee59 303e 1402 033f 2029 86bd 84ef 933e
00000010: 8f2d 693e 4a36 82be 4b31 5b3e c7bf 8ebd
00000020: f247 3cbd 9831 953e 1a5c cebb df4f 20be
00000030: 0e62 41bd 412f c53d b1d4 84be 7f8e a7be
00000040: 56e3 023e 7f8f 81bd 25f3 5e3e 0b74 78be
00000050: 0616 eb3e 9d91 a03d 48c4 d43d c072 023f
00000060: d63c 693e 93f0 56be 547f 553f 8053 cfbd
00000070: 5793 c3bd b058 aa3e 52be 1b3e 7016 223d
00000080: 83fb 6abd 32eb 8cbc f09f 6cbe d7cd 673e
00000090: ee92 4dbe db85 6abe 3202 ae3e 8bc5 86be
000000a0: f039 2abe 1e19 18be 35c3 3f3e 255c 48be
000000b0: df37 993c b590 9bbd 776a 3abd 9b0f 273e
000000c0: d7a2 343e c3fc b13e f343 fe3c 0d0c a23e
000000d0: 34b0 d9bb 97ae 47be 33a0 51bc a9f3 4b3d
000000e0: 93a5 0abd 899a 9d3d 7cc0 5ebd 922a 0f3d
000000f0: c2e2 3f3b 8f3c 463e 426f 093e 44f4 693d
00000100: 1b93 483e 1fba edbd 96ce 693e 2661 7bbe
00000110: bbc6 cc3d 31e9 563e f291 ecbe 75cc 47be
00000120: 96af abbd 9d1d 5dbe a1b7 96bd 73d5 dbbd
00000130: 9591 83be 0b36 45be f609 d33d cb92 bdbe
00000140: 47b5 443e 2680 173f d19c 6abe 7ba5 a5be
00000150: 6e1d 3abe 2131 45be b6cc 813d 7711 09bd
00000160: 0a7d babe 9233 7ebd 6923 22be b49e fbbd
00000170: 794b aebc 96f4 f23c 87e1 ebbd a481 21be
00000180: 90be 77be 5174 1fbe d867 09be e841 64be
00000190: 176a 4b3e 9aa5 86be d5e6 14bc 4154 6abc
000001a0: c7a2 bfbd 104f 023e f26a 2abe 4568 96bd
000001b0: f325 89be 03e1 d33d c405 30be 1cdf 05be
000001c0: 98f3 453e 58b8 2b3c c7b8 8abe 5c84 bfbd
000001d0: 3b2a 783e 3fcf 453d 7209 f9bd a396 28be
000001e0: 7b74 0e3e 2d88 393c 2831 b5bd 8a09 7abe
000001f0: 21b8 c0be 0e7a 5a3d cc26 6e3e 94e2 4c3e

action_model._discrete_distribution.branches.0.weight f4 [5, 64]
-0.5591294 -0.062253144 0.5002367 0.26985687 -0.43846464 0.13798203 -1.164817 0.6168981
0.50054604 -0.92141217 0.5396725 1.752407 0.2602255 0.5173055 -0.79852426 -0.055664565
-0.10387073 -0.3682105 -0.7008091 1.3753232 0.26648757 -0.37293527 -0.6668137 -0.12918481
-0.6797427 -0.15160711 -0.8297092 -1.3936818 -0.6763383 0.2785866 0.012281143 -0.0037387542
-0.5031231 0.61072516 -0.22560905 0.3498638 -0.5762968 0.8444857 0.6686009 -1.013885
2.0632646 -0.21534364 -0.51756567 0.6314744 -0.68703514 -0.44985723 0.21575396 0.3675277
-0.27108955 -0.4799533 -1.0928787 -0.13111815 0.2316081 -0.16803512 -0.3959401 -0.43440923
-0.4149815 0.84507006 -0.014450058 1.4985924 -1.1813251 -0.11534616 0.045159366 -1.0491192
1.2269033 -0.6250659 1.5659467 0.9849413 -0.32648632 -0.7861044 -0.64795774 0.18386397
1.6097044 1.0230758 -1.2212912 -0.69721377 1.4775466 -0.47310245 1.2081122 -1.3272736
-1.6383457 -0.00605779 -1.1815349 -1.9457225 1.4791439 -1.0939139 -1.6654899 0.30090532
-1.0195093 -0.032913506 0.23175012 0.8550985 0.15632893 -0.26318946 -0.36761323 1.1088811
1.4356967 0.43770543 -0.8610517 0.9213188 -0.23865679 -0.052100375 -1.6326761 1.77792
-2.1440039 -1.2464952 0.91050917 -0.10459836 -1.3350291 -0.08085161 1.1677382 1.295196
-1.5661664 -0.0076809986 0.8470059 -0.4816547 0.39209247 -1.1001613 -0.3398208 1.03381
-1.5422395 0.16259025 -0.14592585 -1.7644382 0.6870332 -0.7753362 0.28787574 1.3841505
0.5705659 -0.0711208 0.6946746 0.2068528 -0.8034006 0.17569822 0.6461883 0.22828758
-0.025786605 -0.19613935 0.7713697 0.42073807 0.46082792 1.2811896 -0.4921604 -0.9615354
-0.5288484 -0.437198 -0.8305785 0.40097302 1.2722081 -0.7013946 -1.3242502 0.21386428
-0.21587749 -0.14803937 -0.55971956 0.02734377 0.18330336 0.09619407 -0.30769232 0.35758337
-1.0215195 0.92624325 -0.44743812 0.4033084 -0.33103186 1.4795414 -1.0704191 -0.67291826
0.44100767 0.41979352 0.28510374 0.28678995 -0.57104546 0.42376655 1.2232736 0.498431
-0.10584137 0.57291937 -0.25757656 0.79898417 0.027559368 0.028995052 -0.44999024 -0.18626581
-1.2528881 -0.188674 -0.1960874 0.76152754 0.052099753 0.29819977 0.23571832 -0.45076728
0.42263412 -0.6767954 -0.21549791 -0.27430338 0.89067906 0.95796597 0.49731657 -0.8789668
1.0611435 -0.25532287 -0.5013059 -1.3992258 -0.7034952 2.617587 -0.9174932 -0.70150185
-0.032587092 0.38699475 1.5033088 0.068404466 -0.81439906 -0.17250948 0.72589016 0.18366092
-0.2406399 0.13909712 -0.9306556 0.6517658 0.5102116 0.61124456 -0.3817926 -0.57893336
0.13265087 -0.60336256 0.083471075 -0.032358184 0.034418847 -1.0717211 -0.84893394 -1.8163792
-0.656091 -0.14694437 0.21673624 0.52868706 0.9001718 0.2762093 1.2389462 -0.80748284
-0.3230626 0.3925816 -0.7614532 0.71725523 0.39592746 -0.23742044 0.16400105 -0.29154387
0.14349835 -0.5162418 -0.542327 -1.3367761 -0.22709206 0.8154073 -0.23768103 -1.3535303
00000000: 1b23 0fbf 27fd 7ebd 830f 003f ae2a 8a3e
00000010: 707e e0be 294b 0d3e b918 95bf 09ed 1d3f
00000020: c923 003f abe1 6bbf fa27 0a3f df4e e03f
00000030: 473c 853e 226e 043f 166c 4cbf 8700 64bd
00000040: 2dba d4bd 1686 bcbe 3a68 33bf 970a b03f
00000050: 0f71 883e 5ff1 bebe 4db4 2abf 0649 04be
00000060: 9e03 2ebf e53e 1bbe d267 54bf 2a64 b2bf
00000070: 8224 2dbf e7a2 8e3e d936 493c e305 75bb
00000080: adcc 00bf 7c58 1c3f 0f06 67be 5921 b33e
00000090: 3088 13bf 3730 583f 6e29 2b3f fcc6 81bf
000000a0: 870c 0440 0b83 5cbe 2f7f 04bf 4ea8 213f
000000b0: 89e1 2fbf b053 e6be 9bee 5c3e 972c bc3e
000000c0: 40cc 8abe 70bc f5be 73e3 8bbf d643 06be
000000d0: ac2a 6d3e 6611 2cbe a9b8 cabe e36a debe
000000e0: 7578 d4be 8356 583f f0bf 6cbc e0d1 bf3f
000000f0: a935 97bf 9c3a ecbd 07f9 383d 8a49 86bf
00000100: 2b0b 9d3f 5204 20bf f170 c83f 1d25 7c3f
00000110: 3729 a7be 233e 49bf 8fe0 25bf d646 3c3e
00000120: cb0a ce3f 26f4 823f 4553 9cbf 9a7c 32bf
00000130: 3f20 bd3f 7c3a f2be 6ca3 9a3f 1ae4 a9bf
00000140: 50b5 d1bf 6d80 c6bb 893c 97bf 6f0d f9bf
00000150: 9654 bd3f 5f05 8cbf c62e d5bf 4310 9a3e
00000160: 487f 82bf 50d0 06bd e74f 6d3e bce7 5a3f
00000170: b114 203e c5c0 86be cd37 bcbe d1ef 8d3f
00000180: e9c4 b73f ed1a e03e e26d 5cbf 8ddb 6b3f
00000190: 7262 74be 3467 55bd 88fb d0bf e292 e33f
000001a0: 5c37 09c0 288d 9fbf 2117 693f aa37 d6bd
000001b0: 3ce2 aabf 8795 a5bd 7278 953f fcc8 a53f
000001c0: 2478 c8bf e3b0 fbbb 61d5 583f 729b f6be
000001d0: 58c0 c83e 16d2 8cbf fefc adbe e353 843f
000001e0: 1b68 c5bf 0f7e 263e 966d 15be 1cd9 e1bf
000001f0: 68e1 2f3f 6f7c 46bf 7364 933e d82b b13f
00000200: 9b10 123f c8a7 91bd 32d6 313f 38d1 533e
00000210: a9ab 4dbf 3cea 333e 996c 253f 38c4 693e
00000220: 6e3e d3bc c1d8 48be 7c78 453f fb6a d73e
00000230: a3f1 eb3e 05fe a33f 73fc fbbe 2f27 76bf
00000240: 9c62 07bf 6bd8 dfbe cba0 54bf 564c cd3e
00000250: b7d7 a23f 998e 33bf 0881 a9bf 3dff 5a3e
00000260: fd0e 5dbe a297 17be c849 0fbf 0b00 e03c
00000270: e0b3 3b3e 6601 c53d d989 9dbe 2b15 b73e
00000280: 27c1 82bf 471e 6d3f 9c16 e5be 707e ce3e
00000290: 027d a9be 9d61 bd3f 7e03 89bf 5f44 2cbf
000002a0: c2cb e13e 2def d63e 1ef9 913e 22d6 923e
000002b0: 0930 12bf eef7 d83e 3b94 9c3f 5932 ff3e
000002c0: 5cc3 d8bd d8aa 123f 13e1 83be 3a8a 4c3f
000002d0: 2fc4 e13c 0887 ed3c 1f65 e6be 77bc 3ebe
000002e0: a35e a0bf c233 41be 23cb 48be 78f3 423f
000002f0: 8d66 553d a4ad 983e 2560 713e f8ca e6be
00000300: 8063 d83e 7742 2dbf 7cab 5cbe 7e71 8cbe
00000310: 8b03 643f 423d 753f 47a0 fe3e f803 61bf
00000320: 8dd3 873f aeb9 82be 9555 00bf d519 b3bf
00000330: 4318 34bf 8c86 2740 d6e0 6abf a095 33bf
00000340: 0b7a 05bd 2d24 c63e 6c6c c03f a417 8c3d
00000350: 757c 50bf 53a6 30be f0d3 393f 9c11 3c3e
00000360: 4e6a 76be 7a6f 0e3e 723f 6ebf 20da 263f
00000370: 3a9d 023f 867a 1c3f 527a c3be fa34 14bf
00000380: a1d5 073e f875 1abf e2f2 aa3d 048a 04bd
00000390: c7fa 0c3d 282e 89bf bc53 59bf 1d7f e8bf
000003a0: 94f5 27bf 9678 16be 1bf0 5d3e 0958 073f
000003b0: a971 663f 4e6b 8d3e ca95 9e3f 32b7 4ebf
000003c0: 7668 a5be 7500 c93e 99ee 42bf 0a9e 373f
000003d0: 01b7 ca3e 581e 73be e4ef 273e 3d45 95be
000003e0: 3bf1 123e 6c28 04bf f1d5 0abf 7b1b abbf
000003f0: d28a 68be 88be 503f a862 73be 7b40 adbf

action_model._discrete_distribution.branches.0.bias f4 [5]
1.7546043 -0.76085585 0.018165268 -0.4824648 -0.15953048
00000000: e096 e03f 73c7 42bf 54cf 943c a005 f7be
00000010: f55b 23be
