Assets/Crossroads/Models/CrossroadLights(modelB).onnx (onnx, 341872 bytes, 9 tensors)

95 f4 [1, 256, 128]
000000 69 62 48 be 87 22 5b 3e 27 c2 b2 3e 80 e1 76 be
       -0.1956879 0.2139989 0.3491375 -0.24109459
000010 13 46 c0 b8 e3 ef df 3c 52 11 75 3e 90 22 b0 3e
       -9.168326e-05 0.027336067 0.23932388 0.3440137
000020 e7 d1 73 bd d0 95 c2 bc 15 fa 73 be 9e ad a4 3e
       -0.05952635 -0.023753077 -0.23825867 0.3216371
000030 05 da ee 3b d5 61 1d 3d 5f be 9a 3e 69 16 49 be
       0.0072891735 0.038423378 0.30223367 -0.19637455
000040 fb 7b 02 be 9d 04 b3 bd 9c 10 b3 3c 36 48 38 be
       -0.12742607 -0.08741114 0.021858506 -0.17996296
000050 98 65 ec bd 83 9a b4 3c e6 93 45 3e ce 7b c3 3e
       -0.11542815 0.022046333 0.192947 0.38180393
000060 d3 06 04 3e 54 38 6f be 35 2d cc bd 78 6e c6 3b
       0.12893228 -0.23361331 -0.0996956 0.0060556494
000070 e5 a3 c7 3d 68 ac 06 3e 49 21 60 bd 61 7d 5f 3e
       0.09748057 0.13151705 -0.054719243 0.21825172
000080 08 9d 03 3f 4f fa 43 be 99 d3 d1 3d e7 d9 99 bd
       0.51411486 -0.19138454 0.10245437 -0.07512265
000090 0e 92 87 bd 09 98 24 bd 8e b8 33 3e 6d d5 45 3e
       -0.066196546 -0.040184055 0.17550871 0.19319697
0000a0 2b 6e 0f 3e ff 10 64 bd dc 92 55 be 67 89 d1 3d
       0.1400687 -0.05568027 -0.20856804 0.102312855
0000b0 ac 93 fb 3c 03 fe 86 3e 4e ec b1 3d 77 32 9d 3d
       0.030710064 0.2636567 0.0868765 0.07675641
0000c0 1d 66 88 3b bf 86 ba bd 2c 23 06 bd 2b f8 8f be
       0.0041625635 -0.09107732 -0.032748386 -0.28119025
0000d0 8a 0c ec bc 49 44 79 3c bd 05 36 3e 7f eb 75 3e
       -0.028814573 0.015214034 0.17775626 0.24015616
0000e0 1a 3e ff 3d 3b d8 de 3d 4c d2 3f bd 3d 1c 17 be
       0.12463017 0.108810864 -0.046831414 -0.14756866
0000f0 a6 97 61 3d 6e 30 38 3e cb 89 91 be d0 db e3 bc
       0.055076264 0.17987224 -0.2842544 -0.027814776
000100 5d bb 23 3e f5 a9 5d 3d c2 0f d1 3d a3 a8 0e bd
       0.15989442 0.05411716 0.10208084 -0.034828793
000110 c8 c3 09 3e 01 81 9f 3e f5 76 36 be 78 da 50 be
       0.13453591 0.3115311 -0.17818816 -0.20395839
000120 2e 65 87 3d 5a c5 28 3d 53 2b 5f be 73 46 de bd
       0.06611095 0.041203834 -0.2179387 -0.10853281
000130 fc 57 27 3e 2a aa 8c 3e 9d 71 8a be ba ce d9 bd
       0.16342157 0.27473575 -0.27039805 -0.10635133
000140 05 68 19 3d 14 a1 f2 3d 60 e8 2a 3d 81 6f 23 3d
       0.037452716 0.118471295 0.041725516 0.03990126
000150 17 58 a3 3d 2a 0a b5 3d c2 65 91 bb 57 8e 0b 3e
       0.07975786 0.08839829 -0.0044371793 0.13628517
000160 1f 18 3a 3e ed b5 4f 3e 95 cb 9c 3e 03 8d 0b bf
       0.18173264 0.20284243 0.3062407 -0.5451204
000170 f3 dc 2a bd 9b 99 f3 bd 95 93 71 3e 70 d0 08 bd
       -0.04171462 -0.11894532 0.23591454 -0.033401906
000180 0e 22 89 3e ef a3 8a 3e d0 a5 7b 3e 71 77 7a bd
       0.26783794 0.27078196 0.24574971 -0.061149064
000190 a2 35 eb 3c ce dc 37 3e 2c 99 e4 3e 6d e6 58 be
       0.028712098 0.17955324 0.4464811 -0.2118165
0001a0 59 0d d4 3e 98 8e 04 be 18 47 fb 3e 12 b9 05 3e
       0.41416433 -0.1294502 0.49077678 0.1305888
0001b0 bb 6d a4 be c8 1a 0a 3e 72 31 05 3e c3 f5 c5 3d
       -0.32114968 0.13486779 0.13007143 0.09666016
0001c0 e7 43 67 be d7 e8 20 bd d4 10 98 3e a8 83 ce be
       -0.22584496 -0.039284553 0.2970034 -0.4033482
0001d0 fe d9 38 be 92 2f b2 3e 7a 72 ec bb b3 4d 94 3c
       -0.18051907 0.34801918 -0.007215795 0.018103456
0001e0 ef 08 e4 bd ba 76 fd 3d ce af 72 3e 08 06 c0 3d
       -0.111345164 0.12376161 0.23699877 0.0937615
0001f0 ef 70 ec bd 30 0d e9 bc 02 e6 ba 3d 40 9f 95 bd
       -0.11544978 -0.028448671 0.09125902 -0.07305765
000200 f6 75 1b be e9 70 77 3e 73 2b 5f bd d8 64 1d be
       -0.15181717 0.24164166 -0.054484796 -0.153705
000210 7f e1 bd 3d 30 c4 0a be 85 9b b9 bd 56 15 df 3c
       0.092715256 -0.13551402 -0.09062866 0.027231853
000220 4a a3 ec 3d 69 a2 af bd 34 fa 86 bd 7b 4b 8c be
       0.115545824 -0.08575899 -0.06590691 -0.27401337
000230 32 7d 5e 3d 58 fe 69 be cb a0 d9 3d 82 e6 ef bc
       0.054318614 -0.2285093 0.10626372 -0.02928472
000240 92 59 55 bd b8 c5 05 bc 68 50 a1 be 49 57 01 be
       -0.052087374 -0.008164816 -0.31506658 -0.12630953
000250 67 3b a9 bd 97 35 77 bb 35 c7 15 bd dc 61 bf bd
       -0.08263283 -0.003772115 -0.03656693 -0.09344837
000260 d3 54 bb be da 0d c7 bd f3 8b ff bd a5 1c 13 3e
       -0.36588153 -0.09719439 -0.12477865 0.14366396
000270 d0 94 1e bd a6 cc d3 3e 2a 8e a6 be 45 0b 91 bd
       -0.038716137 0.41367072 -0.32530338 -0.070822276
000280 c3 89 8a 3d a7 51 03 3e de 8b 8d 3d ac 8f 9e 3d
       0.06764557 0.12824117 0.06911443 0.07742247
000290 86 9a db bd 3e 58 5d bd d8 b3 4d be 1a dd 0c be
       -0.107228324 -0.054039232 -0.20088136 -0.13756219
0002a0 f1 6c 14 3e 7f e6 a3 3d 6f 70 98 bd 63 70 2d bd
       0.14494683 0.08002948 -0.0744332 -0.04234351
0002b0 4d 6b 4b 3e d0 e3 d0 bd a8 c7 73 be 31 8d ee 3d
       0.19865151 -0.10199702 -0.23806632 0.11648024
0002c0 23 7f ef bd 42 cc 59 3d 8f 85 dd 3d 7c 6f e9 bd
       -0.11694171 0.05317331 0.1081649 -0.11398217
0002d0 80 26 e3 3d d4 c0 c1 3d ba 0a 17 be 27 4c a8 bd
       0.11091328 0.09460607 -0.14750186 -0.0821765
0002e0 97 9c 33 3e fb bc 1f 3e e2 50 b6 bb b6 f8 3e 3d
       0.17540203 0.15599434 -0.005563841 0.046623908
0002f0 83 88 2a bf ad 36 8d 3e 58 28 18 3c 63 5b 51 3e
       -0.6661455 0.27580777 0.009286962 0.20445018
000300 32 c5 65 3d 36 3a a0 3d c5 1e 95 be 7b af 4f bb
       0.056096263 0.07823603 -0.29125038 -0.0031690288
000310 18 ae 6f bc 74 ad d6 3e c6 15 80 3e 0c f5 25 3c
       -0.0146289095 0.4192921 0.25016612 0.0101292245
000320 14 a9 9a 3d c0 22 14 be d4 e8 12 be 86 65 c1 3e
       0.0755178 -0.14466381 -0.1434663 0.3777277
000330 0c e3 86 be fe 86 c4 be d7 15 e0 bd 25 4b 34 bd
       -0.26345098 -0.3838424 -0.109416656 -0.044016976
000340 fa b0 61 3d c4 77 69 bc af 4f cd 3d 4c a7 aa be
       0.05510042 -0.014249746 0.10024964 -0.33330762
000350 d4 55 6e bd fe a4 50 be 92 eb 5f 3e 42 c1 92 3d
       -0.05818732 -0.2037544 0.21867207 0.07165767
000360 58 03 0a 3e 5e b6 52 3e fe 10 7c 3d 70 8b 40 be
       0.13477838 0.2057738 0.061539643 -0.18803191
000370 20 13 6c be 3d fc b9 bb 8e 2c 8b be 28 5a 85 bc
       -0.2305417 -0.005675821 -0.2718243 -0.016278341
000380 f8 e2 43 3e 87 6c 2f 3e cb c6 90 3e 38 f1 46 3e
       0.1912955 0.17131244 0.28276667 0.19427955
000390 6e d0 53 be 7e 2c a5 be d9 7b 9e 3e d7 81 95 3e
       -0.20684978 -0.32260507 0.30953863 0.29200622
0003a0 b3 72 ac ba ef 84 2d 3e ed 87 61 be 47 5d cc 3e
       -0.0013156742 0.16945241 -0.22024508 0.39914915
0003b0 51 07 4e be 8a 55 b4 3d 71 d8 b1 be 2e b8 58 3e
       -0.20119978 0.08805378 -0.34735444 0.21164009
0003c0 a7 ac b8 3d a4 e7 2f 3e 57 cd 70 3e 40 55 cf 3b
       0.09017306 0.17178208 0.23515831 0.0063273013
0003d0 8c 0f 7e 3d 41 fc 94 3d 31 c6 12 3e 15 9d 54 be
       0.062026545 0.07274676 0.14333417 -0.20763047
0003e0 de d4 52 3d 06 86 4f 3c 1e 00 14 3d 2e 66 cd 3c
       0.051472537 0.012666231 0.036132924 0.025073137
0003f0 5f b3 05 be 6f bc 2d 3c e7 d2 89 3e 7d 48 37 3d
       -0.13056706 0.010604008 0.26918718 0.044746865

96 f4 [1, 256, 64]
000000 d7 3c ff be e1 02 80 be ba 92 ca 3e ef c0 14 be
       -0.49851105 -0.25002196 0.39565068 -0.14526723
000010 54 ff 89 3d 8e 27 e4 bd 97 99 c5 be 0c 4f 6d be
       0.06738153 -0.11140357 -0.38593742 -0.23174685
000020 cb 6b e5 3d 7d 5f ca 3d 42 40 6e 3d 8f f9 13 3d
       0.112022005 0.09881494 0.05816675 0.03612667
000030 a7 26 34 3e 36 6a 7d be d2 2d cc be ae d5 0f bd
       0.1759287 -0.24747548 -0.39878708 -0.03511589
000040 af 99 8b be d0 36 4a be c2 9d c7 be f4 7d 10 3f
       -0.2726569 -0.19747472 -0.38987547 0.5644219
000050 8d ca d3 3d 37 b8 4e 3e da 38 b5 bd 84 79 8c bd
       0.10341368 0.2018746 -0.08848734 -0.06859115
000060 f4 f8 8b be 12 2c ab 3e e7 42 a3 3e 7c 2e 92 be
       -0.27338374 0.3343206 0.3188698 -0.2855109
000070 ea e9 be be 5d 25 3a be e6 5e f4 be 60 56 03 3e
       -0.37287837 -0.18178315 -0.47728652 0.12825918
000080 5f db f1 3d 6e ae 07 3f 44 e3 f5 3e cb 88 0e bf
       0.1180942 0.53000534 0.48024952 -0.5567748
000090 f2 4f 15 be 1b 98 c7 3e d4 89 4c 3e 86 91 3d be
       -0.14581278 0.38983235 0.19974452 -0.18512544
0000a0 de 97 55 3e 60 35 ac 3c 4a 5b 19 be 09 d5 e3 bd
       0.20858714 0.021021545 -0.1497623 -0.111246176
0000b0 cc 68 2f be 34 2a 57 be 5f 8c 41 be 0f be 55 bd
       -0.1712982 -0.21012193 -0.18901204 -0.052183207
0000c0 8b 29 27 3c 14 45 2d be 24 05 5c be b6 c3 a3 be
       0.010202776 -0.16920882 -0.21486336 -0.31985253
0000d0 c0 af 8f be 2b 69 da bc 83 6e d8 3d fb ef 96 3d
       -0.28063774 -0.026661476 0.105679534 0.073699914
0000e0 59 c0 60 3e cc d4 c0 3e 31 90 9d be e0 7b 9f 3d
       0.21948375 0.3766235 -0.30774072 0.07787299
0000f0 2c 4a de 3e 69 a6 da 3e 9a 41 c4 be 94 a2 db 3d
       0.43415964 0.42705086 -0.383313 0.10724369
000100 14 34 33 be b5 20 05 3e 9a c6 c1 3d 10 a3 67 3d
       -0.17500335 0.13000758 0.09461708 0.056551993
000110 96 56 f4 be d5 b2 0f 3e 5c e3 a0 3e a0 f8 aa 3d
       -0.4772231 0.14033063 0.3142346 0.08348203
000120 89 e8 2d be a4 c3 d1 3d a1 de 0d 3e ba 40 8d 3d
       -0.16983236 0.102423936 0.13854457 0.06897111
000130 03 09 ee bc 27 37 39 be 51 de 11 bd 6b 27 8a 3d
       -0.029057031 -0.18087445 -0.035612408 0.067458
000140 c7 d6 75 3d 06 c3 d3 3d 9b 78 cc 3d aa 0f 84 bd
       0.06001928 0.10339932 0.09983941 -0.064483
000150 82 bf b2 3d 46 29 56 3e ce b8 ab 3e af 7c 40 3e
       0.087279335 0.20914182 0.33539432 0.18797563
000160 f7 4c c7 3e 6f 8a db be 67 21 47 3d 58 c6 a4 bd
       0.38925907 -0.42879054 0.04861584 -0.080456436
000170 8d f5 3a bc 70 cc ad 3e 21 36 a6 3d 8e fc ba be
       -0.011411083 0.33945036 0.08115793 -0.3652081
000180 5e fd 62 b9 6c c5 b1 bd 49 4a fe be e3 1f 86 3c
       -0.00021647426 -0.08680233 -0.4966605 0.016372627
000190 f6 ec 8e 3d b3 5e 2b be 9a 20 b0 be f8 d2 a2 bc
       0.069787905 -0.16735344 -0.34399873 -0.019875988
0001a0 92 8f ef 3c 83 61 04 3e 7d 3a ab bd c6 27 2b 3e
       0.029243264 0.12927823 -0.08360765 0.16714391
0001b0 24 da ba bd 15 be af 3e c5 db d7 bd b1 6a 86 be
       -0.09123638 0.3432471 -0.105399646 -0.26253274
0001c0 16 19 12 3e 67 94 a4 be 7f 0f b7 be 3f 15 18 3e
       0.14267382 -0.32144472 -0.3575401 0.14851855
0001d0 a4 8f 26 3d f6 f0 d5 3e 97 9c 94 3e b2 9e 4f bd
       0.04066433 0.417854 0.2902572 -0.050688453
0001e0 d0 61 c5 3d a6 91 d3 3c 32 5b c9 bd 5c 73 15 3e
       0.09637797 0.025826287 -0.09831847 0.14594787
0001f0 2a 4c 86 bd 3a 21 f5 3c a9 a5 ce 3e 16 ec ee bb
       -0.06557496 0.02992307 0.40360764 -0.007291327
000200 dc 82 4a 3e e5 10 c6 be 55 8e 8b 3e b1 5b 46 be
       0.19776481 -0.38684765 0.27257028 -0.19370915
000210 de a0 9b be 63 5a 9f 3e 24 cb f5 bd b2 8e 07 be
       -0.3039617 0.31123647 -0.120016366 -0.13238028
000220 5b b1 9b 3e 7c f1 c7 3d 51 96 3d 3e 2e 4a 9b 3b
       0.3040875 0.09762856 0.18514372 0.0047390675
000230 71 1c 00 be 56 30 78 3e 83 29 5a bd 6c 64 a6 bd
       -0.1251085 0.24237189 -0.053262245 -0.08124623
000240 5c 54 e5 be 89 10 23 3e d6 5c 8e 3c 3b 61 89 be
       -0.44790924 0.15924276 0.017378252 -0.26831993
000250 47 ba f6 bd 2c b2 f2 3d a2 15 57 3d 30 9c 25 3e
       -0.12047248 0.1185039 0.052510865 0.16172862
000260 a1 0b 95 3e 45 5d 60 3e fe 87 c6 3e 45 30 d1 3e
       0.29110435 0.2191058 0.3877563 0.4085714
000270 da e1 d3 bc 74 a2 ef bd 24 46 8b 3e 21 84 3c 3e
       -0.02586453 -0.11700907 0.2720195 0.18409778
000280 a9 60 b3 be c9 1e c8 3e ff 5d a6 3e cf dc ee 3d
       -0.35034683 0.39085987 0.32493588 0.1166321
000290 93 9e 64 be dd fb 04 3d b9 a1 07 3d 14 13 4b be
       -0.22326116 0.032466758 0.033113215 -0.19831496
0002a0 29 14 78 bd 26 89 2b be 6b 70 16 3d 60 d9 bf be
       -0.0605661 -0.16751537 0.036728304 -0.3747053
0002b0 53 5e be 3e b3 8e 3a be 63 dd 01 bc fb 6c ac 3e
       0.3718134 -0.18218498 -0.007926318 0.33676895
0002c0 fe bc d7 3e 78 0b 0f be 4b 47 e5 3d 68 01 40 3e
       0.42136377 -0.13969219 0.11195239 0.18750536
0002d0 9a 50 72 be 5d c6 bf 3d 17 20 91 be d8 9a 29 be
       -0.2366356 0.09364007 -0.28344795 -0.16562974
0002e0 1c 32 a6 3d 37 33 16 3e 2f 1c 41 be 9d ef 3d 3e
       0.08115026 0.14667974 -0.18858407 0.18548436
0002f0 08 8d bb bc 98 13 f7 3d fe dd 82 bd f5 4c 8e 3e
       -0.022894397 0.12064284 -0.06389998 0.2779309
000300 4b 13 bf 3e fb ab c2 3d 51 f9 2f 3e 10 c4 95 3e
       0.37319407 0.09505459 0.1718495 0.29251146
000310 0d c0 5a 3e 60 c2 25 3e 13 05 e2 bb 9f 1b ce bd
       0.21362324 0.1618743 -0.0068975776 -0.10063862
000320 01 cb bf 3e e2 d5 05 bc 4b 9c 67 bd 62 a7 62 bc
       0.37459567 -0.008168669 -0.056545537 -0.0138338525
000330 c3 36 0b 3e 56 10 98 be 30 a4 e0 bc ae b7 a8 bd
       0.13595109 -0.29699963 -0.02742204 -0.08238159
000340 c7 e4 84 be ff 74 17 3c e4 2e 28 3e 40 fb 29 be
       -0.25955793 0.009244203 0.16424137 -0.1659975
000350 7b fe 36 3e c9 0b 88 be 05 25 5e be 17 0a b3 3e
       0.17870514 -0.2657149 -0.2169381 0.34968635
000360 0b bd 39 be 7e 4f 11 be 55 87 70 3d 5f 96 e3 3d
       -0.1813852 -0.1419048 0.058722813 0.111126654
000370 10 38 45 be 46 e1 ca 3d 87 8b 22 3e 48 67 a0 3e
       -0.19259667 0.09906249 0.15873538 0.31328797
000380 f3 5a 29 3d 17 6d 45 be 47 41 ee 3d d4 05 f1 bd
       0.0413465 -0.19279896 0.116335444 -0.1176869
000390 5a 42 36 3e 13 ed d5 bd d9 9a 9d be ca 19 62 bd
       0.17798749 -0.10445609 -0.30782202 -0.055200376
0003a0 3c 6b 5b bd 15 4a c2 be 3f 03 8b 3d 91 b1 d8 bc
       -0.053569064 -0.37947145 0.067877285 -0.026451858
0003b0 a2 0c e5 3d be 6c 15 3e f5 45 18 bd 16 fa 85 bd
       0.1118405 0.14592263 -0.03717609 -0.06541841
0003c0 fa 62 0d 3e f1 88 b7 3d c3 30 a7 be 03 a2 78 3d
       0.13807288 0.089616664 -0.3265439 0.06070138
0003d0 33 a5 e7 3b 5f ae 0b be 47 e4 d7 bd 6a 85 9a be
       0.007069254 -0.13640736 -0.10541587 -0.30179912
0003e0 97 2f 01 3e 67 db c1 bd 3e e1 bf 3e 0b e5 33 3d
       0.1261581 -0.09465676 0.37476534 0.043919604
0003f0 0d 42 fd bd dd cb 49 3e 28 b4 1d 3e dc cb 9e be
       -0.12366114 0.19706674 0.15400755 -0.31014907

97 f4 [1, 512]
000000 4c 35 10 3e b6 32 55 be 1f 56 b6 bd 13 a5 98 bc
       0.14082831 -0.20820126 -0.08903145 -0.018633401
000010 42 bf 26 3e 42 72 59 bd a7 47 05 3e a8 30 3d be
       0.16283897 -0.05308748 0.13015614 -0.18475592
000020 88 56 91 bd 59 58 1a be cf 2f 03 be d0 5c 86 3d
       -0.07096583 -0.15072764 -0.12811206 0.06560671
000030 0d 26 86 bc ab 7b 84 be 60 9b a0 bd 0a b8 5a be
       -0.016375566 -0.258756 -0.078421354 -0.21359268
000040 1e 59 9e 3c 47 7c 91 bd 73 36 07 bd aa 1a cf bd
       0.019329604 -0.07103782 -0.03301091 -0.10112508
000050 cb 95 76 be 49 40 0d be 7f b5 1e be 15 fd ca bd
       -0.24080579 -0.13794054 -0.15498923 -0.09911553
000060 fa c1 26 be c5 9d 20 be 94 e7 2f be 22 8b 37 be
       -0.16284934 -0.15685184 -0.17178184 -0.17924169
000070 e9 42 d6 3c 62 55 96 bd 35 c2 dc bc f6 f9 36 be
       0.026154952 -0.07340504 -0.026948074 -0.1786879
000080 b2 7f 2f be eb b6 17 be 56 00 1a 3d 39 80 f0 bd
       -0.17138556 -0.14815871 0.037597977 -0.117432065
000090 29 03 15 3e da fc 89 be 9f 40 0e bd 3c b3 e7 bb
       0.14551987 -0.26950723 -0.034729596 -0.007070927
0000a0 0f 54 c1 bd 8a 3b 19 be 96 5e 52 be eb 2c 6c bc
       -0.09439861 -0.14964119 -0.20543894 -0.014415006
0000b0 d1 03 33 be 62 24 30 be 08 b8 64 bd 3e f5 f9 bd
       -0.17481925 -0.17201379 -0.05583957 -0.12204979
0000c0 bd f4 11 be c7 f4 2f be 98 2e 9d be e5 76 aa 3d
       -0.14253516 -0.17183219 -0.3069961 0.083234586
0000d0 4c c3 a5 bd 46 4c 1f be ed 82 6e be fa cb 23 be
       -0.080938905 -0.1555644 -0.23292132 -0.1599578
0000e0 79 d2 83 bd bd 7c 8d bd 0b e1 27 be c1 f8 49 3d
       -0.06436629 -0.069085576 -0.16394441 0.049309496
0000f0 cf 07 3b be af 7e 63 be 3c 16 f2 3d a2 99 49 3c
       -0.18264697 -0.22216295 0.11820647 0.012304695
000100 9b 5f 11 3d b5 54 8f bc a0 28 01 3b e3 29 0c 3e
       0.035491567 -0.017496446 0.0019708052 0.13687854
000110 d7 e8 37 3e f8 ba 46 be e3 63 24 3d af 59 a8 bd
       0.17959915 -0.1940726 0.040134322 -0.08220231
000120 48 c5 32 be e5 e3 0c bd 07 71 59 3e bd 52 74 3d
       -0.1745807 -0.034397025 0.21234523 0.059649218
000130 73 7c 8b bc dc 47 3d be 9c 7e e7 bc 80 7b 39 be
       -0.017027115 -0.18484443 -0.028258614 -0.18113518
000140 6e 8f 08 be d2 7b 17 be c0 4e 88 3d db 97 6a bc
       -0.13335964 -0.14793327 0.06655645 -0.014318432
000150 f5 7c 1a 3c 9d db 4e be 47 de d4 bc b8 fc 49 3e
       0.009429206 -0.20200963 -0.025984896 0.19725311
000160 74 39 89 3d 90 56 eb bd c1 95 aa 3b fe 7a 3f bd
       0.067004114 -0.1149112 0.0052058403 -0.046748154
000170 6a cc 05 be 68 9d 1b be 4e b7 9f bd cb c4 2e 3e
       -0.13066259 -0.15196764 -0.077986345 0.17067258
000180 d2 17 65 bb 78 83 a6 3b cd 6e 47 be 9c 65 dc 3d
       -0.0034956825 0.0050815903 -0.19475861 0.10761568
000190 49 7d 82 3e 53 03 c3 3d 1c 82 5c 3e 8a 86 1b 3d
       0.2548621 0.095221184 0.21534008 0.037970103
0001a0 a0 69 5c 3e d7 9e 35 be d8 59 5c be 50 0e 84 bd
       0.21524668 -0.17736374 -0.21518648 -0.064480424
0001b0 a6 80 c1 bd 9e 50 4d be ca a3 6d bd 31 b3 a4 3d
       -0.09448366 -0.20050284 -0.05801753 0.080419905
0001c0 0b ed 63 3c 5a fa b1 bd 2d e5 52 bd 8f 6a 07 3e
       0.013911496 -0.08690329 -0.05148809 0.13224243
0001d0 c6 33 46 3e 27 ba 05 3e fe 15 4f be 76 9d 10 bd
       0.19355687 0.13059293 -0.20223233 -0.035306416
0001e0 dd 3a 58 bd 8b 64 9d 3d fa 32 19 be 1d fe 18 3e
       -0.05279051 0.07685193 -0.14960852 0.14940687
0001f0 4b f3 72 bc 00 86 69 3c 19 67 06 be 10 de f5 bb
       -0.014828513 0.0142531395 -0.13125266 -0.0075032786
000200 b7 61 91 3f 4f 4d 68 3f cf d5 67 3f 3a 1f 73 3f
       1.1357945 0.90742964 0.9056062 0.9496952
000210 f1 37 69 3f 49 70 64 3f 3a bb 73 3f 91 8f 7c 3f
       0.91100985 0.89233834 0.9520756 0.98656565
000220 00 39 5f 3f 9b ac 85 3f 17 4b 6f 3f bb bb 94 3f
       0.8719635 1.04433 0.93473953 1.1619791
000230 b0 e8 7b 3f 2c 16 44 3f 63 43 5e 3f 27 fc 47 3f
       0.9840193 0.7659633 0.86821574 0.7811913
000240 50 92 68 3f 00 7d 75 3f 20 c4 60 3f 0f 0e 72 3f
       0.90848255 0.9589386 0.87799263 0.945527
000250 9c 91 3a 3f cc 2a 8a 3f c4 f3 84 3f 6c fa 56 3f
       0.7287843 1.079431 1.0386891 0.83975863
000260 93 29 7b 3f 3d c9 4a 3f f5 96 6d 3f 30 e3 78 3f
       0.9811031 0.79213315 0.9280847 0.9722166
000270 1f 35 6b 3f c4 cb 5d 3f 5c a0 84 3f 9d 84 62 3f
       0.9187793 0.86639047 1.0361438 0.884836
000280 12 9d 51 3f 64 93 38 3f f1 26 4d 3f 08 8a 68 3f
       0.81880295 0.720999 0.80137545 0.9083562
000290 3f 0f 8b 3f 6e 54 84 3f f6 85 48 3f 02 69 5f 3f
       1.0864028 1.0338266 0.7832941 0.87269604
0002a0 e1 a7 7d 3f 5f 22 82 3f fe 86 7b 3f 11 09 72 3f
       0.9908429 1.0166739 0.98252857 0.94545084
0002b0 5a 61 7d 3f 1e 97 63 3f c1 9f 5b 3f d3 db 80 3f
       0.9897667 0.8890246 0.8579064 1.0067085
0002c0 f9 0c 7a 3f 1f c5 51 3f cf 68 55 3f 0c 2e 50 3f
       0.97676045 0.8194141 0.8336305 0.8132026
0002d0 80 b4 49 3f f8 39 94 3f a8 02 76 3f 96 a7 44 3f
       0.78791046 1.1580191 0.96097803 0.76818216
0002e0 22 00 64 3f 5c a9 8f 3f 56 b3 89 3f 87 9a 59 3f
       0.890627 1.1223559 1.0757854 0.85001415
0002f0 d0 f6 87 3f a7 e3 7f 3f 16 be 40 3f 9d 6c 54 3f
       1.0622196 0.99956745 0.7529005 0.8297823
000300 7c 8c c6 3d 19 d9 1e bd 44 66 82 bd 8e 30 14 bc
       0.09694764 -0.03878126 -0.06367162 -0.009044779
000310 8d f3 ad 3d 31 b3 fd bc d0 0f 1f 3e 76 d0 8a bc
       0.08493719 -0.030969234 0.15533376 -0.016945105
000320 19 fc 06 bc 51 01 d3 bd 9e 5a b4 3c 8d 27 cc 3c
       -0.008238816 -0.103029855 0.022015866 0.024921203
000330 35 b5 9d bd 12 4b c0 3d 3c d8 a3 3d 04 15 8c bd
       -0.07700578 0.093893185 0.08000228 -0.06839946
000340 ed 61 af 3d f4 7c f5 bb e7 99 ae bd 83 01 0f 3d
       0.085636 -0.007491702 -0.08525448 0.03491355
000350 53 1a 7b bd 75 22 5a 3e 92 49 b6 bd d9 05 0a 3e
       -0.0613044 0.21302207 -0.08900751 0.13478793
000360 18 fd c0 3d d6 07 88 3d 2e 30 e5 3c e6 cd 1e 3d
       0.09423274 0.066421196 0.027977075 0.03877058
000370 39 47 d5 bc 96 d7 1d be 53 1f 32 be 02 2f 59 bd
       -0.026034938 -0.15414271 -0.17394762 -0.053023346
000380 a0 71 1d be b3 c2 0e bd e1 a8 6f bd f7 6b d6 bc
       -0.15375376 -0.03485365 -0.058510665 -0.026174529
000390 a7 0b 85 3d 48 cc 3b 3d 0a 10 a4 bc 1b 8a 3a 3e
       0.06496363 0.045849115 -0.02002718 0.18216746
0003a0 22 26 55 bd 2e e2 b2 3d 80 ba 83 3b 29 0f b6 bd
       -0.05203832 0.087345466 0.0040200353 -0.0888961
0003b0 ee 71 03 bd e1 f6 db 3d 60 80 72 bd 09 69 74 bd
       -0.032091074 0.10740448 -0.05920446 -0.05967048
0003c0 ad 7d a4 3d f6 2e 4a 3d c3 38 17 3e 7c 31 cd 3d
       0.08031783 0.04936119 0.14767747 0.10019204
0003d0 bd 21 9d bc 26 87 3a 3e 8b 90 23 bd 71 4a 5e 3d
       -0.019181127 0.18215618 -0.03993277 0.05427021
0003e0 96 21 83 3d a7 f9 90 3b a7 e3 93 3c bb e6 af 3d
       0.064028904 0.004424292 0.018052889 0.0858893
0003f0 15 10 b1 3d 55 d8 35 bd 12 60 d2 bc bc 45 22 3d
       0.086456455 -0.044395763 -0.025680576 0.039617285

action_model._discrete_distribution.branches.0.bias f4 [5]
000000 a4 92 bd bc 3c 26 b3 3d bd e4 f6 be b9 87 ce 3e
       -0.023141213 0.08747527 -0.48221388 0.40337923
000010 2a b6 2e 3e
       0.17061678

action_model._discrete_distribution.branches.0.weight f4 [5, 64]
000000 26 9b 98 be f5 f0 a5 3d 48 0b 9c 3e 46 c3 a6 be
       -0.2980587 0.081025995 0.30477357 -0.32570857
000010 14 88 21 be 0e ee 32 be 52 c2 6d 3d 75 0f e2 bd
       -0.15774566 -0.17473623 0.058046646 -0.110381044
000020 19 97 a7 bd db b6 bc 3e c2 9b 93 be fb 15 88 3e
       -0.081831165 0.36858258 -0.2882977 0.2657927
000030 9a ad 6a bd e6 81 a6 3d 6b a1 a8 bd 30 0a cc bd
       -0.057294466 0.08130245 -0.08233913 -0.099628806
000040 d0 68 a6 be 8f a2 81 be c3 15 9c bc b0 48 5f 3e
       -0.3250184 -0.25319335 -0.019053346 0.21805072
000050 3c ee 1a 3e a9 52 0f 3e 6b 21 39 3c b7 ed 41 be
       0.15129942 0.13996376 0.011299471 -0.18938337
000060 57 08 24 bb d6 28 12 be c6 09 b2 bd c6 d2 56 be
       -0.0025029385 -0.1427339 -0.086932704 -0.20978841
000070 44 23 34 be 27 e1 33 be 42 67 1a 3c ec 7f 8c 3e
       -0.17591578 -0.17566358 0.009424033 0.27441347
000080 68 63 83 3e 62 ff 1f 3e 8b 58 d5 3d 9a a1 95 bd
       0.25661778 0.15624765 0.10417279 -0.07306214
000090 d7 99 cf be 7c 59 c5 bd 52 cd af 3c 85 00 24 3d
       -0.40547058 -0.096362084 0.021460209 0.040039558
0000a0 1d 84 ab 3d 76 77 99 be 1b 65 23 be a4 a1 11 bc
       0.08374808 -0.29973954 -0.15956537 -0.008888636
0000b0 35 d1 44 3f 11 61 61 3e 84 47 9c 3d 4d 36 5b 3c
       0.76881725 0.22009684 0.07630828 0.0133796455
0000c0 4a 45 d6 bd 54 e9 ce be 3c 10 85 3e 4e 6c 5c 3e
       -0.104624346 -0.4041239 0.25988948 0.2152569
0000d0 16 57 19 3d aa 10 a1 3e 0d 35 a5 be 65 20 ce bd
       0.037436567 0.31458026 -0.32267037 -0.100647725
0000e0 a2 cd 40 bd c4 3c 1e be 39 a8 19 be 58 e9 22 be
       -0.047071107 -0.15452868 -0.15005578 -0.15909326
0000f0 8e 60 29 3d e3 7a 44 3e 2c f2 28 3e 03 8a c8 3d
       0.041351847 0.19187503 0.16498631 0.09791949
000100 23 5c 14 3f a4 bd a6 bb 27 d4 5f bf d6 2b ac 3e
       0.5795309 -0.005088525 -0.87433094 0.33627194
000110 92 21 19 bd 94 5b 65 bd 91 10 5c 3f be 1d 8a be
       -0.03738553 -0.05599554 0.8596278 -0.26975816
000120 c7 e3 22 bf c2 6a c1 be 1b 13 e7 3d e9 5f 59 bd
       -0.6362881 -0.37776762 0.11282941 -0.053069983
000130 20 bc 5e be 04 c4 f3 3d d7 89 2e 3f ef c5 df be
       -0.21751451 0.119026214 0.68179077 -0.437057
000140 5e df 86 3e c3 4b 46 3f 93 c7 ba 3e 9a dd 0c bf
       0.2634229 0.77459353 0.36480388 -0.5502564
000150 a3 94 73 be e1 ea de be 0e b9 34 3e 67 73 96 3e
       -0.23787169 -0.43538573 0.17648718 0.2938492
000160 4f 0e 3a 3f 72 6c 11 be 8c 8e 11 be b4 88 a8 3d
       0.72678083 -0.14201525 -0.14214534 0.08229199
000170 1c 15 1c bf 77 eb e8 3d 00 73 d6 3e e0 67 9e bf
       -0.6096971 0.11373036 0.41884613 -1.237545
000180 b2 32 a8 bd d3 c0 1a bf 27 15 bc be ba 15 d7 3e
       -0.08212794 -0.60450476 -0.36734888 0.42008764
000190 fe ab 8c 3f 29 81 57 be 82 37 c8 bd 6a a2 97 3e
       1.0989988 -0.21045364 -0.09776212 0.296161
0001a0 1b 8d e3 be a4 85 1e bd f2 07 8a bc 1a 07 62 be
       -0.44443592 -0.03870167 -0.016849492 -0.22073022
0001b0 8c 5e 8f be 9f 4c 0d 3e 94 8c d3 be 1b 14 51 bd
       -0.2800182 0.1379876 -0.4131819 -0.051044565
0001c0 8d 5d d6 be ef 8f db 3e e2 63 65 3e d9 75 14 3f
       -0.4186825 0.4288325 0.22401384 0.5799232
0001d0 af 48 82 3e a8 15 0a 3f a3 93 44 be 67 9c 0c 3c
       0.25446078 0.53939295 -0.19196944 0.008582211
0001e0 ac 04 5b bd 8e 54 2c bf 91 54 90 bd b2 c4 0b 3f
       -0.053471252 -0.6731652 -0.0704738 0.5459701
0001f0 8a ea 13 bf 66 3d 9a be 1f a0 1a 3f 67 c7 3d be
       -0.57779753 -0.30124968 0.60400575 -0.18533097
000200 30 5e 4a bf ed 56 3f 3e a9 27 4e 3e 21 36 20 be
       -0.7904997 0.18685503 0.20132317 -0.15645649
000210 26 d8 81 3b ce d6 85 be 51 82 0c be f0 6d 18 3f
       0.0039625345 -0.26140445 -0.13721587 0.5954275
000220 bd 09 50 be 77 a8 4a bd 65 b9 72 3e 2b 15 b4 3d
       -0.20316215 -0.049477067 0.23703535 0.087931
000230 23 7c 25 3e df b7 29 bd 38 d9 f6 3e 17 cd c0 be
       0.16160636 -0.04143512 0.482126 -0.3765647
000240 bf 9c c3 3c b9 72 dd be 4e 62 35 3e 66 ca 16 3e
       0.023878453 -0.4325159 0.17713282 0.14725646
000250 98 ac 9e be 22 ed b9 be 43 67 6e be 05 0e 86 3e
       -0.30991054 -0.3631373 -0.23281579 0.2618257
000260 0a c6 1c bf 8a e9 a8 be bb 05 f4 be b5 42 f5 3e
       -0.61239684 -0.32990676 -0.47660622 0.47902456
000270 6c 1b a3 be 2f d3 0d be 85 b0 44 3d 12 06 87 3e
       -0.3185686 -0.13850091 0.048019905 0.2637182
000280 37 cf 94 3e 9e 63 08 3f aa 91 5e be 8b 8a 28 bf
       0.29064342 0.53277004 -0.21735254 -0.658364
000290 1f bd 3e bf 55 2b 54 3d 21 93 6d be e0 c9 f8 3e
       -0.74507326 0.051799137 -0.23200656 0.48591518
0002a0 b7 82 81 3e cd 3e 07 3f 6e f9 7a 3d 8d 27 8e be
       0.2529504 0.528302 0.06127303 -0.2776455
0002b0 9e 9d 0d bd 0c 5c 4d 3e f5 e5 a0 be 27 dc cc bd
       -0.034574144 0.20054644 -0.31425443 -0.10002928
0002c0 d1 61 19 3e f3 0b 13 3f d9 2a 56 be ad 34 67 be
       0.1497872 0.5744011 -0.20914783 -0.22578688
0002d0 9b 57 72 3e 1c 55 77 be b1 59 21 3f 74 bc 12 be
       0.23666231 -0.2415356 0.63027483 -0.14329702
0002e0 41 a4 9e be 8f 59 b1 bd 81 f1 0f 3c d7 7d ac bd
       -0.3098469 -0.0865966 0.008785606 -0.084224395
0002f0 75 e9 1c 3e e5 ec bb ba e4 bb 42 bd fc 4d 14 be
       0.15323432 -0.0014337568 -0.047542468 -0.14482874
000300 17 55 0c be 66 44 f8 bd 1f f4 8d 3e a6 92 90 bf
       -0.13704334 -0.12122421 0.27725312 -1.1294754
000310 36 4e df be 21 31 51 be ac fb ac be 8f c0 6f 3e
       -0.43614358 -0.20428897 -0.3378576 0.23413299
000320 5d e3 cd 3d 93 5c 07 3f 4c 61 79 3e 8f c1 f2 3c
       0.10053132 0.5287563 0.24353522 0.029633312
000330 2e 89 b9 3d 77 f5 a5 bd 49 40 0d bf c8 04 63 3e
       0.09059368 -0.08103459 -0.55176216 0.22169793
000340 ad 02 a2 3d 2a 52 7e 3d ca 0f 8b be a9 4e e5 3c
       0.079106666 0.062090077 -0.27160484 0.02799161
000350 45 85 1e bd bd 16 21 3f 1d bb 1d bf 42 e9 96 be
       -0.038701314 0.6292532 -0.6161364 -0.29474837
000360 18 e9 8a 3d 91 8d 04 3f 9c b6 bf 3e 6d 77 b4 be
       0.0678274 0.51778513 0.37444007 -0.35247365
000370 7e 38 11 3d 79 e2 85 3c 5d df 14 bd 78 2a 3a 3f
       0.035454266 0.016343342 -0.03634583 0.7272105
000380 f9 09 86 bf e8 4c 26 3f 9c 10 b0 3e 6d e7 7a 3e
       -1.0471793 0.649611 0.34387672 0.24502344
000390 b8 3f 80 3e 63 fe 7d 3e ba 42 e3 bd f9 e1 57 bd
       0.25048614 0.24804072 -0.110967115 -0.05270574
0003a0 09 48 fc be a9 6d 45 3e d8 84 aa be ee 1c e6 3d
       -0.49273708 0.19280113 -0.33304477 0.11235987
0003b0 90 30 39 3f 37 fb ac be 1c 60 b9 3e 1d 61 b2 bd
       0.72339725 -0.33785412 0.36206138 -0.08709929
0003c0 50 5f 08 3f 27 6e 71 bf 8a 06 d3 be 83 f7 43 be
       0.53270435 -0.94308704 -0.41215926 -0.19137387
0003d0 ec ad eb be 87 23 02 bf b1 aa 80 be 5b eb 15 3f
       -0.4603113 -0.5083546 -0.25130227 0.5856225
0003e0 21 1b 3f 3f 04 cf 68 3e 55 10 7a be 85 f0 05 3e
       0.7465077 0.2273522 -0.24420293 0.13080032
0003f0 91 55 0e be 7b 11 94 3e 97 3e 70 be c3 c7 67 3e
       -0.13899828 0.28919587 -0.23461376 0.22634797

network_body.linear_encoder.seq_layers.0.bias f4 [128]
000000 f7 29 66 bd 20 66 a0 bc eb ed 09 bd d0 8e 9c 3c
       -0.056192365 -0.019579947 -0.033674162 0.019111067
000010 85 72 25 be d3 5e 6c 3d d3 2b 11 be a8 96 f4 bd
       -0.16156967 0.05770762 -0.14176874 -0.11942798
000020 70 36 1e 3b b8 ba a9 bd da 50 80 bc ca 7e 0d be
       0.0024141334 -0.08287567 -0.015663553 -0.13817897
000030 54 fc 8e bd 7b b0 b0 bd d4 ee b3 bd 9a ce c8 bd
       -0.069817215 -0.08627411 -0.08785787 -0.09805031
000040 7d 1c 24 be 22 7d e4 3d 82 77 4a be 35 78 e7 bd
       -0.16026492 0.1115668 -0.19772151 -0.113022245
000050 0f 0e 78 3c cc 81 b7 3b 49 51 78 3d 31 ef d0 bc
       0.015140071 0.00560019 0.060624395 -0.02550468
000060 38 55 86 3d 0c d4 cc bd 7e 5a 0c be a9 30 81 3c
       0.06559223 -0.10001382 -0.13706395 0.015770273
000070 b8 46 46 be 88 c0 0d 3e 3d 27 22 bd 4a 59 a6 bd
       -0.19362915 0.13842976 -0.0395882 -0.08122499
000080 35 bb 14 be e0 bb ba bd e7 1f 95 bd 14 37 c3 3d
       -0.14524539 -0.091178656 -0.072814755 0.0953199
000090 29 6e 20 be e5 59 70 bd 08 fb ac bd 94 b4 ba 3d
       -0.15667023 -0.05867948 -0.08446318 0.09116474
0000a0 00 a8 80 3d b3 54 22 bd 1f c1 64 be d6 75 04 3c
       0.062820435 -0.039631557 -0.22339295 0.008084735
0000b0 a8 95 12 bd 7e cc 2c 3c bc 14 56 bc 64 a7 cd bd
       -0.035787255 0.010546802 -0.013066467 -0.10041693
0000c0 d0 49 dc bd d0 0b ba 3c ab 0f 87 bd 06 5e d5 bd
       -0.10756266 0.02271071 -0.06594785 -0.10418324
0000d0 25 3e d9 3d 99 a4 d1 bd 93 41 5b 3d 93 ca 8d bd
       0.10607556 -0.10236473 0.053529333 -0.069234036
0000e0 a2 78 ef bc 82 41 b2 bd a2 aa 5f ba a9 46 fe 3c
       -0.029232327 -0.08703901 -0.0008532201 0.031039553
0000f0 62 a7 b5 3c 4e 07 ce bc a7 95 07 3c d8 f1 81 bc
       0.02217454 -0.025149968 0.008275426 -0.01586239
000100 d3 5e c3 bd 03 2f 1d bd 00 ae 60 bd cd 64 8e 3b
       -0.09539571 -0.038374912 -0.05485344 0.0043455125
000110 6c 4f 6f 3c 8b d6 03 bd 03 1d 87 bd 6e 6b 0d bd
       0.014606338 -0.032187026 -0.065973304 -0.03452628
000120 92 3b b0 bd 28 40 0e be 37 24 4f bd e5 e9 1f be
       -0.08605112 -0.13891661 -0.050571647 -0.15616567
000130 c7 0d 27 be 4f f1 86 3d 98 4e 99 bd d6 05 8e 3d
       -0.1631385 0.06588995 -0.07485694 0.06934707
000140 3b 1a 89 bd 96 3b 1e ba 6e 1b b4 3d 37 9a a2 bd
       -0.06694456 -0.00060361007 0.08794294 -0.079395704
000150 af d5 26 be 17 1f 02 be 6d 61 1e bd fb fa 31 3c
       -0.16292451 -0.12707172 -0.03866713 0.010863061
000160 ae 2b 1e 3d 1e 1f 0a bd 33 7d 49 3d 44 a0 72 bc
       0.038615875 -0.033721082 0.049191665 -0.014808718
000170 72 88 01 bd 85 33 92 bd 8d 2b 1c 3c 60 80 f4 bc
       -0.031624265 -0.07138733 0.009531868 -0.02984637
000180 54 32 e3 bd be bd ac bd 2f ef 01 3d 43 07 a1 bd
       -0.11093584 -0.08434628 0.031722244 -0.07862713
000190 8e 51 12 bb 9e dd 18 bd ef 4e 84 bd 95 bc 80 bd
       -0.0022326442 -0.037320726 -0.06460368 -0.06285969
0001a0 d1 ff 0f 3e e0 37 90 bc d0 16 64 bd fd f2 a1 bd
       0.1406243 -0.017604768 -0.05568582 -0.079076745
0001b0 dc 21 b8 bd b6 cd a9 bd 67 9d 50 3d 4d 77 39 bd
       -0.08990833 -0.082911894 0.05093136 -0.04527979
0001c0 66 56 92 3b 19 6f c4 bd bf cd 00 be ac 9e 18 be
       0.004465866 -0.09591503 -0.12578486 -0.14904279
0001d0 59 14 0d be d9 e9 d5 3c 3c cd 20 3a 64 20 97 bd
       -0.13777293 0.026112484 0.0006134098 -0.07379225
0001e0 3d 3a 16 3e 0c 91 f3 3b 4b 6d d1 3c 40 c1 b9 bd
       0.14670654 0.0074330624 0.02556481 -0.09070063
0001f0 1e 51 45 ba b8 4f 0e 3d 55 d6 01 be 0d 53 8c bb
       -0.0007527041 0.034743994 -0.12679417 -0.0042823614

network_body.linear_encoder.seq_layers.0.weight f4 [128, 141]
000000 92 ed 2a be af 7d 8d bc 03 c2 a9 3e a7 bd d6 3e
       -0.16692188 -0.017271845 0.33155832 0.41941568
000010 77 0e 76 bb 65 7e bc 3e 9f ca 6f 3e e0 12 91 be
       -0.0037545243 0.3681518 0.23417138 -0.28334713
000020 51 14 c6 3d b2 fa 9b 3e 51 ee 01 3e 35 f3 e1 bd
       0.09671844 0.30464703 0.12688567 -0.11032716
000030 65 71 9b bd 7a fb a4 bd 73 8b fb 3e 14 48 9d 3e
       -0.07589988 -0.08055778 0.4912983 0.30719054
000040 a5 e9 7d be d0 37 97 3d fe 91 6f 3e 17 1e 85 3e
       -0.2479616 0.07383692 0.23395535 0.2599952
000050 15 07 d8 3d cd 70 46 3e 64 5a 68 3e d6 dd 5b 3e
       0.10548226 0.19378968 0.22690731 0.21471342
000060 8c aa c6 3e a9 a3 b4 bd e2 3a ba bd 4c 16 c4 3d
       0.38801992 -0.08820278 -0.09093262 0.09574565
000070 c7 f7 42 3e d0 e5 c8 bd 30 27 78 be d9 d2 99 3d
       0.19039832 -0.09809458 -0.24233699 0.07510919
000080 a5 fa a7 3e 86 9a 7b 3e e6 f3 a4 3d 14 ee b4 3c
       0.32808414 0.24570665 0.080543324 0.02208618
000090 d8 ee 35 bd 72 71 1f be 30 86 4b be a9 bd 44 3e
       -0.044417232 -0.1557062 -0.19875407 0.19212975
0000a0 3b 74 1e 3e ee 2c a6 bd 28 1e de 3e 23 9d 17 be
       0.15474026 -0.081140384 0.43382382 -0.14806037
0000b0 e1 29 ab be 4d c7 86 be 81 24 a6 bc 7b a2 c6 bc
       -0.3343039 -0.2632393 -0.020281078 -0.024247399
0000c0 ff 23 e6 3e c6 c1 40 bc 58 7d c4 3d 6d 41 4f 3e
       0.44949338 -0.011764949 0.0959422 0.20239802
0000d0 f9 8b 7d 3d 3c 45 61 3e ff 0d e9 3e 33 0f 32 3e
       0.061901066 0.21999067 0.4551849 0.1738861
0000e0 a6 a4 12 3e 49 8a 9d 3e 8f 48 0e be eb 70 80 3e
       0.14320621 0.30769566 -0.13894866 0.2508615
0000f0 ed b2 65 3e bf 62 33 be 8c d9 1a bb 2a 4c 45 bd
       0.22431536 -0.17518137 -0.0023628203 -0.04816834
000100 f5 0e 12 3e 34 60 ad bc c5 be 08 3e 26 30 10 3e
       0.14263518 -0.021164037 0.13354023 0.14080867
000110 fe b5 fa 3d b5 c0 d6 3e 10 73 dc bc ad b7 c4 bd
       0.122417435 0.419439 -0.026910335 -0.09605346
000120 21 d1 48 3d c2 d5 01 be f1 c6 53 3d fd ca 9f be
       0.049027566 -0.12679198 0.051703397 -0.31209555
000130 4a e9 6b 3d 63 c8 30 3e cb ed 18 3e 44 74 a3 be
       0.05759553 0.17263941 0.14934461 -0.3192464
000140 31 fd 5a be 79 3d fe be 21 b2 02 be f5 58 8a bd
       -0.21385647 -0.49656275 -0.12763263 -0.067552485
000150 4b 00 67 3d b8 38 87 ba 80 a4 c4 be ac 1e fc 3e
       0.056396764 -0.0010316586 -0.38406754 0.4924215
000160 81 f9 b7 be db 09 85 bd 91 73 ff 3c 1e 03 4d bd
       -0.35932544 -0.064960204 0.031183036 -0.0500518
000170 96 32 12 bd ca 54 3b 3f 47 22 b8 3e 14 b8 95 3e
       -0.035692774 0.7317625 0.35963652 0.29242003
000180 16 c1 95 3d c5 bd ae bd 6c 32 65 3f b5 be 0c 3f
       0.07312219 -0.085322894 0.8953006 0.54978496
000190 8c 8b 84 bd 00 bb 85 be af c5 e8 3d 6d c0 2e be
       -0.06471929 -0.26119232 0.1136583 -0.17065592
0001a0 e5 39 da 3e 2f 35 98 3e 9e 42 29 be 8f 18 ee 3d
       0.42622295 0.29728076 -0.16529319 0.11625778
0001b0 90 2b 49 be 66 f7 3a 3e d9 a2 1e 3e 49 54 8a 3e
       -0.19645524 0.18258438 0.15491809 0.2701743
0001c0 c1 48 10 3e 83 3e 03 3e eb 05 4e 3e 19 a2 6c 3e
       0.14090253 0.12816815 0.20119445 0.2310871
0001d0 73 83 60 3e 84 8e cd 3d 44 95 70 3e d8 5f bc 3c
       0.21925144 0.10036948 0.2349444 0.02299492
0001e0 b0 70 ae bd de 9d 3c bd a2 b9 42 3e 7f 4a 62 be
       -0.08517587 -0.04604899 0.19016126 -0.2209873
0001f0 a6 43 63 3d 6c a9 5c bd 86 47 02 bf 63 da 21 be
       0.055484436 -0.05387251 -0.50890386 -0.15805964
000200 1f 48 61 bd e2 de 6b 3e 8f aa 8a bd 43 be 87 be
       -0.05500042 0.23034242 -0.06770813 -0.26512346
000210 c5 3f c7 3e 95 51 b6 be c4 54 f8 3c 6e 33 65 3d
       0.3891584 -0.35609117 0.030313857 0.05595725
000220 26 a5 75 bc d4 94 62 bd 3c a9 9e bd ce 0a 06 be
       -0.014992988 -0.055317715 -0.07747123 -0.13090059
000230 fa 10 08 3d d8 6a 54 3e 6c 43 88 be 9b 04 c2 bd
       0.033219315 0.20743883 -0.2661394 -0.09473535
000240 ff e6 2d be 3c 66 d2 3d dd 0e bb be 6e f1 03 3e
       -0.1698265 0.10273406 -0.36534777 0.12885067
000250 84 c6 fd 3d b5 41 70 be 02 17 c3 bd ce 1f dc 3c
       0.123913795 -0.23462565 -0.09525873 0.026870634
000260 03 87 99 be 4a 8a 26 bc 5b 73 02 be b6 59 18 bf
       -0.29985818 -0.010164807 -0.12739317 -0.5951189
000270 11 03 22 3e 84 80 7e be fc cf 22 bd 5a 85 01 bd
       0.15821482 -0.24853712 -0.03974913 -0.031621315
000280 6e f8 c7 3c ae bd 90 3d 67 a9 6b be 82 9b ab be
       0.024410453 0.070674285 -0.2301384 -0.3351708
000290 37 9d 14 bf 3d 06 94 3d 65 61 c3 be 77 fa b6 be
       -0.5805239 0.07227752 -0.38160244 -0.35737965
0002a0 7a bd 1a 3c 97 51 43 be 2b 88 83 be 36 7e 36 3e
       0.009444589 -0.19074093 -0.25689825 0.17821583
0002b0 99 58 3a bc 09 68 42 bf 2f fe 28 3d 34 7f 95 be
       -0.011373662 -0.75939995 0.041258033 -0.2919861
0002c0 da 7d a8 be 66 00 46 3d a7 8a ad 3d 04 ee 49 be
       -0.32908517 0.048340224 0.084737115 -0.19719702
0002d0 fe 2f f8 bc c1 4b bf bd d0 fc 41 bd 0c 78 b7 be
       -0.030296322 -0.09340621 -0.04736024 -0.35833776
0002e0 89 a1 bc bb fc 79 82 be 35 ab b1 3e 71 47 d5 3d
       -0.005756561 -0.25483692 0.34700933 0.10414017
0002f0 52 86 fb 3d ef 3c 22 be 2e fd 10 bc 23 62 f9 be
       0.12281479 -0.15843557 -0.008849425 -0.48707685
000300 81 32 3f 3d c6 89 cc be 81 87 59 bf b6 d0 2a 3e
       0.046679024 -0.39948863 -0.8497239 0.1668118
000310 22 eb 25 3d 08 fd b8 be b9 29 d2 bd 6b 0c 6c bd
       0.040507443 -0.36130548 -0.10261864 -0.05762903
000320 52 a5 e8 be 02 1d 89 3e d3 83 a5 3c 01 9b a9 be
       -0.4543863 0.26779944 0.02020446 -0.3312607
000330 2b 0e da 3e e8 26 0d be 28 0d 0f 3e e4 88 8a be
       0.42588934 -0.13784373 0.13969862 -0.27057564
000340 f3 2a 43 be b3 1f 7d be b3 e0 e4 3d 60 26 04 bf
       -0.19059353 -0.24719124 0.111756705 -0.51621056
000350 fa b3 21 bf 83 7f 5f be 89 37 1a be 1e 70 19 be
       -0.6316525 -0.21825986 -0.15060247 -0.14984176
000360 13 44 e8 3e 0f d8 3f 3e d3 78 87 bf f2 67 04 3f
       0.45364437 0.18734764 -1.0583748 0.5172111
000370 45 ec 29 be 1f 5a 0d be 87 54 1e bd 35 ba 3b 3e
       -0.16594036 -0.1380391 -0.03865483 0.18332751
000380 ec e1 82 3d c5 6a 97 3c 59 8d b1 bd b4 32 ad be
       0.063907474 0.018483529 -0.08669538 -0.33827746
000390 94 88 55 be 9d 7e 70 3e 8a a0 af be 33 4a 4d 3f
       -0.20852882 0.23485799 -0.3430217 0.80191344
0003a0 65 f0 3e be 8b 45 d6 3e 06 41 af be ef 4b ab be
       -0.1864639 0.41849932 -0.34229296 -0.3345637
0003b0 02 23 c3 be 19 3c 74 3d f3 13 3a bf c4 b7 ef bf
       -0.38112646 0.059627626 -0.7268669 -1.8727956
0003c0 fb 59 81 3e 39 64 b8 be 9a b8 74 be e5 ae 91 3e
       0.25263962 -0.36013964 -0.23898545 0.28453746
0003d0 59 2c b1 3d 7c ac 33 bf 4e 4c 86 3e 56 12 c8 3d
       0.08651037 -0.70185065 0.2623009 0.09769122
0003e0 74 18 ce be d8 98 d0 3e 4e 59 30 be b9 31 97 3e
       -0.4025303 0.4074161 -0.17221567 0.29530123
0003f0 ae 0d d7 be e5 9d 0a be d4 5c 95 be 04 4b 92 3e
       -0.42002624 -0.13536794 -0.29172385 0.28572857

network_body.linear_encoder.seq_layers.2.bias f4 [128]
000000 07 86 00 3e 1a d7 ce bd 17 70 8e 3d a0 e7 3c be
       0.12551127 -0.10099621 0.06954973 -0.18447733
000010 a9 18 a8 3d 49 c8 03 bd cf a4 b8 3d f2 8f 48 be
       0.082078286 -0.03217343 0.0901581 -0.19586161
000020 d9 10 05 bd 37 54 41 be c2 84 b9 3c f9 6f 74 3e
       -0.03248677 -0.18879782 0.022646312 0.23870839
000030 7b 9e 1b bd cd cf 62 3d 5a 0f fd bd 06 f9 c1 bd
       -0.037992936 0.055373956 -0.12356444 -0.094713256
000040 d9 7d 87 3d 19 15 2f be 8c 09 14 be 96 69 84 3c
       0.066158004 -0.17097892 -0.14456767 0.016163629
000050 f6 09 1f 3c 2b c3 64 bd 67 ae 7d bc c8 43 8f bd
       0.009706965 -0.05585019 -0.015483475 -0.0699535
000060 d2 ea 5f bd c6 b7 d2 3c b4 f4 02 bd e2 9f f7 3d
       -0.0546673 0.025722396 -0.03197165 0.12091042
000070 29 85 f4 bc 29 a9 10 bd f4 24 ff bc 07 e7 b3 3d
       -0.029848652 -0.035317574 -0.03114555 0.08784299
000080 09 f0 2a bd c8 8e 3b bd 95 ac 2c be eb 1f f4 bd
       -0.04173282 -0.045790464 -0.1686271 -0.1192015
000090 d3 cc e3 bd 1c 77 e9 3c b4 6e 6a 3d a3 6e 21 be
       -0.111230515 0.028499179 0.05723448 -0.15764861
0000a0 a6 fe 65 3b ad 58 71 bd c2 5d e0 3c f1 15 52 3d
       0.003509441 -0.05892246 0.027388457 0.051290456
0000b0 48 40 fe bd 8c 88 3b b9 b1 12 38 bd bb b2 59 3c
       -0.124146044 -0.00017884577 -0.0449397 0.013287242
0000c0 f9 a9 c3 3b fb bb fa bd 2f 94 1d bc 53 02 c8 3d
       0.00597119 -0.12242886 -0.009617849 0.09766068
0000d0 d5 b5 a5 3c 07 70 c3 bd 9a 09 9d 3d c1 1a 1e 3d
       0.020228306 -0.09542852 0.07667847 0.038599733
0000e0 1b ad af 3d 3e e6 b7 bd 37 22 12 be a8 29 2c 3e
       0.08577939 -0.08979462 -0.14270864 0.16812766
0000f0 c1 69 95 3a c7 87 ad bd a3 c5 31 be a9 75 96 3c
       0.0011399315 -0.08473163 -0.17360549 0.018366652
000100 a6 76 87 bd 20 95 d4 bd 61 28 61 bd 99 2f 15 3d
       -0.06614427 -0.10380006 -0.05497015 0.036422346
000110 53 fd 36 bd 51 89 06 be 19 79 76 be b3 e2 c3 bb
       -0.044675183 -0.1313832 -0.24069633 -0.0059779524
000120 ae f8 83 3d 65 e3 8e 3d ab 28 89 bc 6c 66 a3 3d
       0.06443916 0.06976966 -0.016743025 0.0797852
000130 25 23 27 3e e8 50 6e 3d 11 ef 52 3d 45 8f 5c 3d
       0.16322 0.058182627 0.051497523 0.05384757
000140 20 11 1f be cb 39 ee bd ea 8d ef 3d a4 f7 aa 3d
       -0.15533876 -0.11632117 0.1169699 0.08348015
000150 54 f2 44 3c 03 73 93 bb 86 5d cb bd 8b 44 c5 bc
       0.012020666 -0.0044997944 -0.099299476 -0.024080535
000160 e3 25 25 3d b6 61 8c bd 77 ff ec bd b5 9e 05 3c
       0.040319335 -0.068545744 -0.115721636 0.0081555145
000170 a4 07 97 bd cd b0 84 bc 40 4e 07 bd 08 fc e0 3d
       -0.07374504 -0.016197586 -0.03303361 0.10985571
000180 73 ae b5 3c f5 1a 26 ba 7b fa 28 bd cb ed 28 be
       0.02217791 -0.00063364144 -0.0412545 -0.16496961
000190 b8 89 ea 3d 40 e3 63 bd a7 23 f9 bc 32 ce 31 be
       0.11452049 -0.055636644 -0.030412508 -0.17363814
0001a0 6c 0d 2b be 6b 9e ab bd 2e 48 ba 3d 93 b6 60 bd
       -0.16704339 -0.08379825 0.090957984 -0.054861616
0001b0 d4 68 05 3d 32 69 7d bd dc fa bd 3c ba ac b7 3d
       0.032570675 -0.0618679 0.023190908 0.08968492
0001c0 cd 2f cd bc 8d 3d 86 bd 0d 95 14 bd 90 93 70 3c
       -0.025047207 -0.06554709 -0.03627496 0.014683619
0001d0 ec bc cc 3d 55 ea 50 3b e0 57 78 bd 15 6b 20 bd
       0.099969715 0.0031877954 -0.06063068 -0.03916462
0001e0 79 70 4c 3e 68 50 28 be 90 37 91 3d 36 5e b8 3c
       0.1996478 -0.16436923 0.07090676 0.02250586
0001f0 8f 5c ac bd d5 42 37 be 32 2e 2b be 39 0b d6 3d
       -0.08416092 -0.17896588 -0.16716841 0.10451359

network_body.linear_encoder.seq_layers.2.weight f4 [128, 128]
000000 c1 c6 8a 3e 8d 26 66 3e de 89 d5 3d 71 57 ff 3d
       0.27104762 0.22475643 0.10426687 0.1246785
000010 4d 7a f5 bb 8d 05 49 3e a2 cc 21 be ae 2a ba 3e
       -0.007491386 0.19631024 -0.15800717 0.36360687
000020 94 a6 c0 3c bb bf 28 3e ca 05 26 bd a6 47 7d bd
       0.02351693 0.1647939 -0.040532865 -0.061835907
000030 ec 93 f1 3d b7 2e 03 be 4f 0e c4 3c b9 26 15 3e
       0.11795792 -0.12810789 0.023932604 0.14565553
000040 c1 b7 62 3d 53 3a 18 3e 07 fd 31 bd 30 90 89 bd
       0.055351023 0.14865999 -0.043454196 -0.06716955
000050 b0 83 e7 3c d0 49 2e be 4d 3e 0e 3e 60 00 a4 3d
       0.028261036 -0.17020345 0.13890953 0.08007884
000060 10 c7 48 3e 2b cd 19 be e8 73 7d 3e 9b f1 84 3d
       0.19607186 -0.15019672 0.24751246 0.06491395
000070 4d 98 55 3d 55 08 84 3e d4 12 c7 3d db 7a ab bd
       0.0521472 0.25787607 0.09720388 -0.08373042
000080 55 33 5e 3d 43 b9 d2 bd b8 a2 98 bd 69 6e ae 3e
       0.054248173 -0.10289242 -0.07452911 0.3406861
000090 3e 84 88 be 80 00 39 3e 18 85 a4 bd 38 94 87 3e
       -0.26663393 0.18066597 -0.08033198 0.2648027
0000a0 2f d1 80 3e 61 4e a1 3d ae ef c3 be 6d 09 8f 3c
       0.25159594 0.07876278 -0.382688 0.01746055
0000b0 b9 75 81 bc a0 b9 8e bd c7 73 f3 3d 2c 0e f7 bd
       -0.015803205 -0.06968999 0.11887317 -0.1206325
0000c0 2d b8 1f 3e f3 1a 57 3d ae 2b 10 3e ff 1c 03 be
       0.15597601 0.052515935 0.14079162 -0.1280403
0000d0 8c 69 55 3e 30 6f bc 3d cc 02 85 3d 99 3c bd 3d
       0.20841044 0.09200895 0.06494674 0.09240074
0000e0 34 64 0c bc c8 6e 0b be e8 c2 76 bc a2 b1 8d be
       -0.008568812 -0.13616478 -0.015061118 -0.27674586
0000f0 75 da 5e bd b9 62 72 3e 42 67 1d bc 80 a3 1b be
       -0.054407556 0.23670472 -0.009607138 -0.15199089
000100 d9 c6 a8 3d a4 37 a3 bc 75 d6 39 bd 03 07 a6 3c
       0.08241052 -0.019923992 -0.045370538 0.020267015
000110 65 4d ed 3d 38 2d 6e bd b0 17 d2 3d 4c 5f d5 3c
       0.115870275 -0.058148593 0.10258424 0.026046418
000120 bd ba 9b 3c 07 ce 81 bd 11 22 8e bd 71 9d 1b bd
       0.019009942 -0.06338125 -0.069400914 -0.037991945
000130 8e 4f ce 3a 56 af 96 bc 79 01 54 bd 48 d9 12 3e
       0.0015740262 -0.018394154 -0.051759217 0.14340699
000140 a6 d8 88 3d 36 7e a4 3e 9a 72 4d bd b7 c9 96 bd
       0.066819474 0.3212754 -0.05015812 -0.07362693
000150 e2 02 9d bd 35 36 f4 bc 8d 5d 35 be d7 6f 4f 3d
       -0.076665655 -0.029811004 -0.17711468 0.05064377
000160 e5 cd 51 3e d7 48 34 bd 34 bf 4c 3e 3f 41 92 3c
       0.20488699 -0.044014778 0.19994813 0.017853377
000170 44 19 41 3d 85 9f 70 3b f4 44 0a 3d b6 72 a8 bd
       0.047143236 0.0036716175 0.033757165 -0.082250044
000180 cc 94 81 3e 99 7e f5 3d 00 74 9f 3d e8 1a 44 3e
       0.25308836 0.11987037 0.07785797 0.19150889
000190 7f f2 bc bd 45 d4 e1 bc da 9d 38 bd f1 76 d8 bd
       -0.0922594 -0.027567038 -0.045072414 -0.10569561
0001a0 e7 a9 74 3d 08 37 b2 bd 17 f7 77 be 93 75 ae bd
       0.059732344 -0.08701903 -0.24215351 -0.08518519
0001b0 30 36 31 3d 62 c6 95 bc 1b 0f 4a 3d 4c 8e 31 3d
       0.043264568 -0.018283073 0.049330812 0.043348595
0001c0 86 4f d5 bd b1 8b 0b 3e 05 bb ca 3d c0 b5 f0 3d
       -0.104155585 0.13627507 0.098989524 0.11753416
0001d0 e4 69 a4 3d 89 4f 01 3b 9f 2f a8 bd 64 38 64 3d
       0.080280095 0.0019731245 -0.08212208 0.05571784
0001e0 17 8e 9d bd 36 af 8b be 9f da a7 bd f8 7a cd bd
       -0.07693117 -0.27282113 -0.081959955 -0.1003322
0001f0 cf fc eb bd dd 0a fc bb 48 0a 6b 3e f5 ef d5 3d
       -0.11522829 -0.0076917247 0.2295314 0.10446159
000200 00 99 82 bd a8 b1 f8 3d 2e 15 b1 bc 39 e2 8b bd
       -0.06376839 0.1214326 -0.021616545 -0.06830258
000210 65 92 9d 3c 7c cf 9f 3d 1d 97 a3 3e 28 22 4e 3c
       0.019234845 0.078032464 0.31951228 0.012581386
000220 85 03 2a 3e 95 f9 34 be 62 e3 6a be e2 6f 1e be
       0.16602905 -0.17673333 -0.22938302 -0.15472367
000230 af 5e 04 3c 9a 6a 1f 3e f5 68 37 3d 52 24 cb bd
       0.008079215 0.15568009 0.04477783 -0.09919037
000240 47 fe 82 be a2 68 ce 3d b4 69 12 3d b3 93 a9 bd
       -0.25584623 0.10078551 0.035745338 -0.082801245
000250 47 2c 83 3d 79 f6 aa 3d aa 83 d6 3d 96 dd dd 3c
       0.064049296 0.08347792 0.10474332 0.0270832
000260 7d 17 2c be ae 94 7e 3d 70 45 b6 3d 37 a1 03 bc
       -0.16805835 0.06215351 0.08899963 -0.008034042
000270 cd c6 29 bd de 9e 04 3e 2a 80 a8 bd fb 43 40 bd
       -0.041449357 0.12951228 -0.0822757 -0.04693983
000280 20 0f 93 3d 2f 8d 99 bd a3 b5 4a bc cf df 70 be
       0.07180619 -0.07497632 -0.012372407 -0.23522876
000290 41 c2 b8 bd 45 58 41 bd 5d e2 e6 bd 64 01 dc bd
       -0.09021426 -0.04720332 -0.11273644 -0.10742453
0002a0 c2 78 8a be 4f 90 bf 3d 22 77 ab 3e 61 a2 3b 3e
       -0.27045256 0.093536966 0.3348933 0.18323661
0002b0 bf 36 35 3d 35 61 c7 bc 4b 56 38 3e 00 76 bd be
       0.044241663 -0.024338344 0.18001668 -0.3700409
0002c0 8a 5f e5 bd ff b0 8a bd d8 23 fc 3b 15 19 e4 3d
       -0.11199863 -0.067720406 0.0076947026 0.111375965
0002d0 6e 72 62 3e a3 42 45 bd 9f 12 17 be 84 a3 12 3e
       0.22113964 -0.048159253 -0.14753197 0.14320189
0002e0 dd 6e 29 be b9 14 b8 be 51 e2 8c 3d 68 55 07 3e
       -0.16546197 -0.3595331 0.06879104 0.13216174
0002f0 30 26 2a 3e 5c 5a c5 bd 47 7f bb bd 18 ac a4 3e
       0.1661613 -0.09636375 -0.091551356 0.32162547
000300 88 fe 00 be b6 08 94 b8 56 21 67 3e c8 8d 6a be
       -0.12597096 -7.0588125e-05 0.2257131 -0.22905648
000310 0b 7a c6 bc b8 5f c0 3e fd ee 7c bd e7 af 20 3e
       -0.024228116 0.37573028 -0.061751354 0.15692101
000320 37 8f 2c bd f4 cf 6a 3d 51 84 ec bc 75 36 bb bd
       -0.042128768 0.057327226 -0.028871687 -0.09141246
000330 56 66 f9 bd 0d df a4 3d fa 1d a2 3d 7c 8d 8b 3e
       -0.12177722 0.08050356 0.07915874 0.27256382
000340 af b3 e0 3d 93 17 7a bc 10 c7 db 3e be 71 04 3e
       0.10971772 -0.01526441 0.4292531 0.12934014
000350 ab 3f c3 bd 7a 5b 49 3e da 80 e6 3d 0c 26 2f 3d
       -0.09533628 0.19663802 0.11255045 0.042760894
000360 8a a0 a4 be 11 2a 42 3e 02 66 94 3e 49 b9 0d 3e
       -0.32153732 0.1896136 0.28984076 0.13840212
000370 21 0a e7 bd 60 3d 2f 3d a9 0a 24 3d 15 50 32 be
       -0.11281229 0.04278314 0.04004923 -0.17413361
000380 90 b1 05 3c c7 77 bf 3e 2f 55 71 bc 18 0f 20 be
       0.00816001 0.3739607 -0.014729782 -0.15630758
000390 87 e0 1e 3d af ee 29 bd 55 fa b9 bd 18 00 ca 3e
       0.038788345 -0.041487392 -0.0908095 0.39453197
0003a0 1c 40 4c 3e 39 87 13 3e b2 e4 30 be 30 03 05 3d
       0.19946331 0.14407052 -0.1727474 0.032473743
0003b0 e9 1a fe bd 32 a8 0a 3e 4f dd a8 bd 78 8f 35 3e
       -0.124074765 0.13540724 -0.08245336 0.1773051
0003c0 ab 19 44 bd ac ec 58 be 5b 98 9e bc fe 45 6d 3d
       -0.04787604 -0.21184033 -0.019359758 0.057928078
0003d0 fa 21 00 be e7 62 92 bd af 56 2c be 17 a4 98 3c
       -0.12512961 -0.071477704 -0.16829942 0.018632932
0003e0 6a 93 42 bd 5c 33 81 bd 48 83 54 3e 7f 74 30 be
       -0.047503866 -0.06308624 0.20753205 -0.1723194
0003f0 11 fe 39 3c 0f 7a ca 3e 10 28 2a 3d d2 ad 1a be
       0.011352078 0.39546248 0.041542113 -0.1510537
