Assets/Crossroads/Models/CrossroadLightsGridAgents.onnx (onnx, 479971 bytes, 15 tensors)

network_body.observation_encoder.processors.0.conv_layers.0.weight f4 [16, 9, 8, 8]
00000000: 4dfe fbba e56b 923b b472 58bd 327a 2ebe
00000010: 47d9 8c3d 274a 843d 7dbf 4e3d e2d3 ad3d
00000020: aeac 79be a53e 57bd f3eb 2abe da6a 4abe
00000030: 2d86 35bc fd08 a3bc 5084 313c a416 613e
00000040: fea4 0ebe cb80 3fbe 4852 babd 5193 a93c
00000050: 3810 203e d6d0 94bd 0c6e 5fbe 6ab3 e73c
00000060: a4ad 943c 9ee0 15be 04d5 3bbe 6740 033e
00000070: 5067 923e 1aae 45bd 6ef2 f6bc 1c66 a03b
00000080: 4974 cd3d cc1f dbbd bd53 91bd 78e8 d5bc
00000090: 0c10 243e a63d 20bd fb3e e8bd e25c 6dbe
000000a0: b340 1ebe c6c3 00be 0352 a9bc 81d0 11be
000000b0: c38b 623e 9e7a 10bd d81f e13c 853f 98bd
000000c0: a8c1 8fbe 4ffe 5fbe ffdc cebd a4d5 a03d
000000d0: 07d2 943e 29b3 323e 8036 ecbb 8415 2cbc
000000e0: 7136 3cbe d8ae 1fbd 5d83 6cbb 63c4 293d
000000f0: 77bb 9d3e c46f 123e 7b24 793b 82bc 343e
00000100: bcd2 b93d ead1 063d 65ed efbc 5b0e 43be
00000110: 9573 72bd dd35 0abe 08be 35be 9e19 1abe
00000120: 60f8 e53d d291 fc3b 23c3 b9bc 543e d2bc
00000130: c704 0bbe 33bc 163d cf3a be3d 894b 04bc
00000140: 6759 b03c 48ec 79bd d8ee 91bd ca7b 95bc
00000150: ecc6 cfba 9118 cb3d e345 473e 54ef 1c3d
00000160: e8ca b9bd a912 3d3c 9d79 dfbc 8832 eabd
00000170: 6383 673c 7a85 d2bc 535b 98be 60e0 7dbd
00000180: 7c56 02be 8c57 0ebe f4e3 adbd b9dd b4bd
00000190: 9f8d 0abe b373 e3bd 2913 54bd 1c04 91bd
000001a0: c240 46bc 2f18 eebd 855f 23be ea40 c6bd
000001b0: ae29 7ebc 4f18 60bd 83f0 6f3e dffb 5c3e
000001c0: 6112 393d 2ad5 f7bd 3f22 c03c 38f6 cb3c
000001d0: 8db1 183d e7cc a1bd e373 b9bd 8d69 c83d
000001e0: cb0c 603d 656f ef3d 71f6 c2ba c537 68bd
000001f0: f1df 35bd 9109 26be b87e 6abd ded9 be3c
00000200: bad2 073e 9055 073e a665 853d c44f af3d
00000210: 7480 04be 6c7a 01be 4a31 2b3c accc d9bd
00000220: d9d8 a63d df68 ddbc b3d7 e0bd cb5d 16be
00000230: 982a 453e e61d 153e d2cf a13d 3daa 473d
00000240: dbce 213e 4dac bc3c a1a9 95be 4b17 9cbe
00000250: e223 b63d edbb a73e 1c3c dc3d 4919 02be
00000260: 8a9b e03d 3725 e93d b8fb 3d3d fa87 88bd
00000270: ef62 3ebb 2e1a 503d 58f8 c73d 984f 1cbd
00000280: 54c6 993d 833a 8abd 6954 f7bd eaef 93be
00000290: 6152 82be c43d 3bbe 2840 223d f935 133d
000002a0: b94c c4bd 3d70 b5ba 3e5b 25bb 88b7 9abd
000002b0: 8c84 b7bd e118 26be e749 0b3c d629 203e
000002c0: 88b1 f83d cdc0 863e 893c 6d3e cf94 31bc
000002d0: d0da 18bc 34ce 96be 4695 50be 40f3 90bd
000002e0: 3c2b 733d 40c5 ec3d 2211 5c3e 48ae 013e
000002f0: ab5b 4bbe 3156 94be 173d 5cbe 28f5 c8bd
00000300: 9684 9bbe 20ac 893c bf5f d0ba c5e6 14be
00000310: 0a53 3e3d fd88 ae3d a5f3 123e a57e 3b3e
00000320: c64e bf3d 8fdd a2bd dc7f ffbd 1df5 26be
00000330: fab0 54bd bd42 213e 5d69 d93d 5f6b 663e
00000340: c703 d2bd b67b abbd 1fe3 063b f61b d8bd
00000350: 5017 fabc ad71 8a3d 8706 cb3d 3876 a83d
00000360: 5d4e 123d 9903 8c3d 1b52 3b3e 917d 2c3d
00000370: 6132 a73d ae8e f83d 5987 19bd 25ce ef3d
00000380: fb3c 8fbd cf07 80be 9b87 ccbd 31c4 5a3d
00000390: 3fc9 08bd aa23 36bd 152d b0bd 2b4d 14be
000003a0: 379e 2ebe 2e63 8cbe 62cc febc cf24 743d
000003b0: 4810 9b3d a8c0 fb39 ad70 f5bb 04ff 143e
000003c0: ec01 11bd 9230 193e 0355 733e d140 be3d
000003d0: 6a55 d83c 9363 bb3b aa3c df3c bb8c c5bd
000003e0: 82c0 ccbb b85c 4c3d ad2b 3c3e 89d2 0fbe
000003f0: b72b 7dbe 7923 96bd 7577 a2bc b329 653c
-0.0019225568 0.0044684284 -0.052843764 -0.17038801 0.0687738 0.06459456 0.050475586 0.08487679
-0.24382278 -0.052549977 -0.1669157 -0.19767323 -0.011079353 -0.019901747 0.010834768 0.21981293
-0.13930127 -0.18701474 -0.09097725 0.020700129 0.15631187 -0.07266395 -0.21819323 0.028283793
0.018149205 -0.14636466 -0.18342978 0.12817536 0.28594446 -0.04826174 -0.030144896 0.004894985
0.10031945 -0.10699424 -0.0709605 -0.026111826 0.16021746 -0.039121293 -0.113401376 -0.23179963
-0.15454368 -0.12574682 -0.020668989 -0.14239694 0.22123627 -0.035273187 0.027481005 -0.074339904
-0.28077435 -0.21874355 -0.101007454 0.07853249 0.29066488 0.17451157 -0.0072086453 -0.010503177
-0.18380143 -0.038985103 -0.003608904 0.041447055 0.30807087 0.14300448 0.0038016129 0.17650035
0.090733975 0.032915033 -0.029288003 -0.19048445 -0.05919226 -0.1349711 -0.17748272 -0.15048835
0.112290144 0.007707813 -0.022676056 -0.025664486 -0.13576041 0.036800575 0.092885606 -0.00807465
0.021527005 -0.06101635 -0.07125634 -0.018247504 -0.001585213 0.09916795 0.19460253 0.03831418
-0.090719044 0.011540093 -0.02727967 -0.11435419 0.014130446 -0.025698412 -0.29757175 -0.06198156
-0.12728304 -0.13900584 -0.08490744 -0.08831353 -0.13530587 -0.11106052 -0.051776085 -0.07080862
-0.0121004 -0.116257064 -0.15954407 -0.0968035 -0.015512867 -0.054710682 0.23431592 0.21580456
0.045183543 -0.12101205 0.02345383 0.02489768 0.0372787 -0.0790041 -0.09055307 0.09785757
0.0546997 0.11691169 -0.0014874471 -0.05669381 -0.04440302 -0.16214587 -0.057249755 0.023297247
0.1326398 0.13216233 0.065135285 0.08560136 -0.12939626 -0.12644356 0.010448763 -0.10634741
0.08146829 -0.027027545 -0.10978641 -0.14684217 0.1925453 0.14562187 0.07900967 0.048746336
0.15801565 0.023031378 -0.2923098 -0.3048652 0.08893563 0.32760563 0.107536525 -0.12704958
0.10967167 0.11384051 0.046382636 -0.066665605 -0.0029050668 0.050806217 0.09764165 -0.038161844
0.07508531 -0.067494415 -0.12076647 -0.28893977 -0.25453475 -0.1828528 0.039611965 0.035940144
-0.09584946 -0.0013842654 -0.0025231387 -0.07554537 -0.08960828 -0.16220428 0.008501506 0.15640959
0.121432364 0.2631897 0.23167624 -0.010838701 -0.009329513 -0.29454195 -0.20369443 -0.07077646
0.059367403 0.1156106 0.2149091 0.1266414 -0.19859187 -0.2897201 -0.21507679 -0.09812385
-0.30374593 0.016805708 -0.0015897675 -0.14541157 0.04646591 0.08522222 0.14350756 0.1831003
0.09341197 -0.07952415 -0.12475559 -0.16304441 -0.05192659 0.15748115 0.106157996 0.22501896
-0.10254627 -0.08373205 0.0020582152 -0.10552208 -0.030528694 0.06759963 0.09913354 0.082256734
0.035719264 0.06836624 0.1829304 0.042111937 0.08163906 0.12136589 -0.037482593 0.11709241
-0.06994053 -0.25005957 -0.09986802 0.05340976 -0.03339505 -0.044467606 -0.08602349 -0.14482562
-0.17052542 -0.27419418 -0.031103317 0.059605416 0.07571465 0.0004801799 -0.0074902386 0.14550406
-0.035402223 0.14959934 0.23762898 0.092897065 0.026407916 0.0057186573 0.027250607 -0.09645983
-0.0062485347 0.04989311 0.18376036 -0.14045157 -0.24723707 -0.073309846 -0.019832352 0.013986993

network_body.observation_encoder.processors.0.conv_layers.0.bias f4 [16]
00000000: f1c9 7bbe 6d6c 53be 520c 65bd d4d0 ac3b
00000010: 4417 b7bc 63e9 9dbd 00cb 84be 57b7 f9bc
00000020: 4dfd 20be 2a34 43bd 8e97 46bd 85dc a93d
00000030: 9810 92bd 48dd 733d ab1b 2abe f531 72be
-0.24588753 -0.2064683 -0.055919953 0.0052739177 -0.022349961 -0.077105306 -0.25936127 -0.030482931
-0.15721627 -0.04765717 -0.048484378 0.08294014 -0.07132071 0.059537202 -0.16612117 -0.2365187

network_body.observation_encoder.processors.0.conv_layers.2.weight f4 [32, 16, 4, 4]
00000000: 577a 1b3e b0e4 5d3e 6456 803e 2e7f 9d3d
00000010: 7418 ca3c aeac 4d3d 1388 b93e a1b8 bcbd
00000020: 15ba 4e3e d18c 003e 9241 c7bd 14db a5bd
00000030: 25bc 433e 348a 1a3e 74ae a33d 63be a43d
00000040: ffca 87bc 07b2 2abd 5b78 6a3e aa5c 883c
00000050: 2cff 10bd 6ba1 bd3d 0bc5 893e 95cd 983d
00000060: b869 453e a1ce 783d f409 913d 38c9 7d3e
00000070: 55a5 1dbd e80e d1bd 2bcf 493d 22f9 ba3d
00000080: 128d ac3d df22 323e fe66 f2bc 2c4f 9dbc
00000090: 0764 313d 8a37 173e 19fe c63e 2407 d73d
000000a0: ea61 30be d23a c7bd f57d 723e 2878 febd
000000b0: a8fb 2fbe fab5 05be 6024 9cbe be98 ebbe
000000c0: 6e5c c53c 535d b63c 5d46 0dbe 688b 17bd
000000d0: a8f1 583e 630f 883e 855f 69be cd37 553e
000000e0: cf32 43bd 9d79 a1bd fc6a ca3e 44bc e33d
000000f0: a16b e4bd 2184 53be 9abb d03a 6d06 1a3e
00000100: 85fa 43bc b61c e9bd a02c 80bb 7983 663d
00000110: de46 7cbd 659c 363d d923 7a3e f0ad 01bd
00000120: edff 87bd 740d 0b3d 26e3 913d 001b 6bbc
00000130: 97f1 d13d 49a0 4c3d fce7 b4bd 7683 edbd
00000140: fa2f bebd 6dd0 a53d a335 803d 59d4 613e
00000150: d83e 803d e8cb e33a 714a 813d 0795 f43d
00000160: 4940 173e 1ef8 e93c d29d 6abd 81fb b63c
00000170: 1e04 4ebb 732e 003e abcf 203d 5cb6 653e
00000180: 47b9 573e ae33 4b3d a1a8 48be 8409 e6bc
00000190: 2408 a23b 5b20 f3bd 4e1c ce3e 9c29 4d3e
000001a0: d12e ca3c 1637 263d 356b 3abe 9614 723e
000001b0: 1b0d b8bd 197b d6bd 7f01 993c 1b03 c8bd
000001c0: 42d9 d93d d2c0 cbba 1a41 87be 6cd8 69be
000001d0: e578 6cbd c8d5 51bd 66b5 9c3e c04d 823e
000001e0: dcef c7bd 4642 ca3d d2d8 02bd 296d 093e
000001f0: a51c 6fbe 0c72 183c 367b 7ebe e8ca 1e3e
00000200: b8a1 213e 076e 1c3d 62ed 573c 4ced 9abd
00000210: 6511 3abd 0875 533e f3a5 0c3e d995 0a3e
00000220: ad12 1e3e da74 b4be d396 b13e aea8 103c
00000230: d3de 81bd 37b9 143b 02a8 91bc cc32 4c3d
00000240: f361 123d b937 ab3d 5287 903c 1f0a 203d
00000250: 09c4 eabc a2c2 01be 08e9 39be e1b0 5a3e
00000260: 0c45 84bd 9777 a53e 2e47 50be b4a3 973d
00000270: 692d a33d a580 0c3e 4c7e 0c3e 9af6 8fbe
00000280: 647d 19bd 03dd f23d 99c5 4c3e 81f3 4d3e
00000290: f396 39be 2d56 88be 1808 9e3e 7eda 4ebd
000002a0: 2ea8 b8bd 39b5 02be dc7f 953e e398 843d
000002b0: 9d9d 813d 4b98 a4bb fde8 0a3e 04b5 adbd
000002c0: b1ba 923e ecb6 23bd d145 ebbe 84a6 b6be
000002d0: 5a3e cbbc fa9c 84be 7f90 473e 6d4b 4bbd
000002e0: d3ff 04be 032b fcbc 9c33 ddbb 3203 4abe
000002f0: 3a76 8e3d 2cc3 863d 02e5 cd3d 9af9 373e
00000300: 25a0 babd 0c26 a6bd 80a8 85bd fa98 f73b
00000310: 79b1 3f3d caf7 89bd b898 61be 6dce 373e
00000320: 79ea 1fbe 7fec 9239 da49 7abd 5967 1c3e
00000330: 9f98 c23d 6047 edbd 94c3 0bbe 7ed2 093e
00000340: d491 333e 2bed 2d3e 88ba 373e f28d 303d
00000350: c74e 163e 5ae0 df3c a106 413e 45ec 5ebc
00000360: 61f3 c2bd a1ba 24be fdfe 913e 4149 593e
00000370: 8b16 05be 66e2 d5bd 4a9b a2be 4a49 37be
00000380: 5d28 c4bb 2ff7 e93c 1a4b 823d 4d70 8bbd
00000390: 356c 8a3e 845b fabd f084 803a 8352 bc3d
000003a0: 32db cabb 207e 11bd b862 b1bd d5a2 c63d
000003b0: 7b08 4a3d a7ed 21be e8af a63d ec9d 5a3e
000003c0: b815 34be cdcb f83d e112 843d 9eea 903d
000003d0: cc98 0dbe 9ffe de3d 3931 a93d 856c d63c
000003e0: cc56 073e 67ae 90bc 4d1f 41bd ddf0 b23e
000003f0: a501 0bbe 5a90 b03c 89f0 21be 7999 8cbe
0.15183388 0.21669269 0.2506591 0.07690273 0.024669863 0.05021351 0.3623663 -0.09214903
0.20188172 0.12553717 -0.097293034 -0.080984265 0.1911474 0.15091783 0.07992259 0.08044126
-0.016576288 -0.041673686 0.22897474 0.016645748 -0.0353996 0.09259304 0.26908144 0.07461087
0.1927861 0.06074393 0.070819765 0.2478379 -0.03848775 -0.10207921 0.049269836 0.091295496
0.084253445 0.17396115 -0.029590126 -0.019202791 0.043308284 0.1476728 0.38865736 0.10499409
-0.17224851 -0.09728016 0.23680861 -0.12425262 -0.17185843 -0.130577 -0.30496502 -0.4601497
0.024091925 0.022261297 -0.13796373 -0.036998183 0.21185935 0.2657424 -0.22790344 0.20822068
-0.047655877 -0.07884524 0.39534748 0.11119893 -0.11153341 -0.20655872 0.001592505 0.15041514
-0.011961584 -0.11382429 -0.0039115697 0.056277726 -0.06159102 0.044582743 0.24427737 -0.03166002
-0.06640611 0.033948377 0.07123403 -0.014349699 0.10251158 0.049957547 -0.0883331 -0.1159734
-0.092864946 0.08096395 0.062602304 0.2205366 0.062619865 0.0017379494 0.06313027 0.11942487
0.14770617 0.028560694 -0.057279415 0.022336723 -0.003143556 0.12517719 0.039260548 0.22432846
0.21066771 0.049609832 -0.19595577 -0.02808071 0.004944818 -0.11871406 0.4025597 0.20035404
0.024680527 0.040579878 -0.18204959 0.23640665 -0.08986875 -0.10472698 0.018677471 -0.09766217
0.10637142 -0.0015545136 -0.26416856 -0.22836465 -0.05773248 -0.05122927 0.30607146 0.25449944
-0.097625464 0.09875922 -0.031945057 0.13420548 -0.23350771 0.009304535 -0.24851689 0.1550709
0.15784347 0.038190868 0.013179155 -0.07564792 -0.045426745 0.20650113 0.1373518 0.13533725
0.15436812 -0.352454 0.34685382 0.008829279 -0.063413285 0.0022693404 -0.017780308 0.04985313
0.035737943 0.08360238 0.01764265 0.039072152 -0.02865793 -0.12671903 -0.181553 0.21356536
-0.06458482 0.32317802 -0.20339653 0.07404271 0.07967646 0.13720949 0.13720053 -0.2811783
-0.037473097 0.11858561 0.19997253 0.2011242 -0.18123989 -0.26628247 0.3086555 -0.05050134
-0.09016453 -0.12764443 0.2919911 0.06474473 0.063288905 -0.0050230375 0.1356544 -0.084817916
0.2865806 -0.03996937 -0.45951703 -0.35673916 -0.024810005 -0.25901014 0.19488715 -0.04963248
-0.12988214 -0.030782228 -0.006750537 -0.19727781 0.06956144 0.06580195 0.100534454 0.17966309
-0.091125764 -0.081127256 -0.065262794 0.007556078 0.04680011 -0.06736715 -0.22030914 0.17949839
-0.15616788 0.00028023493 -0.061105587 0.15273799 0.095017664 -0.11585879 -0.13648826 0.13459203
0.17536098 0.16985004 0.1794225 0.04310412 0.14678489 0.027328659 0.18850185 -0.013606136
-0.09519077 -0.16086818 0.28514853 0.2121935 -0.1299688 -0.10443573 -0.317591 -0.17899051
-0.005986257 0.02856025 0.06361981 -0.06808529 0.2703568 -0.122244865 0.0009805243 0.09195425
-0.006190681 -0.035520673 -0.08661407 0.096990265 0.049324494 -0.15813313 0.0813902 0.21349305
-0.1758641 0.12148247 0.06448913 0.07076 -0.13827819 0.10888409 0.082613416 0.026174793
0.13216704 -0.017661287 -0.04714899 0.3494939 -0.13574846 0.021553207 -0.15814413 -0.2746084

network_body.observation_encoder.processors.0.conv_layers.2.bias f4 [32]
00000000: 82db 2abb 905d 153d 5be9 db3d 882b 82bb
00000010: 4d0a 813c 8e42 a83b 3984 6e3d b91d 263b
00000020: 9666 183d 80fa e73d 0e37 e83d e0a0 2e3e
00000030: 0236 ad3d daf4 883d 760d e23d b00f 0bbe
00000040: 09c3 c9bb dd7e 953d 16cc 06bd 78fb a23d
00000050: 9ed5 f93c c310 5f3d 9c29 b0bc e920 113d
00000060: 99bb 09be 5c7c 1fbe 454a f83d 25de 57bd
00000070: ecd8 68bc a213 c83d 3b90 673d cdd2 303d
-0.0026070778 0.03646618 0.107378684 -0.0039724745 0.015751982 0.005134887 0.058231566 0.0025347306
0.03720721 0.11327076 0.11338626 0.17053556 0.08457567 0.06687327 0.11037724 -0.13580203
-0.006157283 0.07299588 -0.032909475 0.0795812 0.030497368 0.054459345 -0.021504216 0.035431776
-0.13450469 -0.15574783 0.12123541 -0.052702088 -0.014211874 0.0976937 0.056534033 0.043169785

network_body.observation_encoder.processors.0.dense.0.weight f4 [128, 32]
00000000: d913 1fbc 1820 04bf cdd8 b4be c391 313f
00000010: 83db b8bd bb40 b2be a0e0 f0be 908f 853e
00000020: 568a c63d d5ee 323e 2577 cb3e 72ba 7dbe
00000030: 4c93 7dbe 6645 92be a19a e0bd 771a 8cbe
00000040: c87e 2cbf 7627 a1be df09 653e 403f 7fbe
00000050: d97e ef3c ebb0 5c3e 9d11 d4bd 442a 883d
00000060: f329 a5be 9431 0a3d c0b7 07be da00 3d3e
00000070: c852 963d 7b9c 0d3f 579c 1bbd 97fa 9b3b
00000080: 94d9 c5be e80d 713e b1c0 613e d234 c6bd
00000090: 9c62 58be e6cb cbbd 63a9 f33e 5df0 ddbd
000000a0: 6f27 5c3d eb22 093f 1562 603e 8e57 553e
000000b0: 3430 a43e 3620 ad3e 5819 fcbc 46f5 51bf
000000c0: 27c1 a63e 0ccf 31be 32c6 0fbd c5cd 3c3e
000000d0: 341d a63e 44b5 b6be f0e8 df3d 0091 bb3b
000000e0: 8a6c b5bd c97f 9b3d 6003 dcbd c912 c4be
000000f0: c136 963e fa3d 4cbf b4e6 843e 6d2b 9d3e
00000100: a8eb a03e 79b1 dabd a82f 90be 3e88 e2be
00000110: 3cf4 c63e 5720 aa3d f9ce 60bd a93d 063f
00000120: 80da 12be 5944 c9be 3b2a a7be 6979 e2bd
00000130: fb55 d43e 36cd a4be a39b 3b3e 7d04 05bd
00000140: cdfb 6fbd 2be5 83be c4e4 2bbe 9e4d 27be
00000150: 300b 00bf 27c4 083f 1a84 e63e 9865 313f
00000160: 5656 99bc 04b4 e63e 1c06 a2bd bc36 f63d
00000170: b25f 76bd 3da0 b43e 837a 013f 59aa 20be
00000180: c974 913c cc3f 26be 52ac e73d 873e 7b3d
00000190: 545c a5be 3c8f 273e 05e6 20be 64ed f1be
000001a0: 2909 893d ab63 1bbf 4226 cfbe 76ae aebe
000001b0: b67d ec3e 709c 9a3e 8bef 6e3e df95 083e
000001c0: c7fd 03bc eefc 383e 1dd6 963e 00da c3be
000001d0: 4e95 f0be 81b2 6d3d c6bd a83d c434 4e3e
000001e0: f777 78be 8760 be3e c4ea b2be f928 d7bb
000001f0: 6bb5 b73d d438 b0be ed45 5c3e bf14 2fbf
00000200: a342 12be 9da6 ae3c 3ab5 48bc 7007 abbd
00000210: bf6e 11bd 8276 a13e 647b 2cbe aa0a 443e
00000220: ba4e d8bd 8e87 8f3e de36 423e 8f42 92be
00000230: 08c4 75be df52 fabe 4d7d edbd 535b a03e
00000240: cf13 073d fbd9 f33e bbdd 09bd 5520 8e3d
00000250: 88e2 6ebd 9c3d b03e fc73 173e 4608 9c3e
00000260: b05e 963e e490 8abe 2e32 2d3d 2c50 18be
00000270: 9a33 3fbe c543 2c3e 1c69 5a3e 6eb8 3e3e
00000280: ed70 34be 5e19 b43e 8bb2 01bd 2834 efbe
00000290: 9ccd abbd a3a4 1c3f fb88 16be b09a 013f
000002a0: 4b59 de3e 357b c3be f096 703e a57c b63e
000002b0: dd86 da3d 84ad b83d c370 5b3f 4146 0d3f
000002c0: c007 883c 5b75 a6be 3b56 8abe 45af 0fbe
000002d0: 5fc8 41be bf17 403e 26c7 ff3c 89be 8dbe
000002e0: e9fd 7d3e da29 7b3e cdaf 233d f9a3 21bf
000002f0: a5a5 6dbe 656d b23e 2cc5 01bd 6214 24be
00000300: caf7 b03d 9f1c 4f3f 4c2e fabc af45 d4bd
00000310: 6669 9e3e 317c 71bd 9e4c c9bd acd0 083f
00000320: e71c 033e 10f7 923d 42d7 2b3e 2457 fabd
00000330: e98f b63e 3941 143e 0d93 133f 2d20 453e
00000340: 62b9 de3e 89ab 2fbe be57 283d ac29 bfbe
00000350: 3681 23bd 9bda 8e3d 1fcc dd3e 7fcf 5d3f
00000360: 8fa1 be3e b67f 00bf d318 0bbf 2fd5 11bf
00000370: 7a5f a4be 39e5 f33d 3731 ec3e 133e 503e
00000380: 0062 00be 0e99 fb3e bd55 bd3e dda8 6a3d
00000390: c036 fb3e c1f7 063f 40b4 db3c abcb a23e
000003a0: ee2d 3bbe 49d9 90be bf17 043e 69cc f1bd
000003b0: c414 583e d84f 01bf 90d7 e53e 6588 883e
000003c0: b4d4 1f3e 8554 0cbd 867b 293d 989f edbe
000003d0: 5a38 04bd e526 c5bd ddfc 823e 7604 d7bd
000003e0: 657e 7c3e 4523 303e 3048 9d3e 73fd 013e
000003f0: 27db bfbe 8e17 65be c1e0 2f3e 82e8 9fbe
-0.009709322 -0.5161147 -0.35321656 0.6936304 -0.090262435 -0.3481501 -0.47046375 0.26086092
0.09694354 0.1747392 0.39739338 -0.24778154 -0.2476322 -0.28568572 -0.10966993 -0.2736394
-0.6738095 -0.3147542 0.22367047 -0.24926472 0.02923529 0.21551864 -0.10354922 0.066486865
-0.32258567 0.033738688 -0.13253689 0.18457356 0.07340008 0.55316895 -0.037990894 0.0047600972
-0.3864256 0.23540461 0.22046162 -0.096780434 -0.21131366 -0.09951 0.4759017 -0.10836861
0.053748544 0.53568906 0.21912415 0.2083418 0.32068026 0.33813637 -0.030773804 -0.8201488
0.3256924 -0.17364138 -0.035101123 0.1843787 0.32444155 -0.3568517 0.10933101 0.0057240725
-0.08858593 0.075927325 -0.10742831 -0.38295582 0.2933865 -0.7978207 0.25957263 0.30697194
0.3142979 -0.106783815 -0.2816136 -0.4424457 0.3885821 0.083069496 -0.054884885 0.52437836
-0.14341164 -0.39309958 -0.32649407 -0.110583134 0.41471848 -0.32187814 0.1832109 -0.032474983
-0.058589745 -0.2576078 -0.16786486 -0.16338202 -0.5001707 0.53424305 0.4502266 0.69295645
-0.018717926 0.45059216 -0.079113215 0.120221585 -0.060149856 0.35278502 0.50577563 -0.15689982
0.017755883 -0.16235274 0.11312164 0.061338928 -0.32297003 0.16363233 -0.15712745 -0.47251427
0.066912 -0.60698956 -0.40458876 -0.34117478 0.4618966 0.30197477 0.23333566 0.13338421
-0.008056111 0.18065235 0.2946023 -0.38252258 -0.4698891 0.058031563 0.082393214 0.20137316
-0.24264513 0.3718302 -0.34944737 -0.0065661636 0.089701496 -0.34418356 0.2151105 -0.6839103
-0.14283232 0.021319682 -0.012250239 -0.08351028 -0.035506006 0.31535727 -0.16843945 0.19144693
-0.10561891 0.28033108 0.18966243 -0.28566405 -0.24000561 -0.4889135 -0.11596165 0.31319675
0.032977875 0.47627243 -0.033658724 0.069397606 -0.058321506 0.34422004 0.14790338 0.30475062
0.29369116 -0.27063668 0.042284183 -0.14874333 -0.18672028 0.16822727 0.21329159 0.18625042
-0.17621203 0.35175604 -0.031664412 -0.4671948 -0.08388826 0.61188716 -0.14700691 0.5062666
0.434275 -0.38179937 0.23495078 0.3564197 0.106702544 0.090174705 0.85718936 0.55185324
0.016605258 -0.3251141 -0.27018914 -0.14031704 -0.18924092 0.18759058 0.031222891 -0.2768443
0.2480389 0.24527684 0.03996258 -0.6314083 -0.2320772 0.34849086 -0.03168218 -0.160234
0.08641012 0.8090305 -0.030539654 -0.103648536 0.30939788 -0.05895633 -0.09829067 0.5344341
0.12803994 0.0717603 0.16781333 -0.12223652 0.3565667 0.14478005 0.57646257 0.19250555
0.4350081 -0.17155279 0.041099302 -0.3733648 -0.039918147 0.069752894 0.43319795 0.8664474
0.37232634 -0.5019487 -0.54334754 -0.5696592 -0.32104093 0.11908955 0.46131298 0.2033618
-0.12537384 0.4914021 0.36979476 0.057289947 0.49065208 0.5272179 0.026819348 0.3179601
-0.1827924 -0.28290775 0.12899683 -0.11806566 0.21101671 -0.50512457 0.44891024 0.2666656
0.15608484 -0.03426029 0.041377567 -0.46410823 -0.032280304 -0.09626559 0.25583544 -0.10498898
0.2465759 0.17200954 0.30719137 0.1269434 -0.37471887 -0.22372267 0.1717558 -0.31232077

network_body.observation_encoder.processors.0.dense.0.bias f4 [128]
00000000: d8f4 483c b2ef ac3e 3896 e6bd e7c6 08be
00000010: 18b8 ad3b 1642 89bd 1784 d4bd c982 6a3c
00000020: bd09 973d c423 683d fb09 94bc 8b50 fb3d
00000030: 8452 883d 8d50 423e 0e7d 05be 02d1 fcbd
00000040: ba9e e13c d6a6 783e 8ed0 193d 8b2a b53d
00000050: 8814 ddbd c1d0 3b3c cbcf 41bd e4a2 7dbe
00000060: d129 803d 9b13 22be 6b7b 483e c06a 4f3e
00000070: 8104 5f3d 3c3b a53c 35bb 273c 879a 803e
00000080: 76af 0fbd 6808 013e 0886 b93c 7c3b 09be
00000090: e615 34be a075 da3c 4be0 503d 3e3b 8dbd
000000a0: 96bd ec3d 37bc 543c 479b a13d e0d0 32be
000000b0: e90e 91bd 0731 3bbe cf17 24be 9eb3 353e
000000c0: 9fb2 eabd 7c0a 3c3e 1151 5b3e 3ab7 cebd
000000d0: c885 14bd 1840 a93b 127f 103d e576 68bd
000000e0: 2425 21bd ad39 1b3e aa67 65be ca42 9bbd
000000f0: d492 84bc bcb2 adbd 8ecd 57bd b3ff 893d
00000100: b113 813c 57fe 3c3c d18b 253d 1a7c 2bbe
00000110: 8bce aebd 7c46 b23d a193 e7b9 3488 05bd
00000120: b1cb b23d afe8 b03d a031 b7bd 7b37 f4bc
00000130: f092 3ebc 29b1 6b3d 4129 1abe 3e94 3a3e
00000140: 52e8 cc3d 816f eaba 95e3 0f3c e4c0 bdbd
00000150: d3e4 9cbc 4dec 843b a34a 203d b114 733d
00000160: 21fd 893e 7e61 8f3d 752b 193e b15e 093e
00000170: 5cad 93be 3cec 04be 8264 853d 1332 5b3d
00000180: 703a bf3b 2009 c8ba 0996 b63d 1c29 e0bd
00000190: 1975 063e bed5 4d3e 1fce a23d 9cd3 30bd
000001a0: 158c b33c 8bb1 5a3e c7dd b8bb 3d0b 1abc
000001b0: fc51 bf3c 534e 883d 3c20 ef3d 4228 1fbe
000001c0: 64a4 18bc 6835 9b3d 24f1 853d 7ede 403e
000001d0: 32f1 67bd 172f 0ebe 89c8 133d 1e74 513e
000001e0: 6db9 123d 370e 9c3b 51e1 253d 9b5c 243e
000001f0: acd8 843e c378 a73d 3f35 87bc d01f 18be
0.012265407 0.33776623 -0.11259121 -0.13357125 0.0053014867 -0.06702058 -0.10376757 0.014313408
0.07374904 0.056674734 -0.018071165 0.12271222 0.066563636 0.1897604 -0.13035986 -0.123445526
0.027541507 0.24282393 0.03755241 0.08846005 -0.10794932 0.011463345 -0.047317307 -0.24769169
0.06257976 -0.15827791 0.1957833 0.20255566 0.054447655 0.020169847 0.010237505 0.25117895
-0.035079442 0.12600863 0.022646919 -0.13401598 -0.17586479 0.026667416 0.050995152 -0.06896065
0.11559598 0.012984327 0.07890945 -0.17462492 -0.07082922 -0.18280421 -0.16024707 0.177443
-0.114598505 0.18363374 0.21417643 -0.100935414 -0.036260396 0.0051651113 0.035277434 -0.05675401
-0.03934206 0.1515872 -0.22402826 -0.075810984 -0.016183294 -0.084813565 -0.052686267 0.06738224
0.01575646 0.011535249 0.040416542 -0.1674656 -0.08535489 0.0870485 -0.00044169746 -0.032600597
0.08730257 0.08638131 -0.08945012 -0.029811611 -0.011631712 0.057542 -0.150548 0.18220612
0.10005249 -0.0017886014 0.008782287 -0.092653066 -0.01915208 0.0040564896 0.03913368 0.059345905
0.26950935 0.07001017 0.14957984 0.13415028 -0.288432 -0.12980741 0.06513311 0.05351455
0.0058358237 -0.0015261509 0.08915336 -0.10945341 0.13130607 0.20101067 0.07949471 -0.043170556
0.021917382 0.2135679 -0.0056416723 -0.0094020935 0.023354523 0.06655564 0.1167607 -0.15542701
-0.0093165375 0.07578546 0.065401345 0.18834874 -0.056626506 -0.13885151 0.036079917 0.20454451
0.035821367 0.0047624367 0.04049808 0.16050951 0.25946558 0.0817733 -0.016504882 -0.14855886

network_body._body_endoder.seq_layers.0.weight f4 [128, 239]
00000000: d1b5 8dbd 80d3 86be 92a7 a23d aa1f a93d
00000010: 6f95 eebd 93fd ca3e 4e2a 193e 5088 0f3e
00000020: a112 a73e 8a78 c93b f38b 163e 6616 f2bd
00000030: 4829 603e 8b01 bdbc 9d81 ea3d d896 4b3e
00000040: d093 963e 2590 1dbe b613 a63e 5676 5a3d
00000050: 368a 4d3b 5e0b 653d 8219 fd3d debd 41be
00000060: 2373 25be d154 8c3e 73e0 6bbd 818a 093e
00000070: 97ad 5d3d 3575 0a3e fe97 c33e 1ff6 263e
00000080: 5ad6 6ebd fe92 9b3e 2183 953e 9517 f4bd
00000090: a892 14bb c7f6 a03e 052b ba3d e3c2 5e3e
000000a0: 838e a5bd 4402 9b3d 722b 213e cb7f 9c3e
000000b0: 6c37 1e3c baf1 9f3e 5e33 ca3d 7521 013e
000000c0: 70f9 333d d459 d63d 0341 7bbd 88b3 a03e
000000d0: d4db 4a3e 0bde 2c3e a0e8 323e f22d c93e
000000e0: ef77 c53e ef48 cd3d 7325 823e 8fb3 04be
000000f0: a079 9abe 91a6 143d b884 d93d 754d 07be
00000100: 26b6 883b b7ca e43c 70f7 793c 9aa9 523e
00000110: b0b0 223e adac 4ebe d1dc 75bd 34d0 6b3e
00000120: 9070 533e 7c89 0a3d 9ebd 523e a888 39be
00000130: 264a acbc f987 80be 1a99 b83e edd4 2d3e
00000140: cfc9 08bd ed38 463c 39ac 5f3b 0996 ac3e
00000150: 5ce2 be3d 1411 253e a771 203d ad8e 0a3e
00000160: 3022 c33d d84a 8abd b5a5 143e c6e3 3d3c
00000170: 31f3 603d d9d9 a43e f7d2 933d 70f9 973e
00000180: 01ee 233e 4dbc 213e 3c53 21bd 554b 3b3e
00000190: 7bfb 22be 50e1 293e 1e89 f73d a21c 11bd
000001a0: 62ed 7d3d fc59 7cbd 8bea 843d f4f1 393e
000001b0: f0e0 773e 76c7 44be dcc9 afbc 743c f63c
000001c0: 1015 d03e 94ca 22be a9c9 603e 8a83 f4bd
000001d0: 9cbf bebe eb24 583e 50e0 6bbe 12ca 57bc
000001e0: 75dc a1be 37b4 c13e 989c b0bd 2ba7 2f3e
000001f0: f792 843e f2f6 983d 3b33 853d 1566 15be
00000200: 14ca 0bbe bc57 d93e 1df5 7ebe 1958 56be
00000210: c334 083e ec97 87bd 4357 2b3d 6b3d cc3d
00000220: 081a 2e3e 5378 8e3e 06bd 8fbe 2c62 153e
00000230: 9fec 3ebe d971 173e f482 46bd 2acb 6f3e
00000240: 24fe f93d 51ed dfbd ab39 33bd 009f 44be
00000250: 6974 073d 5220 313e e40d 0cbd f347 073e
00000260: fc6a 42be 2d67 c7bb d126 b13d 71a4 9d3e
00000270: b545 963c ef1c a73d fb9d b03e c74a 893d
00000280: 10d0 cdbd db39 d03d 1393 043e 6001 493e
00000290: 5b0b 003f 35c4 4dbe 500c d0bc 9aa0 c83c
000002a0: 8e6f 37be 1929 3f3e e7dd 623e 300c 963e
000002b0: e185 fbbd 904c e5bc 77b6 f93d 2c9f 02be
000002c0: f29b 393e 280b 6c3d bdc3 843e 3f24 d2bd
000002d0: 7130 fb3d 4552 cc3d c25d e7bd 5189 333e
000002e0: 8c5e a6bd 3136 a2bd a442 00bd d25c 58bd
000002f0: 3274 afbe f9eb a93c 9547 803e 52e1 9dbd
00000300: 8aae 9e3d 00f1 453e f0c6 853e fe19 1fbe
00000310: a1be e83e ecf3 153e 11ff 44bd 9fd1 633e
00000320: 4c27 2e3c 891a 9cbe 9b18 373e 8a5b 8cbd
00000330: 9da3 4c3d dba3 11be 55d9 103e cd64 793c
00000340: 191a a8be 5b83 8c3e 1eb6 4fbd 171b 613e
00000350: 513c c4bd a7b5 733e e492 083e 33f4 31bd
00000360: cb91 5e3e f543 243e 43e0 5c3e 5695 0a3e
00000370: cd6d 0bbe 9040 aa3c 71fc aebe 0d65 7cbe
00000380: 41d9 ae3e d476 8f3e 90f0 fd3d e1cd c73e
00000390: a267 593e 9fd4 923c 15d0 aabd 6db3 073e
000003a0: ed79 463e 494e 25bd e6bc 0a3f f0ce c63d
000003b0: 9fee 783e 583b a7bc a018 cd3e a686 cf3d
000003c0: 084e 0cbd 1be4 24be fd7d a0be 4570 e4bb
000003d0: a8b4 28bd ef0e 11be 04a6 05bc 1065 28be
000003e0: 4887 91bd a24f 1dbd 6372 673d 92aa cabd
000003f0: ba5c 1cbc 6381 27be a15c 5abe 86ee debd
-0.06919444 -0.26333237 0.07942118 0.082579926 -0.11649596 0.39646587 0.14957544 0.14016843
0.326314 0.0061484026 0.14701824 -0.118206784 0.21890748 -0.023072025 0.11450503 0.19881761
0.29409647 -0.15387018 0.32436913 0.05333551 0.0031362898 0.055919044 0.12358381 -0.18920085
-0.16157202 0.2740846 -0.0575871 0.13431741 0.054120626 0.13521273 0.38201898 0.16304825
-0.05830989 0.30385584 0.29201606 -0.119185604 -0.0022670422 0.31438276 0.090902366 0.21754031
-0.080838226 0.075687915 0.1573923 0.30566248 0.009656768 0.3123911 0.09873079 0.12610419
0.043939054 0.10466352 -0.061341297 0.3138697 0.1981042 0.16881578 0.17471552 0.39292866
0.38568065 0.100236766 0.25419196 -0.12959121 -0.30170918 0.036291663 0.10621017 -0.13213141
0.0041721044 0.027928693 0.015256748 0.2057251 0.15887713 -0.20183058 -0.06002504 0.23028642
0.20648408 0.03382252 0.20580146 -0.18118536 -0.02103145 -0.2510374 0.36054307 0.16975756
-0.033395585 0.012098533 0.0034129752 0.33708218 0.093205184 0.16119796 0.039170887 0.13530989
0.09528005 -0.067525566 0.14516337 0.01158995 0.054919425 0.32197455 0.07217973 0.29682493
0.1600876 0.15794487 -0.03938602 0.18290456 -0.15916245 0.16589856 0.120867 -0.035427697
0.061993964 -0.061609253 0.06490048 0.18158704 0.242069 -0.19216713 -0.021458559 0.030058123
0.4064107 -0.1589759 0.21951927 -0.119391516 -0.3725556 0.21107833 -0.23034787 -0.013170736
-0.31613508 0.37832806 -0.08623618 0.17153613 0.25893375 0.07468976 0.06503912 -0.14589722
-0.13651305 0.4244975 -0.24898191 -0.20932044 0.13301377 -0.06620774 0.041831266 0.09972652
0.17002118 0.27826175 -0.280739 0.14588231 -0.18644951 0.14789523 -0.04846473 0.23417345
0.122066766 -0.109339364 -0.04375617 -0.19201279 0.03307 0.17297485 -0.034192935 0.1321104
-0.18986124 -0.0060852976 0.08649982 0.3078952 0.018343786 0.081598155 0.3449553 0.06703716
-0.100494504 0.10167285 0.1294673 0.19629431 0.5001733 -0.20094378 -0.025396496 0.024490643
-0.17913648 0.18668021 0.22154962 0.29306173 -0.12281395 -0.02799061 0.121930055 -0.12756032
0.18125895 0.057627827 0.25930586 -0.1026082 0.12265099 0.09976629 -0.1129718 0.17532851
-0.08123502 -0.079204924 -0.031313553 -0.052822895 -0.34268337 0.020742403 0.25054613 -0.07708992
0.077481344 0.19330215 0.2612834 -0.15537259 0.45457938 0.1464383 -0.048094813 0.22247933
0.010629486 -0.30488995 0.1788048 -0.06853397 0.04996072 -0.14222662 0.14145406 0.015221787
-0.3283241 0.27443966 -0.05071079 0.2198299 -0.09581817 0.23799764 0.13337284 -0.043445777
0.21735303 0.16041549 0.21569924 0.1353353 -0.13616104 0.020782739 -0.34176973 -0.24647923
0.34150127 0.28020346 0.12399399 0.3902426 0.21230939 0.017923651 -0.0834047 0.13252039
0.19382448 -0.04035786 0.54194486 0.09707439 0.24309777 -0.02041404 0.4005785 0.10133104
-0.034254104 -0.1610264 -0.3134612 -0.0069713914 -0.041187912 -0.14165853 -0.008157257 -0.16444802
-0.07105881 -0.038406022 0.056505572 -0.09895815 -0.009543592 -0.16357951 -0.21324398 -0.108853385

network_body._body_endoder.seq_layers.0.bias f4 [128]
00000000: b66f 353e 1a5f 9bbe 0c3c 493c 04b3 b6bc
00000010: 8143 0dbd cff5 4bbe c764 30bd 6ff9 9cbd
00000020: 9618 ddbd a3f5 3fbe fcea 24bd e569 e5bd
00000030: 5cfe 9abd d92c 22be f0d7 3abe ec45 e9bd
00000040: 94a4 063e 7488 13bd 926e 763e 3b26 16be
00000050: d741 47ba 5b91 393e 1ecd 113e b431 30be
00000060: 49d0 03be d41b b2bc 10a7 45bc f4f5 5dbd
00000070: a339 683c 37a9 0cbe dcc4 e3bd 3c90 18be
00000080: 8660 503e 9439 30bd 5bad 23be fa96 963e
00000090: ff38 00be 3fc9 4c3d d9f3 5ebd e471 3bbe
000000a0: 8be9 c7bd bfde bdbe bc58 0c3e 1a13 7ebd
000000b0: ca5d a9bd 9cb7 803d 4a1e 35bc e7fe ecbc
000000c0: 4ca4 bb3d d906 1dbe c651 3ebe 0dcc 86be
000000d0: e599 36be 67a8 60bd 2f52 12be 6c19 75bd
000000e0: df39 d73c a2bd 33be 82a0 9cbd f7ac 09be
000000f0: 9479 14be bb76 45be a9a6 40bd 7ac4 963e
00000100: 5e8a 5ebe 5713 8e3d 9059 f3bd f9a2 b6bd
00000110: 857a 3f3d 5bcc d3bd d39f 3fbe 5ef5 0ebd
00000120: 3006 08be 7c56 173e 01f2 113c f3b5 6abe
00000130: f52d 0cbd 35d5 b3bd 406a 1abe f898 11bd
00000140: f03a e8bd 0ae2 453e f4d8 50be 09fe 04be
00000150: fff3 f03d ed81 783c 1516 febd f89a 6fbe
00000160: d16a 2d3e 29b4 9fbd e926 e13b 36a4 c5bd
00000170: b1e1 383e eace a43d 3d25 5cbe 4933 87be
00000180: c208 e0bd 0179 673e 5f6d 4bbe 21fc 5e3d
00000190: 5b59 8e3d 6feb 46be b5d6 90be 6058 3bbe
000001a0: 2943 48bc d207 88be 64d3 a7bc b2d5 2dbe
000001b0: 6740 02be 2108 30bd da21 0dbe f4ab 6cbe
000001c0: e529 ba3c 19d8 673e 1238 7ebe 2ce8 f7bd
000001d0: 9657 c63d e7bb 393e d35e 43be 0d78 aabd
000001e0: 4c52 b3bd 0c3e afbb cf56 01bd 3408 893c
000001f0: de07 c1bd 0817 61bc 2730 a13d 6b25 413e
0.17718396 -0.30345994 0.012282383 -0.022302158 -0.034488205 -0.19917987 -0.04306486 -0.07664763
-0.10795705 -0.18746047 -0.04026316 -0.112018384 -0.075680465 -0.1583742 -0.18246436 -0.1139029
0.13148719 -0.036018804 0.24065617 -0.14663021 -0.00076010585 0.18121855 0.14238402 -0.1720646
-0.12872423 -0.021741785 -0.012063757 -0.054189637 0.014173898 -0.13736425 -0.11121532 -0.14898771
0.20349321 -0.04302366 -0.15984099 0.2941206 -0.12521742 0.04999661 -0.05443177 -0.18305165
-0.09761342 -0.37084004 0.13705724 -0.062029935 -0.08269842 0.06285021 -0.011054585 -0.02893014
0.091621965 -0.15334643 -0.18585882 -0.26327553 -0.17832144 -0.0548481 -0.14289163 -0.059838697
0.026272712 -0.17552808 -0.07647802 -0.13444887 -0.14499503 -0.19283573 -0.04703394 0.29446775
-0.2173247 0.069372825 -0.11882317 -0.08917803 0.046747703 -0.10341712 -0.18713312 -0.03490197
-0.1328361 0.14779085 0.008907796 -0.2292097 -0.034223516 -0.087809004 -0.15079594 -0.035546273
-0.113393664 0.19324508 -0.20395261 -0.12987532 0.117652886 0.0151676955 -0.124065556 -0.2339896
0.16935278 -0.07798035 0.0068710935 -0.096504614 0.18054844 0.08047278 -0.2149858 -0.26406315
-0.109391704 0.22604753 -0.1986594 0.054439668 0.06950637 -0.19425748 -0.28288808 -0.18295431
-0.0122230435 -0.26568466 -0.020486541 -0.1697605 -0.1271988 -0.042976502 -0.13782445 -0.2311247
0.022725055 0.22641028 -0.24826077 -0.1210483 0.096846744 0.18138085 -0.19079141 -0.08323679
-0.08755931 -0.0053479727 -0.031576928 0.016727544 -0.09425329 -0.013738401 0.078705125 0.1886193

network_body._body_endoder.seq_layers.2.weight f4 [128, 128]
00000000: b407 533e 4d7f 5abe 2c0a b43d 4574 5dbe
00000010: b6ae dfbd 600d 633d f6f4 323d 22c8 543d
00000020: 883d 04be 844c 1bbe 5ead 133e d57f 53be
00000030: ae94 1bbe 86b2 40be 770d 3bbe af9a 5fbd
00000040: 6b31 bcbd 41dd dc3d 6f9d 6e3d 8eeb f3bd
00000050: ca93 11bd ef9d 8d3e f24d 5d3e 8837 e93d
00000060: c2f8 993e 0854 c73e a058 dabd 5402 083e
00000070: 1773 f9bd d3f9 97bd 16ff 86bd 14b3 1bbe
00000080: 98e3 a5bd 5e0e a03d 95f2 943d 6700 433e
00000090: 27c1 96bd b758 263e 8d12 0b3e fa4e 04be
000000a0: fd9b 263c 052d 4d3d 001b 243e 22d4 493e
000000b0: 8950 88bc 4adf d33e 5ba2 473c 9219 7a3e
000000c0: b032 b03e cc7d 7cbc 26d2 f6ba 5d64 86bd
000000d0: 0a56 6c3e 0c2d 5dbc 29b6 17bd c951 8a3e
000000e0: 6659 31bd 5eea 7c3e a711 573d 3096 43be
000000f0: b3bd 0f3e b204 5bbe 62c3 473d d2d1 68bc
00000100: 5b0b c23d b698 013e 862a a73d f406 833e
00000110: edf3 a03e a904 48be b5a9 953e 8e1c 16bd
00000120: 8f9e a7be e391 183d 007d d43d e939 893e
00000130: c2ec d6bd 7cff 4a3c 816b 5abb 4dfb 97be
00000140: 7023 0cbe b850 b53e 93a5 de3d 69bd 833e
00000150: 5c6b b2bd 2791 f13b 4d8d 04bf 4fb0 a0bb
00000160: 25ae 433e 28b5 11be 7263 11be 3e30 a6bc
00000170: 1d9f 613c 2ff1 943e ef93 2f3e d687 5e3e
00000180: 5c7c 7bbe 8b3d 2b3d e7c9 043e 4d2f 5bbd
00000190: 2b07 94bc b01d a83e aacf 65be 42cf 9ebd
000001a0: 64aa fc3d 3af8 5dbc 0e96 82be 5e77 123e
000001b0: 8584 ec3d de3b 503d d567 c13c 42c3 ba3c
000001c0: b14a e6bd 021e cd3d 6ea8 92be ce94 b83d
000001d0: a2b7 5a3e e5ed 493e 34e9 43be 14f5 393d
000001e0: b9c4 0c3e 8093 06be 88c5 0b3e e0c8 aa3e
000001f0: 031d 80bd 2c55 78bc 2564 713e bbdc 883e
00000200: 8b94 933c e275 b5bd 5872 97be 4ab9 cc3c
00000210: 6195 57be 4d40 97be cf40 ce3e bb8b 7c3e
00000220: dbbb b9ba 3675 e4bc 7484 5a3e 3dea 7fbe
00000230: 8d61 14be 46ab 143e bbc6 4fbe 48e8 73be
00000240: 8bda 88be 16a3 d8bd d819 93be 0e7a d93e
00000250: b651 e83c f6dc 153e 611f 7c3e badd 153e
00000260: 7078 593b 47aa a73e aca4 2cbf 0820 c83c
00000270: 6a68 13be d7d3 05be f6c2 ebbe a7e9 cabd
00000280: d804 d53d 83f1 f63d c35e bcbe 852b ba3d
00000290: a411 8dbc 39ee 593e a00b 173e c534 08be
000002a0: 42df c7be 5df4 b4be a35f d9be e4b1 483e
000002b0: ed3c 3dbd c15a 883d fdb2 7fbd d25d f33c
000002c0: ea97 9e3c 30b6 76bc efa9 8c3c b962 92bd
000002d0: 81aa a8bd 5757 d63e 4b5b 4a3e 4c3c 843d
000002e0: 19d5 d7be d5b4 943d 6582 31be 5336 c8bd
000002f0: 9597 373e 4c48 ce3d bce8 af3e 36f3 c23d
00000300: e73f c2be c2e1 10be c81b b7be b874 ba3d
00000310: 1c29 ad3e 8bbc ffbd e91b 503d b2ac c93b
00000320: 00bc 17be e1a7 213d 2498 94be 492b 6abe
00000330: 6902 80be a508 b1be bd1d 02be 01d3 04be
00000340: bda3 58be 11a3 43be ede7 54be 4698 94bb
00000350: 5c59 7f3d a3d7 953e bbef 1dbe 2e68 d2bd
00000360: fc3d 75bd b472 28bd 5bbf 58bd d63a a3bd
00000370: 0c1c d13c d16c 103d 2be3 7f3e d1b7 dabd
00000380: e4bd 74be cba5 243e fa53 d0be 3a57 e33d
00000390: 4730 2d3e c85d 0cbc 54aa c43e c1bb 7cbe
000003a0: 17c3 e93e c2bd d73d d243 59be 0c48 96be
000003b0: b36c 8f3e 72af 9abd 3fd7 203d d333 8a3d
000003c0: e5f0 22be 92a2 76bd 67b2 543d 4955 15be
000003d0: 4d11 30be a74a 37be 4bba 54bc bd57 66be
000003e0: 18a2 793e 0134 4dbe 2766 363e 15c0 ce3e
000003f0: 0c4f fabd 7f81 0e3e d66a 9a3e ea6c 893e
0.20608407 -0.21337624 0.08791003 -0.21626385 -0.10921995 0.055432677 0.043690644 0.051948674
-0.12914097 -0.15165907 0.14421603 -0.20654233 -0.15193436 -0.18818101 -0.18266855 -0.054590877
-0.09189113 0.10784388 0.05825561 -0.11910163 -0.035541333 0.27659556 0.21611765 0.11387545
0.300726 0.38931298 -0.10661435 0.13282138 -0.12180155 -0.07420697 -0.065916225 -0.15205032
-0.08100051 0.0781524 0.07272831 0.19043122 -0.0736106 0.1624478 0.13581295 -0.12920752
0.010169026 0.050091762 0.16025925 0.19709828 -0.016639965 0.41381294 0.012184705 0.24423817
0.34413671 -0.015410852 -0.001883094 -0.065621115 0.23079696 -0.01349951 -0.037038956 0.27015522
-0.043298148 0.24698779 0.05250707 -0.1910026 0.14037208 -0.2138851 0.048770316 -0.014210181
0.09474822 0.12655911 0.081624076 0.25591242 0.314361 -0.19533028 0.2923104 -0.036648326
-0.32738158 0.037248503 0.10375404 0.26801994 -0.10494377 0.012390014 -0.0033328237 -0.29683915
-0.13685393 0.35413146 0.108714245 0.25730446 -0.087118834 0.00737204 -0.5177811 -0.00490383
0.191094 -0.14229262 -0.14198092 -0.020286676 0.013770846 0.29090258 0.17146276 0.21731505
-0.24559158 0.04180674 0.12967645 -0.053511906 -0.018069824 0.3283515 -0.22442499 -0.07754375
0.12337187 -0.013547951 -0.25505108 0.14303347 0.115487136 0.050838344 0.023609081 0.022798184
-0.11244715 0.10015489 -0.28644127 0.09012757 0.21359113 0.19719656 -0.19131929 0.04539974
0.13746919 -0.13142204 0.13649571 0.3335638 -0.062555335 -0.015157025 0.23573358 0.26730904
0.018015167 -0.08860375 -0.29579425 0.024990696 -0.21053077 -0.29541245 0.4028382 0.24662678
-0.0014170365 -0.027887922 0.2133959 -0.24991699 -0.14490338 0.1451846 -0.20290653 -0.23819077
-0.26729235 -0.10577981 -0.28730655 0.42475933 0.028359275 0.14635071 0.24621345 0.14635363
0.0033183359 0.327471 -0.6743877 0.024429336 -0.143953 -0.13069092 -0.4604718 -0.09907847
0.104013145 0.120577835 -0.36791047 0.09090332 -0.017220326 0.21282281 0.14750528 -0.1330138
-0.3903752 -0.35342684 -0.42455778 0.1959911 -0.04620068 0.06657935 -0.062426556 0.029707823
0.019359548 -0.015058085 0.017170874 -0.07147736 -0.08235646 0.4186351 0.19761388 0.06456813
-0.42154768 0.072610535 -0.17334898 -0.097759865 0.17928918 0.10072383 0.3435725 0.09519045
-0.3793938 -0.1414862 -0.35763383 0.091042936 0.33820426 -0.124871336 0.050807867 0.00615462
-0.1481781 0.039466742 -0.29022324 -0.22868074 -0.2500184 -0.34576908 -0.12706657 -0.12971117
-0.21156211 -0.19105174 -0.20791598 -0.004534754 0.06234108 0.2926608 -0.15423481 -0.10273777
-0.059873566 -0.041125014 -0.052916866 -0.079702064 0.02552607 0.035260025 0.24989001 -0.106795914
-0.23900563 0.1607887 -0.4068907 0.111006215 0.16912948 -0.008567281 0.384112 -0.24680997
0.45656654 0.1053424 -0.21217278 -0.29351842 0.28012618 -0.07552995 0.039267775 0.06748166
-0.15912206 -0.060213633 0.05192795 -0.14583315 -0.171941 -0.17899571 -0.012983869 -0.22494407
0.2437824 -0.20039369 0.17812406 0.40380922 -0.12222108 0.13916586 0.30159634 0.26840907

network_body._body_endoder.seq_layers.2.bias f4 [128]
00000000: 82f9 7e3d d31a b83d d28c 10bd fb04 693e
00000010: e6a2 bb3b a335 a4bd 634e ef3d f32c dc3d
00000020: f4d1 c9bd 1474 d4bc 90d3 0abe f952 70bd
00000030: 605d 1ebe c862 073e 0629 ccbd e0ec 84be
00000040: c107 b6bb 06c0 39be 982d f83c c1ca c1bd
00000050: c14b 9a3e 6ea5 4bbd 73c3 933d bc31 953e
00000060: 0ef9 483e 5d27 00bd 4e8a b93e a458 d33c
00000070: 20e6 29bd ef54 3d3e bf0e ecbd 74ae 05bd
00000080: a6dc 9e3c 5552 fcbd 2e98 74bd d855 1c3e
00000090: 5ea5 d9bd 211f 15be ffc9 233e 8f7f 8fbe
000000a0: f07e 64be df5f 613d 66a6 e33d bfe6 e2bc
000000b0: 7d57 cd3d 891a 453d 4e58 3d3a ea6e 1e3e
000000c0: 8969 e23a b38c 703e d944 98bb fd01 e93c
000000d0: 1e53 3fbc a14a 8dbd 9ad9 3abd a8d2 233d
000000e0: b54b 403d 7262 4bbd de86 8a3d b463 bf3d
000000f0: 71fa 973d d5e7 94bd 241b 3f3e b060 9e3d
00000100: e11c 1dbd ca8d 5ebd 7dd0 b6bc d5e8 b6bd
00000110: 7b7a 723d 2e70 443b c87f 25be 1af2 d4bd
00000120: 5575 b83d 3cfb d23b 4401 15be da2c 2cbe
00000130: c376 b6bd f2eb c2bc bb70 bfbd 0f63 0bbe
00000140: 57fc 823d 55b4 503e bccc 5dbe 9ca6 68bc
00000150: 4692 d3bd bc9f cebd 3d18 c0bd 0626 eebd
00000160: 99dd 13be 4698 ccbd fb61 4dbd e822 f8bc
00000170: 498f 48bd cd5f b0bc a700 053e c777 913c
00000180: 738b 4cbe 56f7 e3bd 63d8 6fbe 931b f9bd
00000190: e2cc e23d 1613 04be c1fd 9f3d 8f2f 6fbd
000001a0: 992d 6fbe fa0c 48bd 898c 04be 6381 95bd
000001b0: 3dcc d9bd 859a 053c 3b2c 9bbc 77a5 63be
000001c0: dec3 303e 1e6c 263d 9077 05be 4861 48bd
000001d0: 195b a6bd c9c8 1b3d e0f7 84bd afa6 2b3d
000001e0: b57d 733d 036a 963d bee5 06bd ca05 bfbc
000001f0: 65a2 3cbe 84a3 853b 07a8 0a3e 8e2d 2a3e
0.062249668 0.08989491 -0.035290547 0.22755806 0.005726206 -0.08018043 0.11684873 0.10750761
-0.098544985 -0.025934257 -0.13557267 -0.05867288 -0.15465307 0.13221276 -0.09968762 -0.2596197
-0.0055551236 -0.18139657 0.030295178 -0.094625 0.3013592 -0.049718313 0.07215013 0.29139507
0.19626257 -0.03128754 0.3623833 0.025799103 -0.04147923 0.18489431 -0.1152625 -0.032637075
0.019392323 -0.12320391 -0.059715442 0.15267122 -0.106272444 -0.14562656 0.15995024 -0.28027007
-0.22314048 0.05502307 0.11115722 -0.027697919 0.10026453 0.04812101 0.0007222936 0.15471998
0.0017273884 0.23491172 -0.004646879 0.02844333 -0.0116775315 -0.06899 -0.045617677 0.03999582
0.0469472 -0.04965443 0.06764005 0.09345189 0.07420815 -0.07270781 0.18662697 0.077332854
-0.03835762 -0.05433444 -0.022316212 -0.08931128 0.059198838 0.002997409 -0.16162026 -0.1039774
0.09006754 0.006438641 -0.14551264 -0.16813985 -0.08909371 -0.023794148 -0.093476735 -0.13612007
0.06395786 0.20381291 -0.21660131 -0.014199879 -0.10330634 -0.10089061 -0.09379623 -0.11628346
-0.14440002 -0.09989981 -0.05014227 -0.030290082 -0.048964772 -0.021530056 0.1298853 0.01775731
-0.1997507 -0.1113116 -0.23422389 -0.121634625 0.110742345 -0.12897906 0.078120716 -0.058394965
-0.23357238 -0.0488405 -0.12944235 -0.07300069 -0.106346585 0.008154516 -0.01894199 -0.22231089
0.17262217 0.040630452 -0.1303389 -0.0489209 -0.08122844 0.03803328 -0.06492591 0.04190701
0.059446055 0.07344439 -0.032933943 -0.02331819 -0.18421324 0.0040783305 0.1354066 0.1661894

action_model._discrete_distribution.branches.0.weight f4 [5, 64]
00000000: 5c5e 73bd f192 a33c a85e 51bd d5ff 9dbd
00000010: 4558 83be e2c4 70be 6642 8e3e 2a31 66be
00000020: c814 a4be a74b 1c3d 4d0d 6d3e 96a4 0a3f
00000030: 958b 403e 2d10 a0bb da49 92be f21d f9bd
00000040: f214 193e e167 b33e 35cf f03d 947c 4e3e
00000050: d2b0 913a e7cf b9bd feb6 34bd 040e edbd
00000060: acd1 cd3e 2cb1 b33e b404 bbbd 5bfb cf3c
00000070: 956f bd3d 3579 843e a62c 233e bbbf 1ebe
00000080: 9b2e 02be d744 3fbe c78a c0bd 1c9b a83d
00000090: 0102 da3e 4649 29be aa3a 10be 591a cfbd
000000a0: 283e 683e 3af9 38be 21c3 cfbe ef25 86be
000000b0: e211 99bd 5d35 ecbe 3bde 28bd 6410 913d
000000c0: 616f 0dbe 5cdf 94be 4872 bdbd ea4e 45bc
000000d0: f9dc 2bbe 83b8 e63d bd6c 96be 5001 803d
000000e0: 7a04 2cbd cae3 393e 6a99 2bbe e489 8abb
000000f0: c9de e43e ea02 b1be cc09 173e 3178 2b3e
00000100: 8e80 803e 731d 6cbe a786 363f 902d cf3e
00000110: 3f89 c5be 873f 843e 95ae a7be 38d5 213f
00000120: 77c1 5a3f 3a3a 033f 72cb 33bf 08c8 60bf
00000130: ca1c 213f 3e95 b33e 6e62 873f ffc2 e5be
00000140: 010a eebe a646 dabe b902 26bf 549a 5dbf
00000150: ceb0 1c3f 16e8 44bf 9dda 06bf 44d9 0fbc
00000160: e465 6dbe 95f2 0bbf 6e4d 203f e11b f13d
00000170: 2a94 8bbe b207 c7be 5c9a a0be 7401 e83e
00000180: b30b 5e3f e7a7 9d3e 2159 823d 4f38 1d3f
00000190: 91a5 15bf c610 913e 6dfc 2cbf cea3 8c3f
000001a0: 0eab 54bf 93be 1ebf a915 013f 9fad 0a3f
000001b0: 55fe 08bf e5e0 d1bd 0068 0a3f 24c8 353f
000001c0: 2c28 00bf caf8 1cbd 7da4 623e 5a09 fdbd
000001d0: 36e2 c63e e48d d8be df09 1fbf ba95 023f
000001e0: 687a 0bbf 180e 1cbd c503 0dbe 5cd7 45bf
000001f0: 4ddf ad3e e2be 4ebd 445c a13d 84da e8be
00000200: ec63 a63e fce8 b23d 432f 4cbe 5321 9b3e
00000210: 3581 84bd 0252 78be c41f 923e 9d81 8fbe
00000220: 53e4 e8be 0f12 2bbc 9694 813d 20a2 c13e
00000230: 99cd 2abd a874 4a3c ee1a 52be 4b46 98bd
00000240: 04f7 0e3d 262f 0d3f eac8 3e3c 7a3d ac3e
00000250: 7a0a e0be a2a0 3a3e c21f 66be 5cb8 c23d
00000260: 6878 0b3f b42b be3e d495 3d3e 19ae 8cbe
00000270: 7ec0 c63e 9289 64bd 12ae 273d 2894 03bc
00000280: 7f9b bd3d eef9 60be ee85 cb3d 5818 423e
00000290: 48d2 923e d0af 44be 1b1b 08be 5378 86be
000002a0: 567c e23d 3552 d73c 3c51 a6be 1179 50bd
000002b0: 8a60 443d ee59 c53c db43 b63e ada9 253e
000002c0: 65cd 413d 1e7f a03d f994 3b3e e073 1b3d
000002d0: 2b5c b5be 8db9 f63d 2b40 9cbd fb7e 8abe
000002e0: ed52 2ebe b898 23be 69ef b33d 13eb 663e
000002f0: e941 e3bd 9ea2 3e3d 5d20 1bbe a511 8f3e
00000300: 9adb fa3d f2be 64be d45b dfbe 8103 e9bd
00000310: 6ca7 383f c56d d23d 724f a1be dc60 27bf
00000320: 8278 643e 30e3 d4be 0c2c 5cbe 3afb 89be
00000330: 0479 83be 8b3d 223f 3005 10bf 617a ea3e
00000340: be84 e1bd cf1f 063f a675 ff3e c32b 74be
00000350: 684e ccbe a9af dd3e a938 b23e 33e0 283e
00000360: 49af c7be 1fa0 9abe b138 c3be ceee bf3e
00000370: 8d9c 003f c3b1 fc3e e2e9 a7bd 9307 a93d
00000380: 28ae 85be 19c1 73be ca45 99be 791a adbe
00000390: ca65 c0bd d654 55bf 9063 8d3e 0701 3abf
000003a0: c310 fb3e 94f4 e53b c824 223d 4d86 dd3e
000003b0: fba4 093f 093b 683b 7b66 013f 8b3d 14bf
000003c0: 37da 433e ce28 d2be bca9 e5be 62b4 203e
000003d0: 6047 423f 4eb6 823d a9e7 783f 7346 6dbf
000003e0: aa2a 973e a4c2 2ebc b9f0 d4bd 5c49 b93e
000003f0: e55a 85bf 0ced 19bf 3146 d0be 6472 d6be
-0.05941616 0.019967528 -0.05111566 -0.07714812 -0.25653282 -0.23512605 0.27785033 -0.22479692
-0.32047105 0.038158085 0.23149605 0.5415739 0.18803246 -0.004884741 -0.2857197 -0.12163915
0.14949396 0.3504019 0.117582716 0.2016471 0.0011115319 -0.09072857 -0.044119827 -0.11574939
0.4019903 0.3509611 -0.091317564 0.02538841 0.09249798 0.25873724 0.15935001 -0.15502827
-0.12713091 -0.18678604 -0.0940147 0.0823271 0.42579654 -0.16531858 -0.14084879 -0.10112447
0.2267996 -0.18063822 -0.4057856 -0.26200816 -0.07474114 -0.46134463 -0.04122756 0.070832044
-0.13812019 -0.2907666 -0.09250313 -0.01204274 -0.16783513 0.112656616 -0.29379836 0.0625025
-0.041996457 0.18153301 -0.16757742 -0.0042278636 0.44701222 -0.34572536 0.14749831 0.16745068
0.2509808 -0.23058109 0.71299213 0.4046445 -0.38581273 0.25829718 -0.32750383 0.6321597
0.85451454 0.5126072 -0.7023231 -0.87805223 0.62934554 0.350748 1.0576913 -0.44875333
-0.46492007 -0.42632025 -0.64847904 -0.8656361 0.6120728 -0.76916635 -0.5267733 -0.0087798275
-0.231834 -0.54667026 0.6261815 0.117728956 -0.27261478 -0.3887306 -0.31367767 0.4531361
0.867366 0.30792162 0.06364656 0.61414045 -0.5845576 0.2833311 -0.6757267 1.0987489
-0.8307351 -0.62009543 0.50423676 0.54171175 -0.5351308 -0.10247973 0.5406494 0.71008515
-0.500613 -0.0383232 0.2213306 -0.12355299 0.3884446 -0.42295754 -0.6212444 0.51009715
-0.5448365 -0.03809938 -0.13770969 -0.7728174 0.33959427 -0.05047501 0.078789264 -0.45479214
0.3249811 0.087358445 -0.19939904 0.30298862 -0.06469957 -0.24250033 0.2853986 -0.28028575
-0.45486698 -0.010441317 0.06327169 0.37819004 -0.04169998 0.012356915 -0.20518085 -0.07435282
0.03490354 0.5515007 0.011644581 0.33640653 -0.43757993 0.18225339 -0.22473052 0.0950782
0.544806 0.37142718 0.18514186 -0.27476576 0.38818735 -0.05579526 0.04093749 -0.008030929
0.09258174 -0.2197034 0.099376544 0.18954599 0.28676057 -0.19207692 -0.1329159 -0.26263675
0.110588714 0.026284317 -0.32483852 -0.050896708 0.04794363 0.024090733 0.35598645 0.16178007
0.04731502 0.07836746 0.18318547 0.037952304 -0.3542188 0.1204711 -0.076294266 -0.27050003
-0.17023821 -0.15976226 0.08785898 0.22550611 -0.11096556 0.046541803 -0.15149064 0.2794315
0.12248917 -0.22338465 -0.43624747 -0.113776214 0.72130466 0.10274843 -0.31505924 -0.6538217
0.22311595 -0.4157958 -0.21501178 -0.26949483 -0.25678265 0.6337516 -0.56257915 0.45796493
-0.11011647 0.52392286 0.49894446 -0.23844819 -0.3990357 0.4329808 0.34808853 0.16491775
-0.3900092 -0.30200288 -0.3812919 0.3748688 0.5023888 0.4935437 -0.081989065 0.08253398
-0.26109433 -0.2380413 -0.29936057 -0.3380926 -0.09394415 -0.83332574 0.27615023 -0.7265782
0.49036226 0.0070176814 0.03958586 0.43266526 0.53767365 0.0035435578 0.50547 -0.5790641
0.19126211 -0.41046757 -0.4485606 0.1569381 0.7589016 0.06382428 0.97228485 -0.9268562
0.29524738 -0.010666523 -0.10397477 0.3618878 -1.0418364 -0.6012733 -0.40678552 -0.41884148

action_model._discrete_distribution.branches.0.bias f4 [5]
00000000: 481b 2a3e bd56 d7be dbef 9a3e 558d fd3d
00000010: e1d9 b53c
0.1661197 -0.42058364 0.3026112 0.123804726 0.02219862
