Assets/Crossroads/Models/CrossroadLightsGridAgents.onnx (onnx, 479971 bytes, 15 tensors)

network_body.observation_encoder.processors.0.conv_layers.0.weight f4 [16, 9, 8, 8]
00000000: cdb0 2ebd b754 84bd fc5d 7ebd b8bc aebd
00000010: c9e4 2f3e 86bf af3c 45df edbc 3e21 cd3c
00000020: d012 40be bcd1 babd fa8f 67be 6caf 0abe
00000030: 24a7 803d 3a72 61bd 13fe 8d3c b31b c93d
00000040: 756b 9cbd d75a a2bd 9ea3 cfbd e53a dabc
00000050: 7a87 a53d 2a15 22bd 90bf debd 0d54 513d
00000060: 9f90 df3a c69f c7bd faac 66be 26bd 80bc
00000070: ad5d cf3d 5c83 09be c186 20bd 1276 393d
00000080: 3c15 92bd a8c9 43be 8cb0 c0bd 7a69 b5bc
00000090: 6d6e e83d ec24 9ebd 2b4b c1bd 72bb 263d
000000a0: d850 71bd e0ed 5abd d7cd 22bc eec4 a2bd
000000b0: 13a7 053e 8b33 8ebd 08ce 723d c62c 103e
000000c0: ff48 f3bd 76db a8bd 1a71 52bd 9dcb 88bc
000000d0: caac 473e 69b0 1f3e 4546 783d 9003 423e
000000e0: 5aff 35be e6bf 23be ec2d a3bc e5fc 04bd
000000f0: 5bf0 6c3e 4d89 153e f957 0e3e 6fd6 353e
00000100: cef5 0c3d 4d7b 393d c888 723d e224 d8bd
00000110: f199 3fbc be34 1d3c 5394 2fbd fc76 553d
00000120: 6ba3 683d bb42 48bd e026 67bc a833 e5bc
00000130: 8ed7 7fbd 373e 883d 4500 473e f315 b13d
00000140: eb2c 09bc 28ed 9dbd 3e09 aebd 0f65 dfbc
00000150: b76c efbb c3ca 123e 5d4e 2f3e f3d4 983d
00000160: 4f93 91bd fb68 a0bd c847 f2bd 16a7 38be
00000170: f43e 01ba 5da9 b4bd 9d2b 35be a28b 94bd
00000180: 75b6 fcbd 0c7c 07be b128 f6bd ff83 2dbd
00000190: ac0c 3bbe d6c1 53bd 2173 38bd 7cf7 cdbd
000001a0: d367 8e3d 301b 41be 6b78 2dbe af5e 82bd
000001b0: ae4d b93c 9009 b7bd 120e f23d 83db c73d
000001c0: 2b21 f53d e954 013c 2509 453d d69a 8cbd
000001d0: 3a1f 86bd ee19 05be 1408 60be ef6f 2cbd
000001e0: e7de 0a3b f321 ef3d 718b 303d 5f32 84bd
000001f0: 8634 a0bc 49af 903c 65dc e73c 3e34 0f3e
00000200: a749 aebd ab8c b03d 2075 a03d 2b34 f53c
00000210: a119 3cbd cb71 f1bd 7306 f43c 9e66 3dbc
00000220: f0ab 5fbd c326 d93d 23f6 1739 50be d13b
00000230: 6810 863d 2fab 48bb ee99 c63d 9a99 933d
00000240: c6d0 7fbb 70a8 88bd 1e36 27be 422a c4bd
00000250: 9148 b9bd 7b75 3c3d e326 7c3d 7b10 7ebd
00000260: 98f4 b63d 2767 c23c 6f0c bd3d 5252 e4bc
00000270: 1a47 a0bd 8a98 d0bd 9e9b 9d3d 8deb ea3d
00000280: 9240 143e 1196 cabd 9984 10bd f85f 9dbd
00000290: ffbc 97bd e650 22be 549b 063e 7ca0 0a3e
000002a0: 51f5 c4bd 0365 93bd ca6c b0bc 335a 81bd
000002b0: c76c e23d f4c4 7ebc 186a 8f3c 4325 5a3d
000002c0: 5398 e83c f4c3 403e 721a 3e3e 4896 173d
000002d0: d9d5 60bd 78a3 febd 6c43 4bbe bff4 c5bd
000002e0: d3d0 73bc 5137 943c 060b 4b3e f9f0 f83d
000002f0: 1327 52be 5160 9cbd 01fb 4ebb 7c0f 66bd
00000300: c728 27be 87cf 7f3d 220e 3e3d 1a04 b9bd
00000310: 2ca4 953d a52e 293c 0964 6bbd a32e c53c
00000320: 75ff 4bbd 64c1 00be 3556 d2bd 66be d8bd
00000330: 4d8d 31bd 69b4 da3b baca eb3b ee82 1b3d
00000340: 6bdb 2cbe 2a93 dabd e6e8 143d 835e 93bd
00000350: 2c15 6cbd 382a 06bd 5765 c03d 095c 953d
00000360: 8132 ba3c 1ec9 af3b 4925 093e 8310 a2bd
00000370: 2ae5 79bd b0eb b63c 77e3 8bbc c610 d33d
00000380: 9a77 aebd 2244 67be 32dd 2dbd 8a43 9f3d
00000390: 1ac8 f73b 5f35 d63a 4c2e 41bc f661 e63c
000003a0: c59d eabd edb0 cbbd c769 b23c dbbb a23d
000003b0: 7215 933d 3ad8 163d 566f a13c e1ac 183e
000003c0: f4bf 89bc 3f78 2d3c 6c48 3f3e 2a60 42bd
000003d0: 643e 47bd a9e9 7f3d 8e32 cb3d 91e1 4fbd
000003e0: a648 8abd cae9 f4bd 0a34 97bb 98e5 20be
000003f0: ae4d 07be 74c2 2e3d be2b f03d 08b5 0a3d
-0.04264908 -0.064614706 -0.06210135 -0.08532089 0.17177118 0.02145363 -0.029037127 0.025040265
-0.18757176 -0.09122035 -0.22613516 -0.1354348 0.062818795 -0.055040576 0.017333066 0.09819736
-0.07637683 -0.079274826 -0.101386294 -0.026639411 0.08082481 -0.039570965 -0.108763814 0.051105548
0.001705665 -0.09747271 -0.22526923 -0.015715193 0.10125289 -0.13429016 -0.03919101 0.045278616
-0.071329564 -0.19119895 -0.09408674 -0.022145022 0.11349187 -0.07721886 -0.09438165 0.040706106
-0.05891499 -0.05344951 -0.009936771 -0.079477176 0.13052015 -0.06943425 0.059278518 0.1407958
-0.11879157 -0.08244984 -0.051377393 -0.016698653 0.19499508 0.15594639 0.06061389 0.18946671
-0.1777319 -0.15991172 -0.019919358 -0.03246774 0.23138563 0.14603157 0.13900746 0.17757581
0.034414105 0.045283604 0.059212476 -0.1055391 -0.011694417 0.009595094 -0.042866062 0.052115425
0.056796473 -0.048891764 -0.01410839 -0.027978733 -0.06246143 0.066524915 0.19433697 0.086467646
-0.008372526 -0.077112496 -0.084978566 -0.027269868 -0.007306661 0.1433516 0.17119737 0.07462492
-0.07108175 -0.078325234 -0.118300974 -0.18032488 -0.000493034 -0.08821366 -0.17692418 -0.07253195
-0.123394884 -0.13230914 -0.1201948 -0.04236221 -0.18266553 -0.05169853 -0.04503167 -0.100569695
0.06953397 -0.18858027 -0.16940467 -0.06365716 0.022620048 -0.08937371 0.1181909 0.097586654
0.11969217 0.007893779 0.048104424 -0.0686547 -0.06548925 -0.12998173 -0.21878082 -0.042098936
0.002118999 0.11676397 0.04310173 -0.0645492 -0.019556295 0.017661707 0.028303334 0.13984773
-0.08510142 0.0862058 0.0783484 0.029932102 -0.04592288 -0.117892824 0.029788231 -0.01156011
-0.05460733 0.10603096 0.00014492175 0.006400861 0.06546098 -0.0030619611 0.096973285 0.072070315
-0.003903435 -0.06672752 -0.16329238 -0.095783725 -0.09047044 0.046010476 0.061560523 -0.062027436
0.08933371 0.023730827 0.09230887 -0.027871285 -0.078260615 -0.101853445 0.07695697 0.11470709
0.14477757 -0.09891904 -0.035282705 -0.0768432 -0.07409095 -0.15851173 0.1314519 0.13537782
-0.09617103 -0.07197001 -0.02153625 -0.06316032 0.11055904 -0.015549887 0.017506644 0.05325819
0.028392946 0.1882475 0.18564776 0.037008554 -0.05489144 -0.12433523 -0.19849938 -0.09665822
-0.014881331 0.018092783 0.19828424 0.12155337 -0.20522718 -0.076355584 -0.0031582715 -0.05616711
-0.16324149 0.062453773 0.046400197 -0.090339854 0.07306704 0.010326062 -0.057468448 0.02407009
-0.04980417 -0.12573773 -0.10270349 -0.105831906 -0.043347646 0.0066743386 0.0071957977 0.03796666
-0.16880576 -0.106726006 0.03635492 -0.07195761 -0.05763738 -0.032755107 0.09394329 0.07292945
0.02272916 0.005364551 0.1339313 -0.079133056 -0.061009564 0.022329181 -0.017076237 0.10305934
-0.08518906 -0.22584584 -0.042447276 0.07776554 0.0075616958 0.001634281 -0.011790823 0.028122883
-0.114558734 -0.09945855 0.021778954 0.07945987 0.07181825 0.036827303 0.01970641 0.14909698
-0.016815163 0.010587751 0.1867997 -0.04745499 -0.048643485 0.062478695 0.09921752 -0.050752226
-0.06752138 -0.11958654 -0.004614358 -0.15712583 -0.13213226 0.042665914 0.11727093 0.03386405

network_body.observation_encoder.processors.0.conv_layers.0.bias f4 [16]
00000000: 17d2 4fbe 17e0 40be 064f 41bd 0ab8 413d
00000010: 090b f13a d260 cebd d6bd ecbd 2960 2e3c
00000020: e3ff 7dbd 842b afba c9a8 d4bc ea63 963d
00000030: 9b62 45bd 47fc 8f3c e1f3 f8bd d8d4 49be
-0.20294987 -0.18835483 -0.047194503 0.047294654 0.001839013 -0.10077061 -0.11559646 0.010643044
-0.06201161 -0.0013364409 -0.02595939 0.07343276 -0.04818974 0.01757635 -0.12155891 -0.197101

network_body.observation_encoder.processors.0.conv_layers.2.weight f4 [32, 16, 4, 4]
00000000: 2e6d fc3d 7006 1c3d ad88 1b3e 716b 8f3d
00000010: f98d b43c 6e92 1a3e 95e0 f13d cd48 123d
00000020: 53b2 913d b617 ff3d bda2 c93c 6765 f5bd
00000030: 93f5 c23d e574 4e3d 4172 cc3d 4297 42bc
00000040: bd1d 2fbd fcca f1bc 8f79 d63d ff67 70bd
00000050: f8f1 fbbc e235 133c 15e7 1d3e e64f ac3d
00000060: 49af 333e bbc8 30be 37c4 58bd a04a 943e
00000070: b9ba aa3d e032 fcbd 06c9 cabc 0ea9 b13c
00000080: 0c85 67bd dc7f a73a ebba 9cbd 65bc 57bc
00000090: 9202 a83d ce7b d43d 998f 8f3e 50ba 993d
000000a0: 32f3 19be d520 04be e702 5c3e 4107 283c
000000b0: bcc6 57bd 6b4a 5ebd 329d 13bc 409a 54be
000000c0: c4b2 b9bd 8124 ca3d e33c e0bd 2277 46bd
000000d0: be04 003e 0b87 dc3d 767b ffbd 0b05 5c3e
000000e0: e69e 37ba 8010 09bc 563e a93e 731c df3c
000000f0: 820d b7bc 6551 823c a316 053c 53ca 023e
00000100: b050 5ebd 3383 e5bd da11 9e3c aa1d 303e
00000110: 8c60 30bd 2b53 78bc 5b41 203e 17c6 8e3c
00000120: c2c7 08bd 1344 433d 0f5e c43d f4bd ba3c
00000130: 829c 1e3e ba7d d73d dc93 99bd 7820 ecbc
00000140: db3c 17be 661a 97bc 9d49 88bc 6a41 0c3e
00000150: 11d2 efbc 1f2f 02bd 3b15 073e bf00 023e
00000160: 82a5 8fbc fbde d2bc c799 77bd 5a39 1abd
00000170: 6481 8b3c 5a3d c53d ad3d 853c 47eb 093e
00000180: f276 b93d a7f4 d33c e516 493b 5160 e1bc
00000190: ad87 d7bd bc6b 9dbc e498 453e 540c 063e
000001a0: a175 843d 5982 923d 6c5a f2bd 30ba 0c3e
000001b0: 88dd a3bd bf87 7bbc 7ed8 3ebd a9b7 05bd
000001c0: 4da1 103c a222 85bc 0117 c4bd bce7 15be
000001d0: b9a3 3dbd 5e27 fabd b69a 1a3e 6873 ef3d
000001e0: 8c26 c1bd b330 003e 0aa1 9ebc fc1e e53d
000001f0: 022d 08be c278 643d 68af 0fbe 5300 153e
00000200: 276d 853d 5be9 6f3c a9e3 13bc a2e4 b63d
00000210: ba0c 01ba 9fdb 3f3e ae31 da3d 7d22 933d
00000220: c97a d63d f005 2bbe f662 b63e 9685 963d
00000230: b638 53bd 9b00 e1bc e45a faba 37f5 cebc
00000240: 967b 4a3d d59b 3b3d b81e 0abb 29b3 9cbb
00000250: e71c a1bd 6a0b 1f3d 0e29 2fbd 297e ed3d
00000260: 640d 923d be77 8c3e b79c cbbd da29 0f3e
00000270: d8f5 d73c cc0b 443d f5d7 b93d 3864 3cbe
00000280: daaf 153d fb8a 833b 186f 583e d91e 453e
00000290: dafd 1ebe 5202 fdbd c461 8d3e dd08 ab3d
000002a0: d2a7 0abe 1b50 0fbe 0f15 273e 5a1b 7a3c
000002b0: 8792 4bbc 8f40 91bd ea05 723d c7e4 cabd
000002c0: 2741 033e 5a50 bbbd 10c7 0fbe 8daa ecbd
000002d0: f33c 31bd ad3f 3abe 1ac2 313e 917b 603d
000002e0: 5be1 dbbd 6522 19bd 8738 853d dd6e 0ebe
000002f0: b71c 47bd 5d3d 83bd dad0 fbbc 217d ad3d
00000300: 2c3f bdbd a69b 3d3d 28a7 22bd 0ca0 b0bb
00000310: 0fed e8bd 54cb 16bd 1bb0 24be 3c65 3b3e
00000320: 19fd 1dbe 366e 83ba 2da3 65bd 1cf6 df3d
00000330: dd49 2c3e 85d2 363c 0902 04be 1c17 0abd
00000340: 420b 143e c0c4 353e ef7f 293e 2fac 6a3d
00000350: 0166 203e d485 7c3d 6c14 263e 9a7e 7abc
00000360: c9e5 9bbc dac1 3fbe 23f5 8e3e c6af 3c3e
00000370: a63c b23c 80b3 dc3c 761c d1bd 3689 033d
00000380: ca94 9cbc f75e 603c 39a5 4b3e 5f0e e83d
00000390: c3d3 ccbc ba9d 5cbe e223 06bd d36e 333e
000003a0: b062 85bd c655 93bd 2062 ccbd 9b11 8d3d
000003b0: e32f 323c 6978 07be a3f4 9d3b 2187 9c3d
000003c0: fd37 77be 725c 64bb f9a5 54bc 61bb 343d
000003d0: dcf9 62be 3ebc fd3c bf7b 363d d3dc 4e3c
000003e0: c999 a3bd c75f 20bd 92d1 05bd 0b5d 9e3e
000003f0: 52a4 31bd 457c 4b3d 7c0f 47be e8ec 99bd
0.12325512 0.038092077 0.15188856 0.07002915 0.022040354 0.15094921 0.11810414 0.03571396
0.07114091 0.124556944 0.024613732 -0.119822316 0.09519496 0.050404448 0.0998273 -0.011876883
-0.04275297 -0.029515736 0.10472404 -0.05869293 -0.030755028 0.008985015 0.15420182 0.08413677
0.17547335 -0.17264073 -0.0529215 0.28963184 0.08336396 -0.12314391 -0.024754059 0.021687057
-0.056523368 0.0012779194 -0.07652839 -0.013167475 0.08203615 0.10375176 0.28039244 0.075062394
-0.15034178 -0.1290315 0.21485482 0.010255636 -0.052679762 -0.05427019 -0.009009646 -0.20761967
-0.090673 0.09870244 -0.10949113 -0.048453458 0.12501809 0.10767945 -0.1247472 0.21486299
-0.00070045737 -0.00836575 0.3305537 0.027235245 -0.022345308 0.015907953 0.008123073 0.12772493
-0.05427617 -0.11206665 0.019295622 0.17198816 -0.043060824 -0.015156548 0.15649931 0.017428441
-0.03339363 0.047672343 0.09588253 0.022795655 0.1548939 0.10522027 -0.07498905 -0.028824076
-0.14769308 -0.018445205 -0.016636664 0.13696828 -0.029274972 -0.03178322 0.13191693 0.12695597
-0.017534975 -0.025741091 -0.060449388 -0.03765235 0.017029472 0.096308425 0.01626476 0.13468657
0.0905589 0.025873495 0.0030683812 -0.027511748 -0.10523925 -0.01921641 0.19296604 0.1309064
0.064677484 0.07153768 -0.11833653 0.137429 -0.08001238 -0.015352189 -0.04659318 -0.032645855
0.00882752 -0.016251866 -0.095747 -0.14639181 -0.046298716 -0.1221454 0.1509808 0.11691934
-0.0943118 0.12518577 -0.019363899 0.111875504 -0.13298419 0.055779226 -0.14031756 0.14550905
0.0651496 0.014643039 -0.009026446 0.08930327 -0.0004922856 0.18736123 0.10654007 0.071843125
0.10472638 -0.16701484 0.35622376 0.07349698 -0.051567756 -0.027466109 -0.0019100574 -0.025263412
0.049434267 0.04580291 -0.0021075439 -0.0047820997 -0.07866841 0.038829245 -0.042763762 0.11596329
0.0713146 0.27435106 -0.09942 0.13980809 0.026362345 0.047862813 0.09074394 -0.18397605
0.03654466 0.0040143705 0.21136129 0.19250049 -0.15526524 -0.12353958 0.27613652 0.083513
-0.13540581 -0.13995402 0.16316627 0.01526531 -0.012425072 -0.07092392 0.05908767 -0.09906917
0.12817822 -0.09146185 -0.1404078 -0.115559675 -0.043271016 -0.18188353 0.173592 0.054805342
-0.107363425 -0.037386317 0.06504922 -0.13909478 -0.04861137 -0.064081885 -0.030739237 0.08471132
-0.09240565 0.046291016 -0.039710194 -0.005390173 -0.1137334 -0.036815003 -0.16082804 0.18300337
-0.1542858 -0.0010027352 -0.05606382 0.109356135 0.16825052 0.01115859 -0.12891401 -0.033713445
0.1445742 0.17750835 0.16552709 0.057293113 0.15663911 0.061651066 0.16218728 -0.015288973
-0.019030469 -0.18726292 0.279214 0.18426427 0.021757435 0.026941061 -0.102105066 0.032113276
-0.019113917 0.013694516 0.19887246 0.11330866 -0.02500332 -0.21544543 -0.032749064 0.17522745
-0.06512964 -0.07194094 -0.09979653 0.068881236 0.010875675 -0.13229527 0.0048204227 0.07642961
-0.24142452 -0.003484514 -0.012979024 0.04412401 -0.22165626 0.03097355 0.044551607 0.012625891
-0.079883166 -0.03915384 -0.032670565 0.3093036 -0.0433696 0.04967906 -0.194395 -0.075158894

network_body.observation_encoder.processors.0.conv_layers.2.bias f4 [32]
00000000: f90d 44bc 3d83 70bd ff19 713d 8a65 943c
00000010: 3465 cf3c a3cd 0a3c 8d93 943d 7d9e 983d
00000020: bf83 4e3c 15ca e33d 4023 eb3d 4d51 003e
00000030: 4d12 833d 95b9 513d 8643 cd3c 89a0 4abe
00000040: 849d f4bc bf81 513d 81c0 cfbc 4818 1d3d
00000050: a483 62bc 3539 763d a08e 4c3d 6b20 f03c
00000060: 8ad1 b6bd 8c51 babd 8a11 783d d346 8abd
00000070: db9c 06bd 7465 a83d 211a 713d 4f5e 113d
-0.011966222 -0.05871891 0.058862682 0.018114824 0.025316812 0.008471879 0.072547056 0.07452104
0.012604653 0.111225285 0.11481333 0.12531014 0.06399975 0.051202375 0.025056612 -0.19787802
-0.029860266 0.051149126 -0.025360348 0.038353235 -0.013825331 0.06011315 0.049940705 0.029312333
-0.08926685 -0.09097585 0.0605636 -0.0675179 -0.032864433 0.08222476 0.05886281 0.03549033

network_body.observation_encoder.processors.0.dense.0.weight f4 [128, 32]
00000000: bcdc ee3d 288e c9be 7b5f 9abe c94c 283f
00000010: 5348 b0bd d4bc e7be 5bfa e0be 3ca5 5b3e
00000020: a92d 943d a815 453d e47b cd3e 30d3 23be
00000030: 741e 18be 50fd 64be 0cc2 45be 3812 84be
00000040: 68ee 2ebf 9c8a cabe 5010 013e 6d55 82be
00000050: 4a35 e53c c402 5a3e 3af1 6cbe d19e 693d
00000060: 5a1d c9be b1c0 133d a94e 81bd b578 6e3e
00000070: 9bc8 9f3d 4467 1c3f 5294 973d 9391 513d
00000080: 4943 c1be dd1a 3e3e db12 ee3d d78a 43be
00000090: d970 ebbd 4ea6 9fbd 1dc9 a23e 58de 1abe
000000a0: 6ef8 b5bc 98fd fb3e ad96 033d 6191 b73d
000000b0: e1d5 a73d dcb7 973e c66a 65bd aabe 14bf
000000c0: bba1 b83e 0a68 7abe 0962 c7bd dc64 193e
000000d0: c33c d93e cb8b e0be 5d94 273d 7120 44be
000000e0: 45a9 0bbd 3eef e2bb 803a 71be 951e b5be
000000f0: 3eb3 803e b31f 56bf 6158 613e 00dc fd3d
00000100: e3a0 e33e d95b b5bd 41ea 8dbe 05db 8fbe
00000110: 4184 fe3e aafc a9bd 6220 24bd d9ef b23e
00000120: 68c3 04be 07d7 15be 4db4 88be 3b21 0cbd
00000130: a04e b43e 2a8a 5dbe c557 af3d 39f1 d3bc
00000140: 588d 2d3d 63ff e4bd 68da 59bc 37d9 18be
00000150: 854e babe d4fc e33e 3992 ee3e 7f4b 383f
00000160: f033 813d 5878 013f 70fd c6bd a229 5d3e
00000170: 0819 283d 012e f73e 021b eb3e 4cf1 b5bd
00000180: b3fc 0d3d 5242 043d 3205 bf3d 4b72 f83c
00000190: 2aba 58be b4c2 4e3d 115e 89be 2d09 cabe
000001a0: 07ba 783d 3493 acbe 5c55 b8be d9c4 c2be
000001b0: 0168 c73e cffd 973e bdba 723e 75b0 283e
000001c0: 290e b7bc b909 7a3e fce7 cb3e 204c b9be
000001d0: 4b5f b3be 9bfb 79bd c2f0 833d 8bb7 103e
000001e0: 9961 56bd 1c21 b73e fb64 bbbe 188d 26bc
000001f0: f871 093e 8f98 b1be 843c 313e 8a47 23bf
00000200: 51e2 22bd fb0b 09be 30fc 89bb 57a5 2bbe
00000210: 9944 b8bd a0f4 613e 8c0f c5bd 4bfb 743d
00000220: 03a2 d2bd 1439 933e 284e 713e fd90 36be
00000230: 18bb 78be 9efa efbe e8e3 7bbe 2d5d 9b3e
00000240: 2412 0e3e 9cf3 023f 31de f0bd 2636 083d
00000250: 69ff 26be 7b35 ac3e d01f ec3d 18b4 943e
00000260: 0280 a83d 33b1 97be 402c b03d 12fb 64be
00000270: 6022 1ebc 1b56 333e c38f e03d d07d de3d
00000280: 3fac 21be a235 aa3e 93fc 93bc a799 eebe
00000290: d745 223e 9b34 213f 58be 9ebd 43c1 c73e
000002a0: 52d8 c83e d499 adbe d27c 463e 5b73 cf3e
000002b0: 4b17 2f3e ab60 543e d826 5e3f 057a e63e
000002c0: e156 083d 9db9 08be 8c25 aebd 82b4 d0bd
000002d0: 627f 1d3e 89ca 6f3e f483 283e 041e a4be
000002e0: 01fc 9c3e b278 5c3e 78b2 0a3e 9343 fcbe
000002f0: 0ee0 2abe ab45 db3e 0da8 623d 5941 0bbd
00000300: 7ebf 2c3e 55ac 243f 1eda b4bd b74e 33be
00000310: dd35 713e 79f3 7e3c ff13 1fbd 9fcf fa3e
00000320: dbe1 0c3e 6dfc 0b3e 03cd d6bb f240 88bd
00000330: a34d ef3e 214a 7b3e cc5b fa3e 5f83 043e
00000340: dde1 093f e929 b3bd 1684 83bd 2715 9abe
00000350: b1da 723d 3043 123e e0d8 bf3e 310e 503f
00000360: 8539 9d3e c67c c0be 3b47 e9be 526d d9be
00000370: 2e10 95be 6898 3b3d 6e66 e13e 4bab 0f3e
00000380: ddeb 05be b795 023f 836c af3e daf1 d83d
00000390: 083b cb3e 8d27 ef3e 9127 273d 8800 6c3e
000003a0: 0936 1abe 9680 aabe d6d2 6d3e a6b3 f3bd
000003b0: cbee 883e 9b9f e9be f4f6 d33e 74a4 cd3e
000003c0: 571d 743e d0e2 febd 975a 433d 0137 8abe
000003d0: 6e33 e33d c6a6 91bd bf67 923e 8c06 6c3d
000003e0: d87e 893e e12b 5d3e 4069 a53e 459d 483e
000003f0: b927 8dbe b4f1 1dbe ce12 583e 3441 83be
0.116631955 -0.3936627 -0.3015097 0.65742165 -0.08607545 -0.45261252 -0.43941006 0.2144975
0.072352715 0.048116356 0.40133584 -0.1599853 -0.14855367 -0.22362256 -0.19312304 -0.2579515
-0.6833253 -0.39558876 0.12603879 -0.254558 0.027979512 0.21290118 -0.23138896 0.057036225
-0.39280206 0.036072437 -0.06313831 0.23288234 0.07801934 0.6109507 0.07401337 0.05116422
-0.37746647 0.18564935 0.1162469 -0.19095932 -0.11496133 -0.07795392 0.31794062 -0.1512388
-0.022213187 0.49216914 0.032126117 0.08963276 0.08195091 0.2963246 -0.05601003 -0.5810343
0.3606089 -0.2445375 -0.097354956 0.14979881 0.4242917 -0.43856654 0.040912975 -0.19153
-0.034096975 -0.0069254925 -0.23557472 -0.35374895 0.2513675 -0.8364212 0.2200637 0.12395477
0.44458684 -0.08855409 -0.27717784 -0.28096786 0.49710277 -0.08300145 -0.040069945 0.34948614
-0.12965167 -0.14632808 -0.2670006 -0.03421138 0.35216236 -0.21634737 0.085616626 -0.02587186
0.042371124 -0.11181524 -0.013296701 -0.14926611 -0.3638803 0.4452883 0.46595934 0.719902
0.063087344 0.50574255 -0.09716308 0.21597913 0.041039497 0.48277286 0.45919043 -0.08883914
0.03466482 0.03228981 0.09327163 0.030327937 -0.21164766 0.050478652 -0.2682958 -0.39460126
0.060724284 -0.33706057 -0.36002624 -0.38040808 0.38946536 0.29685828 0.23704048 0.16473563
-0.02234562 0.24417771 0.39825428 -0.3619089 -0.3503364 -0.061030965 0.06442405 0.14132516
-0.05233917 0.35767448 -0.3660048 -0.010165475 0.13422382 -0.34686705 0.17308241 -0.63781035
-0.039766613 -0.13383476 -0.0042109713 -0.16762291 -0.08997459 0.22065973 -0.09622106 0.059809964
-0.102848075 0.28754485 0.2356497 -0.17828746 -0.2429012 -0.46870893 -0.24598658 0.30344525
0.13874108 0.5115297 -0.1176113 0.033254765 -0.16308369 0.33634552 0.11529505 0.2904365
0.082275406 -0.2962738 0.0860219 -0.223614 -0.00965175 0.17513315 0.1096492 0.108638406
-0.15788363 0.33244044 -0.018064773 -0.46601602 0.15846954 0.62970895 -0.07751149 0.39014634
0.3922754 -0.33906424 0.19383553 0.40517697 0.1709873 0.20740001 0.8677802 0.4501497
0.03328598 -0.13352056 -0.08503255 -0.10190679 0.15380624 0.23417105 0.16456586 -0.3205415
0.30661014 0.21530417 0.13544643 -0.49270305 -0.16687033 0.4282659 0.055336047 -0.033997867
0.16869923 0.6432546 -0.08830665 -0.17510496 0.23555703 0.015560978 -0.03883743 0.48986527
0.13758032 0.13670512 -0.006555201 -0.06653012 0.4673892 0.24539997 0.4889816 0.12940739
0.53860265 -0.08748228 -0.06421678 -0.30094263 0.05929059 0.14283442 0.3747015 0.81271654
0.30707946 -0.37595195 -0.45562157 -0.42466217 -0.29113907 0.045799643 0.4402346 0.14030187
-0.13078256 0.51009697 0.34262475 0.105930045 0.39693475 0.46709862 0.040809218 0.23047078
-0.15059675 -0.33301228 0.23224959 -0.118994996 0.26744685 -0.45629582 0.41399348 0.4016453
0.23839317 -0.12445605 0.047693815 -0.2699509 0.11093794 -0.07111888 0.28594777 0.05762343
0.26854587 0.2159877 0.32306862 0.19591244 -0.27569368 -0.15424234 0.21100923 -0.25635684

network_body.observation_encoder.processors.0.dense.0.bias f4 [128]
00000000: 55a3 e13d 79f2 543e 1c28 a5bc 6a6c e8bd
00000010: 933c a2bb 07d0 983b 03e9 8ebd cd44 fd3c
00000020: 58c9 c33d e855 1a3d 2e3f 7cbb f474 1f3e
00000030: 7157 583d 6ef2 693e aa8d 66bd 77f4 adbd
00000040: e970 06bd 1bfe 293e 62c7 9dbc 0362 e03d
00000050: 06cc 75bd 2548 863d e3fc e2bc 3e55 28be
00000060: ebfa 64bd 9378 36bd 9044 113e bd62 2e3e
00000070: ebbf b63a bffc 413d f88a 413d a036 313e
00000080: b736 d13c 2a11 af3d 87c9 3ebd e006 02bd
00000090: ecd1 1abe 0e90 d0bb a2ff f93c 905f a8bc
000000a0: eea4 203e 0e5f c83d 412a c03d ff06 a4bc
000000b0: cfe2 4b3c c037 17be f928 29be 8370 033e
000000c0: c254 a1bd 37fc 3e3e a1e2 233e 3c8a eabc
000000d0: 34d6 cdbc 00de 173d a209 db3c 0a92 8cbd
000000e0: 1602 37bd 2665 263e c386 93bd 9e9e eb3a
000000f0: fd6e 213d 2d76 a4bd caeb 7f3c 3781 803c
00000100: ab3d 6a3d 6f5c a43c 8586 b8bc 39df bebd
00000110: 603a 18bd f8e1 bb3c 29ff 43bc 13bd 1b3d
00000120: 25c7 da3d 9893 8d3c bc4d 78bd f233 103d
00000130: ab12 80bc ba7b 993c 34e1 0bbe 4801 a73d
00000140: 2f20 c23d 0342 da3d 163c 113e 7798 f6bd
00000150: c81f 92bd aa58 4c3d 5564 5c3d ec54 b43d
00000160: e5fa 713e 1643 033d f7da c53d 3d4d 7a3d
00000170: 14f4 42be 2dd9 cebd d2a0 563d bf70 6e3c
00000180: a4d8 7ebd 6cfe 443c 8595 273c 9890 a0bd
00000190: 3236 7d3b db15 1d3e 4922 aa3d 49d2 223d
000001a0: 2dfe f43d 9790 383e d143 ef3c 2842 c2bc
000001b0: 0f96 58bc 2566 113d 2d06 1e3e 5743 f0bd
000001c0: 9117 6dbc 62bf 263d b770 43bb 5eea 393e
000001d0: a78e 9a3b 9153 eebd 611c 9cbd 7d63 0c3e
000001e0: d9c4 f73c 543d 90ba b8e4 0ebd fda0 213e
000001f0: 507e 323e 3647 bc3d 4bc0 d1bb fde6 e7bd
0.11017481 0.20795621 -0.020160727 -0.11348803 -0.0049510687 0.0046634707 -0.06978037 0.030916596
0.09559888 0.037679583 -0.0038489806 0.15571958 0.052817766 0.22846386 -0.056287445 -0.084938936
-0.032822523 0.1660084 -0.019260112 0.10956194 -0.060009025 0.06556729 -0.027708476 -0.16438767
-0.055903357 -0.044548582 0.14186311 0.17029853 0.0013942694 0.047360178 0.04725167 0.17305994
0.025538785 0.08548196 -0.04657891 -0.031744838 -0.15119141 -0.006364829 0.030517403 -0.02055338
0.15687916 0.09783755 0.09383059 -0.020022867 0.012444212 -0.1476736 -0.16519536 0.12835889
-0.078774944 0.186509 0.16004421 -0.028630368 -0.025126554 0.03707695 0.026737992 -0.06863792
-0.044679724 0.16249523 -0.07203438 0.0017976349 0.039412487 -0.08030353 0.015620181 0.015686614
0.057187717 0.020063607 -0.022525081 -0.0931992 -0.037165046 0.022934899 -0.01196269 0.038022112
0.10682515 0.017282292 -0.06062101 0.03520579 -0.015633902 0.018735755 -0.13660127 0.08154541
0.09478795 0.10657122 0.14183077 -0.12040799 -0.07134968 0.049889244 0.05380662 0.0880526
0.23630865 0.0320464 0.09660905 0.061108816 -0.19038421 -0.10100017 0.052399464 0.014553248
-0.062218323 0.0120235495 0.010228519 -0.07840079 0.003863704 0.15340368 0.083073206 0.039751325
0.11962543 0.18023907 0.029207142 -0.023713186 -0.0132193705 0.035497803 0.15432043 -0.11731594
-0.014470951 0.04070986 -0.0029821822 0.1815581 0.0047167125 -0.11637033 -0.076226 0.13709827
0.030245231 -0.0011004605 -0.034886092 0.15784068 0.17430997 0.0919327 -0.006401097 -0.113233544

network_body._body_endoder.seq_layers.0.weight f4 [128, 239]
00000000: a786 1bbe ec9f 3ebe a51a 193d 0a33 303d
00000010: ff41 7abb e42d 823e b823 163d c4c5 aabb
00000020: 3058 973e 48c1 ad3d 82d8 55bd 76d9 a6bd
00000030: 880f 6c3d 6bf2 e63d 1da4 a43b b7d2 063e
00000040: 58b6 7a3e 1537 55be 65fd 7d3e 9d1d 77bd
00000050: f4c0 31bd 484d 3fbd 12f0 f43d 897b 4dbe
00000060: 5978 8bbd a8dd e73d de05 50bc 1860 97bc
00000070: c2b0 1e3d 61fb 973d 9473 873e fb23 ec3c
00000080: 78aa 0a3d 2b74 a13d 4a58 653d 304d ebbd
00000090: b2f8 e23d 7a86 0c3e dffb 8e3d 07f6 553e
000000a0: 348e cc3c 5e87 483c 86cf af3d b0bb 4c3e
000000b0: 4937 cb3d 1736 483e 41c3 3d3e 0450 693d
000000c0: c0d7 3fbd df52 a13d 1e45 e1bd f3eb db3d
000000d0: 224b 193e 221c 983d fb83 403e 9bbb 293e
000000e0: 3957 773e 24d6 c8bb e964 a63d ca2f 2ebe
000000f0: 335f 4dbe 7db5 2a3b 1482 193d d9ba ffbd
00000100: c25c b4bd 244e 9abc aa7b 013d 0931 773d
00000110: 4e49 973c 9909 04be 973b 0abd 1a74 3a3e
00000120: 61f1 f63c ac90 33bd d261 7e3d f38d f9bd
00000130: 1169 15be 278d 3cbe f9ad 873e b9c8 2f3d
00000140: b921 05be 7112 023d a22c 143d 592d 393e
00000150: 6005 833d eed1 a83c 9dc6 2dbd bd7a ee3c
00000160: bb31 863d 950f c0bd ee4a 8a3d 74a8 35bd
00000170: 0595 44bd 43c3 533e f9ca 053e b01f 113e
00000180: d68a 0b3e e520 e63d ac7a febc 920b 7a3b
00000190: b65b 0fbc 4031 553d 6421 1e3e b56b c8bd
000001a0: 7aaa 803d 4505 eabd 9f7d 213c c806 ac3d
000001b0: 2422 d43d caa7 4dbe 1ee6 b9bd d84e 41bc
000001c0: f6e2 673e eb0c 5ebe 8754 103e 668a 3cbb
000001d0: 9a53 4abe 2722 cd3d f21a 38be 89c9 5fbc
000001e0: 1e4c 7cbe cab3 833e 2793 d5bc 3195 053d
000001f0: d4f8 0a3e 0135 493c 845e 8c3c 524e 8bbd
00000200: f52b a4bc 3d63 7d3e 9a97 9e3c db6a 31be
00000210: 65f6 1e3c 551d 91bd 7c9d 423d cb50 4f3e
00000220: 6e9f 103e 4a62 593e c8b1 72be 6c90 543e
00000230: ce6a 32be 5664 c93d 0613 0a3d 14c0 193e
00000240: b63a 353e eaf6 79bd 04bd 5fbe 2243 17be
00000250: c794 2a3d 8c3e 513e 0e27 f2bd 769f 2a3e
00000260: 6f1a 1f3c 92a6 403d 8d84 ac3d 047d 663e
00000270: 32ce 103e 7ae6 593c 288f 803e 4daa 603d
00000280: 9d00 8ebe b8f0 cf3d 9f5a f53d dcb1 7c3e
00000290: 6d64 e33e 447e 1fbe cd32 80bc b2fa 29bb
000002a0: d25a 5ebe e336 c73d 8559 813e 36cc d93e
000002b0: e430 30be 452c a1bd e552 3b3e 0b43 a3bd
000002c0: 9ace 123e c01a 233e 2537 243e 89b4 48be
000002d0: afaa 8c3d 25f1 b5bd 3d18 a9bd 9620 dd3d
000002e0: 1fe7 b1bc 56bc 8dbd 7aa9 0e3d 6da3 0d3d
000002f0: bf09 67be f52e 253d 9da9 393e 302e 843d
00000300: 8080 e83c 68d1 0b3e 1065 083e 43b5 68be
00000310: e893 793e 9488 923d 9370 3c3e 27a1 823d
00000320: 7947 9c3d 9cd2 9abe bbbc 7c3e 71db cbbd
00000330: 6328 dfbb 4b32 b2bb b441 763e ad1a e03d
00000340: 2164 1ebe b068 853e d9b8 c0bd 932e 4c3e
00000350: caff de3d 627c 663d 3439 c23d 40f6 fc3c
00000360: 1fc9 5d3d 0c4d ed3c bbd3 b53d 14a5 483e
00000370: d626 c4bd bea5 973d b17d 4abe fd9d 4cbe
00000380: 7fc0 8e3e 0dea 563e 01e6 973e 341b 023e
00000390: a3c8 fd3d 199b a4bd e039 76bd 9e1d a43d
000003a0: 2ecf ee3d 3027 95bd 423e d13e 1ca8 34b9
000003b0: 666d 0f3e 423b 09be 7002 823e c348 6a3d
000003c0: 1730 993a d93e fcbb b9d4 02be 0999 533d
000003d0: a224 63bd 804b 31be 582e 393c 25d7 88bd
000003e0: 855b e6bc f843 7abd 650b 283c cb37 17bd
000003f0: 63bb fabd bcb1 bcbd 638c 12be 8fc7 e5bd
-0.15188085 -0.18615693 0.037378926 0.043017425 -0.003818631 0.25425637 0.036655158 -0.005211564
0.2955947 0.08484131 -0.05220843 -0.08146946 0.057632 0.11276706 0.0050244466 0.13166319
0.24483621 -0.20821793 0.24803694 -0.060330976 -0.043396905 -0.04670456 0.11959852 -0.20066656
-0.06810064 0.113215744 -0.012696711 -0.018478438 0.038742788 0.074209936 0.26455367 0.02882575
0.033853978 0.078834854 0.055992402 -0.11489332 0.11082591 0.13723174 0.06981634 0.20894633
0.024970151 0.012239305 0.08584504 0.19993472 0.09922654 0.19551884 0.18531515 0.056961074
-0.046836615 0.078771345 -0.10999511 0.10738363 0.14970067 0.07427241 0.18800347 0.16575472
0.24154367 -0.006129043 0.08124716 -0.17010418 -0.20055847 0.0026048117 0.037477568 -0.1248681
-0.08806755 -0.018836088 0.031612076 0.060349498 0.018467572 -0.12894286 -0.033748236 0.18208352
0.030144395 -0.04383914 0.062105007 -0.12185278 -0.14590861 -0.1841322 0.26499918 0.042916033
-0.13001145 0.03175587 0.036175378 0.18083705 0.063975096 0.020607915 -0.04242574 0.02911126
0.06552454 -0.09377972 0.06752573 -0.044350103 -0.04799368 0.20679955 0.13065709 0.14172244
0.1362718 0.11236743 -0.031064354 0.003815387 -0.008749893 0.05204892 0.15442425 -0.097861685
0.06282516 -0.11426786 0.009856611 0.08399731 0.10358074 -0.20083538 -0.090770945 -0.011798583
0.22645172 -0.21684615 0.14094745 -0.0028769015 -0.19758454 0.1001628 -0.17979029 -0.01365889
-0.24638411 0.25723106 -0.026071144 0.032612983 0.13571483 0.0122807035 0.017134912 -0.06802048
-0.020040492 0.24744888 0.019359399 -0.17325918 0.0097023 -0.07085673 0.04751347 0.20245664
0.14123318 0.212289 -0.2370063 0.20758218 -0.17423555 0.09833591 0.03370955 0.15014678
0.17698178 -0.06102649 -0.21849447 -0.14771703 0.04164579 0.20434016 -0.11823855 0.16662392
0.009710892 0.047033854 0.084237196 0.22508627 0.14141157 0.013299579 0.2510922 0.05484991
-0.27734843 0.10153335 0.11980175 0.24677223 0.44412556 -0.1557551 -0.015649224 -0.002593678
-0.21714333 0.09727266 0.2526361 0.42538613 -0.1720615 -0.07869772 0.1829334 -0.07971772
0.14336625 0.15928173 0.16036661 -0.19600119 0.06868493 -0.08883885 -0.08256576 0.10797231
-0.021716652 -0.06920688 0.034829594 0.034579683 -0.22562312 0.040327985 0.18131109 0.06454122
0.028381586 0.13654101 0.13319802 -0.22725396 0.24372828 0.071549565 0.18402319 0.063783936
0.0763082 -0.30238807 0.2468137 -0.099539645 -0.0068102344 -0.0054381243 0.24048501 0.10942588
-0.15467884 0.26056433 -0.09410257 0.19939642 0.10888632 0.056270964 0.09483567 0.03087914
0.054146882 0.028967403 0.08878275 0.19594222 -0.0957772 0.0740466 -0.1977451 -0.19982143
0.27881238 0.20987721 0.29667667 0.1270569 0.12391784 -0.08037395 -0.060113788 0.080134615
0.1166061 -0.07282865 0.4086781 -0.00017228763 0.14006576 -0.13401511 0.25392485 0.057198297
0.0011687306 -0.0076979217 -0.1277646 0.051659618 -0.055454858 -0.17313957 0.011302553 -0.066816606
-0.028119812 -0.061099976 0.010256623 -0.036918443 -0.122427724 -0.09213588 -0.14311366 -0.112197034

network_body._body_endoder.seq_layers.0.bias f4 [128]
00000000: 053a af3d 176d 62be e96a 203d b9f2 44bb
00000010: b863 d83c c580 26be 39b0 9abd b795 f73c
00000020: 617f 98bd 6d1e efbd dc09 debc 6649 48bd
00000030: 058a 70bd b9e6 a4bd 2e0a 15be 0f58 40bd
00000040: e605 603d e223 ccbd c807 f03d 2e46 c0bd
00000050: d46c 793b 6fec 013e eaa5 c63d f822 40bd
00000060: a77c 07bd b453 d6bb 8158 673c 3f43 003a
00000070: 55f6 a63d c8eb d2bd 0a2e 83bd 7c99 7dbd
00000080: 52ba 2d3e b1b0 3ebd 2e29 35bd 700b 573e
00000090: 48d3 d1bd 3f62 a13c 7baa 6bbd 2b19 1abe
000000a0: 7874 d5bd bf0d 24be 89be 233d a0e6 a43a
000000b0: 99d6 c6bd 28a4 c03c 2ea5 803d b961 06bd
000000c0: 5be1 933c 45c9 9cbd 36bd 11be e93d 37be
000000d0: debd 02be 2557 8abd b907 9fbd bc60 81bd
000000e0: 1ce3 493d e272 10be de2f b8bd a086 98bd
000000f0: 3b84 dfbd 0d87 0cbe b655 39bc bab6 153e
00000100: ce37 2abe a3b0 eebc 2d68 86bd b686 38bd
00000110: e914 aa38 4a1a 85bd 9366 afbd af92 6abc
00000120: 589b f8bd 1255 093e 80c9 833b 8985 0ebe
00000130: 75fd 16bc e2c4 b0bd 84cf a5bd b18a 723d
00000140: 27e4 84bd b7ba 913d 61fd 10be 4382 7fbd
00000150: 0b82 143e f758 7b3c 7340 b3bd 97e7 10be
00000160: e886 0b3e 53d0 92bd 4a04 503d c97d a1bd
00000170: 92e9 d13d b2c1 ba3d d9b5 2abe b8cb 40be
00000180: 0ff6 a4bd e882 f83d bce8 1cbe c9e4 a03d
00000190: 553f 9e3d 788d 45be ff16 9bbd ff72 02be
000001a0: c4d9 d8bc f267 2ebe d5e3 e8bc af55 ffbd
000001b0: eb27 debd 4e0a 2f3d fe8e 56be d647 0ebe
000001c0: 9335 7a3d c5f9 1a3e 1485 23be d36e 62bd
000001d0: 82d3 54bc cdbf d23d 1ae9 09be c595 cebd
000001e0: 9106 34bd 6244 d4bb d457 28bd 8234 5c3c
000001f0: 0f5c 35bd 53df 173c 917f 8e3d e2bf 463e
0.08555988 -0.22111927 0.039164457 -0.00300519 0.026414737 -0.16260059 -0.07553143 0.030222757
-0.074461706 -0.11675725 -0.02710431 -0.048898123 -0.058725376 -0.08051819 -0.14554664 -0.04695898
0.054693125 -0.099677816 0.11720234 -0.09388386 0.0038059251 0.12687849 0.09699614 -0.04690835
-0.033077862 -0.00654074 0.014120222 0.0004892833 0.08152453 -0.10298878 -0.06405266 -0.061913952
0.16965607 -0.046555225 -0.044228725 0.21000457 -0.10245377 0.019700168 -0.05753563 -0.15048663
-0.10422605 -0.16020869 0.03997663 0.0012580939 -0.097089 0.023515776 0.062815055 -0.03280804
0.018051794 -0.076555766 -0.14232334 -0.1789471 -0.12767741 -0.06754903 -0.07765145 -0.06317279
0.049288854 -0.14106324 -0.08993505 -0.07447553 -0.10913893 -0.13723393 -0.011311939 0.14620486
-0.1662285 -0.029136961 -0.06562839 -0.045050345 8.1101265e-05 -0.06499155 -0.08564486 -0.014317199
-0.121390045 0.13411358 0.0040218234 -0.13918127 -0.009215702 -0.086313024 -0.08096221 0.059214298
-0.06488829 0.07115691 -0.14159156 -0.062380087 0.14502732 0.015341035 -0.08752527 -0.14150845
0.13625681 -0.07168641 0.05078534 -0.0788532 0.10249628 0.09118976 -0.16670932 -0.18827713
-0.080547445 0.121343434 -0.15323156 0.07856137 0.077269234 -0.19292247 -0.075727455 -0.1273918
-0.026471026 -0.1703184 -0.028428951 -0.12467515 -0.108474575 0.042734437 -0.20952985 -0.1389459
0.06108625 0.15134342 -0.15968734 -0.05528147 -0.0129898805 0.10290489 -0.13467827 -0.1008716
-0.043951575 -0.0064778784 -0.041099384 0.013440253 -0.044277247 0.009269553 0.06957925 0.19409135

network_body._body_endoder.seq_layers.2.weight f4 [128, 128]
00000000: 828f 053e ff0c d6bd 3c38 89bd d0d5 e8bd
00000010: 53e0 eebd df7b a53d fe7a b93c 60fb cf3c
00000020: 3fd5 40be cb78 0d3d 6208 c33c 786c 7ebe
00000030: 4c9d 75be b1ab 47bd 3368 65be 809f 0abe
00000040: b5ac ddbd bcaf 96bc c6b2 2cbb cb5e b3bd
00000050: 9fea bebc ced5 9f3e e4a3 483e bdb2 903d
00000060: 90cd 663e ed79 133e 2207 88bd 3494 d2bd
00000070: 6369 8bbd fb20 f7bd bdc3 fbbc e094 31be
00000080: 8110 2f3d 59a4 b4bd f8cc 0dbc 44b3 063c
00000090: 5851 22be c83b a43d 285d 803d 6526 d7bd
000000a0: 7c95 433d f194 ef3b e100 eb3c f997 f53d
000000b0: 1937 bcbd 772a 603e 0aff 273e 95aa 023e
000000c0: 8332 233e 5acb dcbc 6026 fb3d 928c 1ebc
000000d0: 1e17 163d 90ae eebc c60f 7abd 4092 633e
000000e0: 7b96 95bb f993 a73d 1043 1bbd 6783 77be
000000f0: d98e 6ebd 57a4 5cbe af79 893d 7f2e bebd
00000100: c06d f73d 2deb b83d 15d7 ff3d d945 973d
00000110: 8ff3 313e dc41 e5bd 7a15 8f3e a949 75bd
00000120: be92 55be e203 49bd 4286 a93d 45da 563d
00000130: 4f5d f8bd 9810 0dbe 7841 abbd 4fce 1fbe
00000140: 5372 6dbe 89ea 113e 9022 b9bd 096a 293d
00000150: 26e2 2dbe c033 32bd 77c3 eebe 4c19 b7bc
00000160: d92d f63c fd9e 8ebc fc3d 82be b5a6 bebd
00000170: 808a bebd 58ad 163e 5efa 0e3e 3756 733e
00000180: cabc 5fbe 28a9 00bc 5997 4f3e ae2a 70bd
00000190: 8c2c 4bbe ec0f 983e 8bce 82be ec9c 25bd
000001a0: ec86 703d 0a3d b03d 98ad a6be 3319 f93d
000001b0: 221a b1bd 52e9 5d3d 772a a4bb 22bc d3bc
000001c0: 37ba 6abe 06dd bdbc 5b24 8dbe a634 02bd
000001d0: 967f 053e d800 0a3e 8b6b 0ebe 32bd 4bbd
000001e0: e867 ec3c e274 0bbe 4863 97bc 4987 4c3e
000001f0: e2ab e4bd 643c 2fbd 409a ee3d 5ae8 3f3e
00000200: 6dc5 b3bc 587a 2abd 376a c5be dcaf 213c
00000210: ddfb ecbc 3f05 83be 7310 853e 8836 663e
00000220: 7791 d73c 96bd 903c f5a7 4f3e 992a 63be
00000230: 59c2 3ebd dc86 b33d 9b16 89bd 78d0 49be
00000240: 9365 31be dab9 ccbd 9aa6 4abe 4d53 773e
00000250: 62c7 28bc 89c1 ea3d d78e 053e f381 2f3e
00000260: 5f14 79bd 3ead 943e 595f d1be b7db 233d
00000270: 3187 19be 4d60 3dbe 4a34 a7be 0b66 10be
00000280: 2950 243e b312 063e b036 ffbd 068e 863d
00000290: 72fb 0abe e1b2 4c3e 3893 203e 6b98 65bd
000002a0: ce4b 5dbe 7df5 9cbe a67f d0be 91d2 373e
000002b0: 56e2 de3c ba82 3fba cdb4 593c 7d56 903c
000002c0: 1a23 f1bd 4b67 343d 3bb0 80bd 4eaf 93bd
000002d0: 40bf 1f3d e086 863e 34b4 ed3d b14b e63d
000002e0: ac9e b0be 2ade e73d 2c25 29be f37c 3fbd
000002f0: 8e34 4c3e 0085 f03b 4921 9e3e 1504 8bbb
00000300: 93b2 87be dbe8 57be d153 6dbe 2d98 083e
00000310: fa0e 9c3e 60fc 90bc 9b16 df3c 41d9 c23d
00000320: ff08 e3bd b838 f63c dc6a a8be b457 36be
00000330: e2ad 97be 1360 b9be e819 c6bc 41af 8dbd
00000340: 36b9 f2bd 0c4e 9bbe e07c 1cbe 461e 3a3d
00000350: 8b08 883d 60f9 603e 484d 2cbd 44f5 e1bd
00000360: 685c 65bd 470c ab3d 3390 a2bd cbee 57bd
00000370: 3870 f53d 472b 16be 9a3a 383e 0296 50bd
00000380: e93b eebd 8baa 653e 4bd2 68be b20f 3f3e
00000390: b18a 003e 8905 6c3c ed80 4a3e 69f6 15be
000003a0: 2f93 cb3e 6487 793b 5bfc 50be c735 62be
000003b0: 4b3f 703e 0573 29bd b8c4 84bd 0f4a bd3d
000003c0: 2d74 02be c489 03bd 41e1 ae3d baa8 04be
000003d0: 5cdf 7bbe abb9 87bd ca86 0bbd 691d 2fbd
000003e0: 6086 6c3e 08c3 06be bb67 233e 5e52 b43e
000003f0: 0d8a 2ebe 2c2d 233e 397f 813e 3740 a23e
0.13043025 -0.104516976 -0.06700179 -0.113689065 -0.1166388 0.08080267 0.022641655 0.02538842
-0.18831347 0.034539025 0.023807708 -0.24846065 -0.23985785 -0.048747722 -0.2240303 -0.13537407
-0.10823957 -0.018394344 -0.0026351674 -0.08758315 -0.023305235 0.31217808 0.1959377 0.070653416
0.22539353 0.1440198 -0.066419855 -0.10282174 -0.0680721 -0.120668374 -0.030732984 -0.17341948
0.04274035 -0.08820409 -0.008654825 0.008221451 -0.15851343 0.08019215 0.06267768 -0.1050537
0.04774998 0.0073114564 0.028686943 0.11991877 -0.091901965 0.21891199 0.16405883 0.12760384
0.15937237 -0.026952434 0.12263179 -0.009677069 0.03664314 -0.029135972 -0.0610502 0.22223759
-0.004565058 0.081825204 -0.037905753 -0.2417122 -0.0582417 -0.21547066 0.067126624 -0.09286212
0.1208148 0.09029231 0.124921955 0.07386369 0.17378066 -0.11194202 0.27946073 -0.0598847
-0.20856759 -0.04907597 0.08277561 0.05245425 -0.12127172 -0.13775861 -0.083620965 -0.15606044
-0.23188142 0.14249624 -0.090397954 0.04136089 -0.169808 -0.043506384 -0.46633503 -0.02235093
0.030051159 -0.017409796 -0.25437915 -0.093091406 -0.093037605 0.14714563 0.13962695 0.23763357
-0.21849361 -0.00785283 0.20272578 -0.058634453 -0.19841212 0.29699647 -0.25548205 -0.040432855
0.05872242 0.08605392 -0.32554317 0.121630095 -0.086475626 0.05417759 -0.005009945 -0.025846545
-0.22922598 -0.023176681 -0.275668 -0.03178849 0.13036951 0.13476884 -0.13908212 -0.049740978
0.02885814 -0.13618806 -0.018479958 0.19973482 -0.111655965 -0.042782202 0.116505146 0.18740979
-0.021944726 -0.041620582 -0.38557598 0.009868588 -0.028928692 -0.2558994 0.25989112 0.2248174
0.02631448 0.017668527 0.20278914 -0.22184218 -0.046572063 0.08765957 -0.06693765 -0.19708431
-0.17323904 -0.09996386 -0.19790116 0.2415287 -0.010301443 0.11462695 0.1304277 0.17139415
-0.060810443 0.29038423 -0.40893057 0.04000446 -0.14992978 -0.18493767 -0.3265708 -0.14101426
0.16046204 0.1309307 -0.12461603 0.065700576 -0.13572481 0.19990112 0.1568116 -0.05605356
-0.21610948 -0.30656043 -0.40722388 0.17951418 0.027207535 -0.00073055516 0.013287735 0.017619366
-0.11774273 0.04404382 -0.06283613 -0.07211171 0.03900075 0.26274776 0.11606637 0.11244906
-0.34496057 0.11321671 -0.16518086 -0.04675002 0.19941923 0.0073400736 0.3088477 -0.00424243
-0.2650343 -0.21084921 -0.23176505 0.133393 0.30480176 -0.017698467 0.027232459 0.09514094
-0.110857 0.030056342 -0.32894027 -0.17806894 -0.2962485 -0.3620611 -0.024182275 -0.06918193
-0.118517324 -0.30332983 -0.15282011 0.045439027 0.066422544 0.21970129 -0.04206589 -0.11033109
-0.05599633 0.08351951 -0.0793766 -0.052717965 0.11984295 -0.14664946 0.17991105 -0.05092431
-0.11632521 0.22428338 -0.2273647 0.18658331 0.12552907 0.014405617 0.19775744 -0.1464478
0.3976073 0.0038075084 -0.20408766 -0.22090827 0.23461644 -0.041369457 -0.064828336 0.09242641
-0.1273963 -0.032113805 0.085390575 -0.12954989 -0.24596924 -0.0662721 -0.03406409 -0.042752657
0.23098135 -0.13160336 0.15957539 0.3521909 -0.1704485 0.159352 0.25292376 0.31689617

network_body._body_endoder.seq_layers.2.bias f4 [128]
00000000: f3b8 69bc 1c5a a43d 6d12 a5bd 3b23 f63d
00000010: 5269 0dbd 3086 8ebd a666 043e 4a70 913d
00000020: 4c66 76bd 83a3 c2bd 7b95 05be 8456 75bd
00000030: 5107 d2bd 826a b23d 5788 89bd 1187 aebd
00000040: 4db9 e53d 557c d3bd dc9a 473d 1fdf aabd
00000050: 26f4 5d3e f01a c8bc 3e38 26bd acea 883e
00000060: 84fc be3d 3ec7 1cbd 2c5a 833e 1fc3 893b
00000070: 4d33 d2bc da06 1b3e 8b3a 33bc f7f9 5abd
00000080: 827c 073d 010b dfbd 98eb 973c f7c2 d33d
00000090: 2135 0fbd 9058 eebd 7fe1 b43d 28c2 f0bd
000000a0: 2004 8abd 30a9 c23d f90e b23d cf1b 9dbc
000000b0: c71b 373d f32c e7bc 19b5 b0bd 7d0c a7bd
000000c0: 07fe d3bc db64 343e 7299 cbbc 36de 633d
000000d0: 3e50 6dbd c674 6fbd e8ae 84bd 88ed 0ebd
000000e0: 5fd7 56bd 3c61 51bd cd51 abbc dd35 46bc
000000f0: 6d70 513d 3323 2cbd ecf0 3a3d c54c 11bb
00000100: 2d59 583d 90ea 18bd 17f1 c73c 7cc2 62bd
00000110: ddad 8abb e858 9d3d 3b69 1cbd 2473 76bd
00000120: a12b 0b3e 7c67 5dbd ca05 74bd 95f0 abbd
00000130: 2785 d7bd baac 81bc 03f7 693d e0ef cabd
00000140: 741f 3f3d c6c7 7b3d ef83 2fbe d1d3 293d
00000150: 7f0b 10bd 4e50 8bbd 49ba 0ebd 20e2 bebc
00000160: 70fe e3bd 77a2 01bd aa66 99bd a913 cb3d
00000170: 05a1 a6bc e828 d0bb 3597 b03b a6bb b93c
00000180: f39f 44be 5c80 13bd 1f99 c1bd 8a74 b6bd
00000190: ebff 003d e887 93bd 0c94 cd3d ffe3 e9bd
000001a0: b86d a7bd 0174 29bc 1319 37be b443 29bd
000001b0: a54a c5bd 6174 053d 188e b6bd 978f 81bd
000001c0: 1f68 c73d 2c2d 773d 1fa7 45bd 5eaa 40bd
000001d0: c1eb 133d 41c0 6d3d 6602 babd 9e61 7a3c
000001e0: 4543 78ba 054e 133d 1bd7 3cbd 8409 b7bd
000001f0: f04a 3cbd b260 f3bc 5f29 4f3d 455b 123e
-0.014265287 0.080249995 -0.08060155 0.120184384 -0.03452427 -0.06959188 0.12929782 0.071014956
-0.06015615 -0.09503844 -0.13045304 -0.05989696 -0.10255302 0.08711721 -0.06715458 -0.085218556
0.11216984 -0.10326449 0.04873167 -0.08343338 0.21675166 -0.024426907 -0.04058098 0.2674154
0.09325507 -0.03827595 0.25654733 0.0042041685 -0.025659228 0.15139332 -0.010939251 -0.05346104
0.033077724 -0.10890771 0.018544957 0.10339921 -0.034962777 -0.11637986 0.088320725 -0.11755782
-0.06739068 0.09504926 0.08694262 -0.0191783 0.044704225 -0.028219676 -0.08628292 -0.08156679
-0.025877966 0.17616598 -0.024853442 0.05563184 -0.057937853 -0.058460973 -0.06478673 -0.034894496
-0.052451488 -0.05111812 -0.02091303 -0.012097803 0.05113261 -0.042025756 0.045639917 -0.0022171002
0.05281942 -0.03733307 0.024406953 -0.055361256 -0.004232152 0.07682973 -0.038186293 -0.0601684
0.13590862 -0.05405377 -0.059575833 -0.08395497 -0.10523444 -0.015829433 0.057120334 -0.09909034
0.046660855 0.061469816 -0.17140172 0.04146177 -0.035167214 -0.06802426 -0.034845624 -0.023301184
-0.111325145 -0.03164908 -0.07490285 0.09915859 -0.020340452 -0.0063525327 0.005389119 0.022672486
-0.19201641 -0.036011085 -0.09453034 -0.08908947 0.031494062 -0.072036564 0.10038003 -0.1142044
-0.08175224 -0.010342599 -0.17880659 -0.041324332 -0.09633378 0.03258169 -0.08913821 -0.06326216
0.097366564 0.060345814 -0.048255082 -0.047037475 0.036113504 0.058044676 -0.09082489 0.015282063
-0.0009470473 0.035963077 -0.046103578 -0.08937362 -0.045969903 -0.029709194 0.050576564 0.14292629

action_model._discrete_distribution.branches.0.weight f4 [5, 64]
00000000: 71bf 1bbd bb2a 953d eb7e 2b3d 348c 02be
00000010: 42f7 01be 7607 47be b150 b03e 46a9 1fbe
00000020: 2431 66be 3126 1e3e 3685 683e 4c6f de3e
00000030: 7bcc e53d 7a9d 42be 358f b73c 2f43 acbd
00000040: 3264 743e 3274 de3d 6db1 ff3c 24cb 243e
00000050: 1079 ea3b f0b8 ffbd a4a3 7cbd c5af 713d
00000060: acee 523e 9705 5f3e 9503 fcbd f705 f9bc
00000070: c30f ed3d dfca b03d 8c1a d83d 8993 a5bc
00000080: c593 a53b 20bf 60be 6264 20be 436c 7bbd
00000090: 3a5e 6d3e 8dd6 1dbe 09b4 06be 13cb e43c
000000a0: 63e1 763e df3f 353e 3a91 c8be 0ab5 a8bd
000000b0: 4b22 e1bc 4298 b4be dc81 1b3e 3e17 9c3c
000000c0: 957b 753a 1f7e 25be cf4d b6bd f943 10be
000000d0: ab88 36be 1ce5 623d b465 49be 3d5d 2ebe
000000e0: 99d9 bcbd 4bf7 013d a9bc 0dbe d069 9fbd
000000f0: ec56 e83e a10f dcbd d6fd 143e c6f0 a13d
00000100: 68c3 653e 71bf 87be b4e1 f03e d6ca 923e
00000110: f5d8 10bf 8bef fc3d 3d12 75be 4d46 1a3f
00000120: eca8 363f 84fa f53e d54b 48bf a2fe 36bf
00000130: f577 f63e dec1 cf3e 2c02 053f dd50 6dbe
00000140: 7ffc febe 9c4b c4be fb3e d6be 46af f8be
00000150: f974 ec3e 2245 ddbe 94e9 c7be 020b 77be
00000160: 52c8 14be a4d7 eebe 740c 913e f122 503d
00000170: 26c4 35be 3f59 a4be 076a 0bbe 2378 d53e
00000180: 0d0c 133f bb92 ea3e ab75 283e 0b17 083f
00000190: 44c3 1cbf 622f 4f3e f361 d0be 38e3 443f
000001a0: 146d 46bf 8f08 17bf b762 813e e0e7 0c3f
000001b0: 5c8d aabe e1fc 00be 0cfe e43e d468 0e3f
000001c0: f8e5 f5be 47a2 6fbe 68b1 f03c c961 a63d
000001d0: 3987 a63e 90df 6ebe fe85 88be 9c2e f23e
000001e0: ef88 16bf e65f 87bd b632 87be d28f 29bf
000001f0: 73a9 0b3e 57ce 52be a418 8b3b 55a9 8abe
00000200: a847 ed3d b88b f2bd 5e5c 46be a50d ac3e
00000210: 73d8 b4bd 02c3 a8be e40f d63d 7853 a0be
00000220: c37e a5be 61e4 13be f42c bf3e fca8 713e
00000230: 43ee 153c 4bd7 35be 3c99 eabd aed8 01be
00000240: fafd 503e 2c57 c53e 1dd2 773d 4faa 093e
00000250: 5ef6 a2be 9472 333d 1046 a0bd 7ece 953d
00000260: 09c9 f03e 0c44 cd3e 259a f63d 82bf 1bbe
00000270: f8bf 823e 7f38 dd3d 364e 98bc b14d 0ebe
00000280: ba49 8b3a e73f 92be 4223 c9bb e520 4b3d
00000290: 39bc 443e 2ddd 2abe 555e 10bd 17a1 2cbd
000002a0: 4510 253e bf09 683e 7bdb 18be 9b30 4e3d
000002b0: 5ff9 8f3c 1bfb 443e 9255 1bbe e54e d33d
000002c0: ec1e 793e aa8f 593e a409 bc3e c8a0 acbd
000002d0: d569 88be ba89 0fbe 4b17 1abe 9ef7 b9be
000002e0: a7c2 9e3a 4427 d3bd a9c6 82bd 5b33 fd3d
000002f0: 6ec1 ba3d b9cd 30bd f004 64be 275e 863d
00000300: 4a54 733e 7e09 61bd a8a3 b5be e942 1ebe
00000310: 20fc 283f 5820 90bd b187 d2be bf5c edbe
00000320: 902f 11be 8563 c3be 5e8d f2be 784e ad3d
00000330: 2ae5 c3be 8713 be3e d8ac d8be c6df 953e
00000340: 734f 873e 3d2e f23e 090f c03e 0539 87be
00000350: e5df b8be bdd9 843e 277e 8d3e 41e7 2d3e
00000360: 750e 1fbe 22dd 45be 7a11 fbbd 5dc4 b73e
00000370: fda9 d43e 593e c33e 1723 dfbd f71b 1d3d
00000380: 7925 91be f941 38be 06d7 5abe c5b5 01be
00000390: 0ca8 cdbc 50bf 30bf 732f 973e 8db3 31bf
000003a0: 3575 c43e 3996 ecbc acb9 7f3e 7038 2cbd
000003b0: 0b5e a73e 3ed1 e73c b02f 603d a29e 09bf
000003c0: f820 503e 603f 54be 3979 b0be 7ba8 793e
000003d0: 8b85 023f c220 a93e b4e5 063f 57c4 03bf
000003e0: 70fb ad3e fbe4 043e a2c9 92bc 65a9 eb3e
000003f0: 2776 57bf 861c f0be 48aa 49be b271 ce3d
-0.03802437 0.07283541 0.041869085 -0.12748796 -0.12691978 -0.1943644 0.34436563 -0.15591916
-0.22479683 0.15444256 0.22707066 0.43444288 0.11220642 -0.19005385 0.022407154 -0.08411252
0.23866346 0.10862006 0.031212533 0.16093117 0.007155545 -0.12486446 -0.061679497 0.059005518
0.20598859 0.21779476 -0.12305371 -0.030398352 0.11575272 0.086324446 0.105519384 -0.020211952
0.005053016 -0.21947908 -0.15663293 -0.061382543 0.23180476 -0.15413876 -0.13154615 0.027928865
0.24109416 0.17700146 -0.391733 -0.082376555 -0.027482172 -0.35272413 0.15186256 0.019054051
0.00093644235 -0.16161393 -0.089015596 -0.1408843 -0.17825572 0.055394277 -0.19667703 -0.17027755
-0.09221191 0.031729978 -0.138415 -0.07783854 0.45378816 -0.107451685 0.14549956 0.07907252
0.22437823 -0.26513246 0.47047198 0.28670377 -0.5658105 0.12350377 -0.23932739 0.6026352
0.71351504 0.4804269 -0.7824071 -0.7148229 0.48138395 0.40577596 0.5195644 -0.23175378
-0.49802014 -0.38338935 -0.41844925 -0.48571223 0.46182993 -0.43216807 -0.39045393 -0.24125293
-0.14529541 -0.46648896 0.28329813 0.050814573 -0.17750606 -0.3209934 -0.13614665 0.4169322
0.57440263 0.4581507 0.16451137 0.5316016 -0.6123545 0.20232919 -0.4069973 0.7690921
-0.7751019 -0.58997434 0.25270626 0.55041313 -0.33310974 -0.12596466 0.44725072 0.55628705
-0.48027015 -0.23401748 0.029381469 0.0812412 0.32525042 -0.2332747 -0.26664728 0.47301185
-0.58802694 -0.06610088 -0.26405877 -0.6623508 0.13638858 -0.20586525 0.0042448808 -0.27082315
0.11585933 -0.118430555 -0.19371173 0.3360416 -0.08830347 -0.3296128 0.1045225 -0.31313682
-0.32323274 -0.14442588 0.37338984 0.23599619 0.009151044 -0.17757909 -0.114550084 -0.12680313
0.20409384 0.3854307 0.060503114 0.13443874 -0.31828588 0.043810442 -0.07825863 0.07314776
0.47028378 0.40090978 0.120411195 -0.15209773 0.25537086 0.108017914 -0.018591981 -0.13896824
0.0010626831 -0.2856438 -0.0061382363 0.049591918 0.19212426 -0.16685934 -0.035246212 -0.042145815
0.16119488 0.22659968 -0.14927475 0.050339323 0.017574964 0.19236414 -0.15169361 0.10317782
0.24328202 0.2124621 0.36726105 -0.08429104 -0.26643243 -0.14017382 -0.15047948 -0.3632173
0.0012112454 -0.10310224 -0.06385548 0.12363311 0.09118925 -0.043164942 -0.22267509 0.06560927
0.23762622 -0.054940693 -0.35476422 -0.15455212 0.6600971 -0.07037419 -0.4111915 -0.46359822
-0.141783 -0.38161865 -0.4737348 0.08462232 -0.38260776 0.37124273 -0.4231937 0.29272288
0.26427802 0.47300902 0.3751147 -0.2641069 -0.36108318 0.2594737 0.2763531 0.16982748
-0.15532859 -0.19322637 -0.12259193 0.35892 0.4153594 0.38133505 -0.10895365 0.038356747
-0.28348902 -0.17993917 -0.21371087 -0.12666996 -0.025104545 -0.6904192 0.29528388 -0.694146
0.38370672 -0.028880225 0.24973172 -0.04204601 0.32688937 0.028298017 0.05473298 -0.5375768
0.20325077 -0.207273 -0.34467486 0.24380676 0.5098502 0.33032805 0.5269425 -0.51471466
0.33980894 0.12977974 -0.017918412 0.46027675 -0.8416466 -0.46896762 -0.19693863 0.100802794

action_model._discrete_distribution.branches.0.bias f4 [5]
00000000: 2580 a23d 58b5 89be 8a9c 3c3e ddec 053e
00000010: 289b 54bd
0.07934598 -0.26896167 0.1841909 0.13078637 -0.05190578
