Assets/Roundabout/TFModels/CrossroadLights(round).onnx (onnx, 479971 bytes, 15 tensors)

network_body.observation_encoder.processors.0.conv_layers.0.weight f4 [16, 9, 8, 8]
00000000: 34bf b33d 65c5 9ebd 26ce a3be e8f1 a7be
00000010: aaf9 a73d 05e8 b83c 6a0a 063e eef8 b13e
00000020: e5a5 6cbe 16ea 2dbe 3e52 9bbe d8ee f3be
00000030: cbe3 8cbe eb23 18be 0dad 52bd 6c99 e83d
00000040: 8196 8dbe ef9f b4be 2d7c 22be 095d 49bd
00000050: b65c 3a3d b83f 23be 9d31 20be c4d4 833d
00000060: ec73 49be 01c8 8abe 7943 83be 9160 623e
00000070: 45b7 983e 5124 c8bd 19f1 fcbc 9092 1c3d
00000080: 5821 8cbe 56f8 0fbf d0be adbe 354a 11be
00000090: 75cb 1c3d 8c08 92be 1179 56bd 607b fbbd
000000a0: 86c4 34bf 4b23 15be 1ef6 39be 535b 9abe
000000b0: 6519 26be 1caf d8be 30ca cfbd b658 6dbd
000000c0: cd60 edbe 79fa 01bf 1b71 8fbe 82e2 8abe
000000d0: 5f6b 4bbe d9eb e9be fce1 12be 6ba0 83bd
000000e0: 75f1 80be bde0 3e3d a88e 13be 59d8 a8bd
000000f0: 3d6d eabd 2b81 efbe 8158 99be 764e bbbd
00000100: f164 ad3d ec1e 46be b978 abbe 3d81 12be
00000110: b7a0 4fbb d05e 263e f7c5 c83e 6eb3 3d3e
00000120: cf60 0d3d 59e2 76bd 6047 d3bc 6a3b 31be
00000130: 7147 0dbe 7a67 653e 5cb9 c53e 261f 2e3e
00000140: f342 5c3d 7598 6ebe 664d c7be 725f d5bd
00000150: 74ff 6cbe 1b6d 15bc b712 b93e 554a 743d
00000160: cbdf b3bc 2157 f9bd fdf8 bfbe ffbc 4dbe
00000170: e09f 5fbd 61fc 93bc 63c0 08bd 879c c43d
00000180: ddce 913c 2bdf 29be 901b 87bd 3f82 7f3e
00000190: 357b 5a3e 5f72 bd3e 6edd 9f3d 6e51 a03d
000001a0: 1bf8 33be 27e8 74be 455b 43be c472 37be
000001b0: 8b5a 933e 56e5 913d 4cd7 893d 2810 453e
000001c0: 0df3 57bc f1fd b1be f454 d7bd 5f35 3ebe
000001d0: ea2e 3fbe 6837 2ebe 4719 35be 026b fe3d
000001e0: a243 39be d287 0dbe 461d 33be 1587 06be
000001f0: 85be adbd 2b67 f9bd 067b 813d 69e7 603d
00000200: 580d eebd 27ce 42be 639c c0be d9ee a93e
00000210: 4ef8 423e e62f 903e 1eb5 053e 6a42 e3be
00000220: e2eb 8fbd 2eb4 8abe d88c 89be 100b 6d3d
00000230: 1184 833e 6cf5 803e 2ddb 803e ed6b 8c3a
00000240: 28b4 723e 8871 e73d 5449 11bf 68a1 93be
00000250: ad75 543d 0f35 db3e b338 a93d 3fd7 38be
00000260: 50e0 923e 4d3c 973e 44b6 dbbd c1d6 26be
00000270: bd47 753e 0e76 813e 3c7c 573e 261c 0bbd
00000280: 48e3 093f 556b e43d 4ed8 2dbd 5163 aabe
00000290: 4096 4fbe adba 93bc 7b44 563d dc39 f63d
000002a0: 47ed bd3e 73d6 de3d d034 9e3c dd64 14bd
000002b0: c35c 60be bea9 8ebe 20b5 5abe 4dd5 203d
000002c0: e7b0 8a3e 6ca4 873e e0fd 7c3e 9a22 de3d
000002d0: 275a 223e 54f0 e2be ff48 bbbe 5268 0abd
000002e0: 67ff 82bd 8778 273c 8119 b33e fb63 a93e
000002f0: a64c 8bbd 9b5a abbe 1a23 87be 85be a7bd
00000300: 072c 23be ca30 c03d 0e33 033c 8b4f 1abe
00000310: d024 1c3e 089a b83d 6249 3b3e cec1 3e3e
00000320: 6e9b f63d 2a74 6dbd b2c8 5dbe 8d9d 95be
00000330: 840f f3bd 092f de3d 85ba 86bc 47ae 4c3d
00000340: b239 43be db22 c4bd 6c45 6c3d 380a 5fbe
00000350: 990f 253b 51e6 893e eb96 8e3e 7979 223e
00000360: 1f62 a3be 9aaf 65be 2cdc 92bc fe6a 63bc
00000370: 4547 223e defd c93e f389 973d b58b 013e
00000380: db16 1cbf c3bd 1fbf d2bd 98be 60b1 1abd
00000390: 10bb 123e b43e d23e 7c3a 8b3e 472a 213e
000003a0: fd08 07bf b2aa e9be 4182 6dbe c1b7 c1be
000003b0: b51c 1dbe e4bc 513d f22b 0a3e 4e26 af3e
000003c0: 2a3b 4dbd fd3f 983d 237f 8c3d 658a 7abe
000003d0: 67a0 48be 3eb7 02be 99e9 d7bc 75a1 72bc
000003e0: c587 97be 0eca d9bd 9980 b8bd 8050 dcbe
000003f0: 0d5e ecbe c60d 94be 5da2 17be d8e6 7f3d
0.087767035 -0.07752494 -0.31993216 -0.32801747 0.082019165 0.022571573 0.1308991 0.3476023
-0.23110159 -0.16983828 -0.30336183 -0.4764316 -0.27517542 -0.14857452 -0.051434565 0.11357388
-0.27653888 -0.3527827 -0.15867682 -0.04916099 0.045498572 -0.15942276 -0.15643926 0.06437066
-0.19673127 -0.27105716 -0.25637415 0.2210715 0.29827324 -0.09772552 -0.030876683 0.03822571
-0.2736919 -0.56238306 -0.3393464 -0.14188464 0.03827997 -0.28522146 -0.05236155 -0.12279391
-0.7061237 -0.14564244 -0.18160293 -0.301478 -0.16220625 -0.42321098 -0.10145986 -0.05794593
-0.46362916 -0.50772816 -0.2801598 -0.27125937 -0.19865178 -0.4568775 -0.14344019 -0.06427082
-0.25184217 0.046601046 -0.14409888 -0.0824439 -0.11446617 -0.46778235 -0.29950336 -0.091458246
0.08466519 -0.19347733 -0.33490542 -0.14307113 -0.0031681487 0.16247106 0.39213535 0.18525478
0.034516152 -0.060274456 -0.02579087 -0.17307821 -0.13796784 0.22402754 0.3861798 0.1700407
0.053774785 -0.23300345 -0.38926238 -0.104185954 -0.23144323 -0.009120251 0.3614709 0.0596412
-0.021957299 -0.12174822 -0.3749465 -0.20091628 -0.054595828 -0.01806468 -0.0333866 0.09600168
0.017798835 -0.16589038 -0.06597054 0.24952029 0.21336062 0.3700132 0.07805906 0.078280315
-0.17575113 -0.23916684 -0.19077785 -0.17914873 0.28780016 0.071238205 0.06730518 0.19244444
-0.013180506 -0.34764054 -0.105142504 -0.18575047 -0.1867024 -0.17013323 -0.17685424 0.12422754
-0.18092206 -0.13821343 -0.17491636 -0.13137467 -0.08483604 -0.12177881 0.06322293 0.05490819
-0.11623639 -0.19023953 -0.37619314 0.3319004 0.19040033 0.28161544 0.13057372 -0.44386607
-0.07027413 -0.2709059 -0.26865268 0.05787188 0.25686696 0.25187242 0.25167218 0.0010713317
0.23701537 0.11300951 -0.56752515 -0.2883408 0.051870037 0.42813918 0.08262768 -0.1805086
0.28686762 0.29538193 -0.10728124 -0.1629286 0.23953147 0.2528538 0.21043485 -0.03396239
0.5386243 0.111532845 -0.042442612 -0.33278897 -0.2027216 -0.01803335 0.0523114 0.120227545
0.3709509 0.10880747 0.019312292 -0.036229003 -0.21910386 -0.27863878 -0.21358156 0.03926592
0.2708809 0.2649263 0.2470622 0.108464435 0.15854703 -0.4432398 -0.3657913 -0.033790894
-0.063963704 0.010221607 0.34980395 0.33084092 -0.06801729 -0.33467564 -0.26393968 -0.081906356
-0.15934764 0.09384306 0.008007778 -0.15069406 0.15248418 0.09013754 0.18289712 0.18628618
0.120413646 -0.05797211 -0.2165859 -0.29221764 -0.11868194 0.10848815 -0.016446361 0.04997089
-0.19064978 -0.09576961 0.057683393 -0.21781242 0.00251863 0.2693353 0.27849516 0.1586665
-0.31910798 -0.22430268 -0.017927252 -0.013880489 0.158475 0.39451498 0.073993586 0.1265095
-0.60972375 -0.6239893 -0.2983232 -0.037766814 0.14329171 0.41063464 0.27193058 0.15738784
-0.5274809 -0.45638043 -0.23194219 -0.37835506 -0.15342982 0.05120553 0.13493326 0.34208912
-0.05010525 0.0743408 0.06860187 -0.24466856 -0.19592439 -0.12765214 -0.026356505 -0.014809002
-0.2959577 -0.10634242 -0.09008903 -0.43030167 -0.46165505 -0.28916758 -0.1480803 0.06247601

network_body.observation_encoder.processors.0.conv_layers.0.bias f4 [16]
00000000: 18f4 58be 2432 79be aed7 96bc 4de0 163d
00000010: 5995 c23d 7d3a 9cbc 9473 80be 6871 c2be
00000020: 1a2a 27bd 8c4e c3bd 1acc 0abe de76 693e
00000030: ac2b 6ebe f9f9 473e 912b 5dbe 5b46 9bbe
-0.21186864 -0.24335533 -0.018413391 0.036835004 0.09501142 -0.019070858 -0.2508818 -0.37977147
-0.040811636 -0.09536466 -0.13554421 0.2279925 -0.23258847 0.19528951 -0.2159865 -0.30327114

network_body.observation_encoder.processors.0.conv_layers.2.weight f4 [32, 16, 4, 4]
00000000: dafa c6be 59c8 723e 49b5 b03e 09b4 5dbd
00000010: 6c27 c8bd bc4a 0dbe 6f2e 423e 369c 683d
00000020: b0bd e13e 32df c9bd c7c9 e3bd 1699 d7bd
00000030: 576b 85bd 87c2 1b3e 571f b73d 234f 73bd
00000040: 1bae 51bd 8bbb 87be 1bbe 36be b8a7 903e
00000050: faf9 85bd 7945 3b3b 533a f03e 9737 86be
00000060: 6237 103e 6ce3 b83d c63b 8a3d 2aa5 fa3d
00000070: 60dd 6a3e 6ff0 55be 1867 97be 20e1 cb3d
00000080: 3e19 673e 4bf4 933d 0f08 edbe ede3 173e
00000090: 6397 cb3d 82ae e73e 5218 153f 6ed4 2f3e
000000a0: a7f4 9dbe 9c48 5bbc e539 7c3e 9179 79bd
000000b0: db31 e93d 8a9c e3be 4f88 a43b 99fc 08bf
000000c0: a174 fbbd b8b5 9abe 4992 0dbf c4a8 32bd
000000d0: 63c5 023f c28f ed3e af7e 133e ba1f 003f
000000e0: ee07 dcbc ff28 bdbd 203e 0d3f eb00 dd3e
000000f0: 3047 7fbe 6427 75be 3ecf 30be 3872 963d
00000100: a698 85be 87bf d0be 8b9d d7be 98a3 d0bd
00000110: cea1 1abe 6990 123e 2feb b13e c51d 9b3e
00000120: c11d 87bd e774 673e c721 eb3b 7f04 163e
00000130: 12d5 2fbe 6fe6 a03d 7c19 5bbe 397e e4bd
00000140: 83ca c5be f756 0fbe f8bd 5a39 5e2a a43e
00000150: d42f 1bbe 2d87 d23c 2f0d 92be 0e21 653e
00000160: 63d8 083e 2ef1 b6be 72c9 cfbe d847 a2be
00000170: 57e8 9c3c 082d c73d 0f1a 18bd 184c 903e
00000180: 8e3e 26be 15de b1be 53cf 3bbe 341c 7d3d
00000190: fd23 fa3d 4425 583e f1be 063f 1236 6f3e
000001a0: fb99 2ebd 74e9 8e3c 0cb9 e1bb 17af 3bbe
000001b0: 9f72 a63c a015 223d 5323 42be 8423 d9bb
000001c0: 58e1 90be be53 11bc f82b 12bf 9af8 45bf
000001d0: 371d 28bf 80dd 8fbe e925 acbe f474 833d
000001e0: 92da 12be 0d88 8d3c 1382 be3c 96a6 b73e
000001f0: d17c b0be b1b5 ad3b dd1b 05be 38d7 373e
00000200: b023 9abe dd6c abbe 1a72 25bf d898 13be
00000210: 6052 12bd 81d0 97bb 7767 b33e be20 9e3d
00000220: 4fee 6fbe 8637 1cbf 2a8b ab3e 889a 1d3e
00000230: 906c 97be 87fc aebe f671 dbbd 0413 e93e
00000240: e98f 6fbe b91a 0c3c fdfc 733d 1d6e abba
00000250: c505 7fbe 932b 1abe 6ddb e1be 425b 493f
00000260: 6902 2ebf 2f35 4dbe 674f 03bf 9ad3 6b3e
00000270: a046 c5bd 27e3 313e 5396 56be 2f66 c1be
00000280: 56f1 ffbd ebe4 163c 38d2 db3e af27 bb3e
00000290: 57c4 033e e07f 9bbd 0610 213f 62e8 573e
000002a0: 1094 eebc 5f3a 313c b477 db3e 3ecb bb3e
000002b0: 6a75 58be faba f8bd 096c 6b3c 140a d8be
000002c0: d1c2 72bd 440f 0dbf 9762 23bf 53fc ebbe
000002d0: fba4 f1bd 6fd9 8cbe 9f2a 8a3e 79da 4f3e
000002e0: 964a 20bd 6cb5 e9be 76dd a43d fbd9 ffbe
000002f0: 603d e33d 1bda e43d 8979 0a3e e030 bebd
00000300: f941 e9bd 8b04 82be d238 75be 112f c3be
00000310: 2dbe 973e 0830 083d 15a1 34bf cdc2 35be
00000320: a03f 1abe 8f25 3abe 447e 01bf 2944 40be
00000330: bf6e 1b3e 0fd4 3ebd cdc4 c6be 91ed 6b3c
00000340: d990 cf3d fe1b 89bd 4ed8 adbe 1997 67be
00000350: cc55 743e 4bb3 693e 07c1 bf3e 02db debd
00000360: e4b0 d4be 28fa e1be 7b6c 303f fd88 253f
00000370: f1a3 903e d9b1 a1be 9f1e 06be 7b02 81be
00000380: e017 f2bd 1692 e2be e044 a4bd 7089 c2be
00000390: 1830 d93e 4969 7fbd 4aa5 40bf 3dda 68be
000003a0: fd95 493e 916a ae3d 3a9c 10bf 8db5 2d3e
000003b0: 82f1 213e 9b24 54be 935d d13d b17c 3c3e
000003c0: 4bf9 dabe 268b 553e 4c47 fbbe d5ae 93bc
000003d0: 4d50 88bd ea0e 693e ef82 9d3e 3c3e 5e3b
000003e0: 0191 05bc 00cd 13bc 32aa 81be 492f 9d3e
000003f0: d7c2 ecbd 2f07 02bd deec 08be bf03 17bf
-0.3886326 0.23709239 0.3451331 -0.054126773 -0.09773144 -0.1379804 0.18963026 0.0567896
0.44090033 -0.09857024 -0.1112247 -0.10527246 -0.06514614 0.15210925 0.089415245 -0.059401643
-0.05119143 -0.2651027 -0.17845957 0.2825296 -0.0654182 0.0028575344 0.46919498 -0.26214287
0.14083627 0.09027752 0.06749682 0.12238534 0.2293601 -0.208925 -0.29570842 0.099550486
0.22568223 0.072243296 -0.4629521 0.1483304 0.09940984 0.45250326 0.58240235 0.17170879
-0.30850717 -0.013384011 0.2463146 -0.06090695 0.11386462 -0.44455367 0.005021132 -0.53510433
-0.122781046 -0.30216765 -0.5530134 -0.04361798 0.5108244 0.4639874 0.14403795 0.5004841
-0.02685925 -0.09236335 0.5517292 0.43164763 -0.249295 -0.23940808 -0.17266557 0.07346004
-0.26093024 -0.40771124 -0.42112383 -0.10187453 -0.15100786 0.143129 0.34749743 0.3029615
-0.06597472 0.22603188 0.0071756574 0.14650153 -0.17171124 0.07856452 -0.2139644 -0.111568876
-0.38631067 -0.13998018 0.00020860869 0.32063574 -0.15154964 0.025699222 -0.28525683 0.2237589
0.13363795 -0.3573088 -0.40583378 -0.31695437 0.019153757 0.09725386 -0.037134226 0.28183055
-0.162348 -0.34739748 -0.18340807 0.061794475 0.122138955 0.21107966 0.52635103 0.2336047
-0.042627316 0.017445303 -0.0068885144 -0.1832851 0.020318327 0.039571404 -0.18958788 -0.0066265482
-0.28296924 -0.008870063 -0.5709834 -0.7733246 -0.6566958 -0.2809868 -0.33622673 0.064187914
-0.1434119 0.017276788 0.023255384 0.35869282 -0.34470227 0.0053012003 -0.1299891 0.17953193
-0.30105352 -0.33481494 -0.6462723 -0.14413774 -0.03572309 -0.00463301 0.35039875 0.07721089
-0.23430751 -0.6102222 0.3350461 0.1539098 -0.29575014 -0.34177038 -0.10715096 0.4552232
-0.23394741 0.008551293 0.05956744 -0.0013079081 -0.24904545 -0.15055685 -0.4411272 0.78654873
-0.6797243 -0.20039819 -0.51293033 0.23029938 -0.09632611 0.17371808 -0.20955782 -0.37773272
-0.12497203 0.009209852 0.42933822 0.36553714 0.12867866 -0.075927496 0.62915075 0.21084741
-0.029123336 0.010817139 0.42864764 0.366785 -0.2113854 -0.12145038 0.014369019 -0.4219519
-0.059267823 -0.5510142 -0.6382231 -0.46090946 -0.11799046 -0.2750964 0.26985642 0.20298184
-0.03913363 -0.45646226 0.08050053 -0.49970993 0.11095691 0.11174413 0.13522924 -0.09286666
-0.113895364 -0.2539409 -0.23947456 -0.38121846 0.2963728 0.03324893 -0.7055829 -0.17750092
-0.15063334 -0.1817839 -0.5058329 -0.18776001 0.15178965 -0.046588954 -0.38822022 0.014399902
0.101350494 -0.06694792 -0.3395409 -0.22616233 0.23860854 0.22822301 0.37451956 -0.10881616
-0.41541207 -0.44136167 0.6891553 0.6466215 0.28250077 -0.31581 -0.13097619 -0.25197205
-0.1182096 -0.4425208 -0.08020949 -0.37995481 0.42419505 -0.062356267 -0.7525221 -0.22739501
0.19686122 0.0851642 -0.5648838 0.16963787 0.15814784 -0.20717089 0.10222926 0.18406941
-0.4276832 0.20853862 -0.49077833 -0.018027702 -0.06655941 0.22759596 0.30763957 0.0033911606
-0.008152247 -0.009021044 -0.2532516 0.30700138 -0.115606 -0.031745132 -0.13371608 -0.5899009

network_body.observation_encoder.processors.0.conv_layers.2.bias f4 [32]
00000000: 084a 983e b5b2 c73d de6b d13d 0703 b03d
00000010: 2dbb ba3d d0fd 853d a984 1bbb 8d12 3dbd
00000020: b052 41bd d7ca 64bd 9777 2fbe 8070 603e
00000030: a039 c7bd 5e54 82bd 4595 cc3e 3eab 49be
00000040: 4f9c ca3d 9056 6fbd 7428 a2bd 67dd bb3d
00000050: f138 efbc 560a 1e3e 55d1 adbc d1cb 95bd
00000060: a44a 9fbe 4018 4bbe 7f1c 543e 7a77 23bd
00000070: 54f5 5abe 4950 5abb 5e5d 68bd 61bf eb3d
0.2974398 0.097508825 0.10225652 0.085943274 0.09117732 0.065425515 -0.0023730195 -0.04616027
-0.047197998 -0.055857506 -0.17135464 0.21917915 -0.09727788 -0.06363748 0.39957634 -0.1969423
0.09893095 -0.05843216 -0.07917872 0.091730885 -0.029201956 0.1543363 -0.021217981 -0.073142655
-0.31111634 -0.1983347 0.20713995 -0.039908864 -0.21382648 -0.0033312014 -0.056729667 0.11511112

network_body.observation_encoder.processors.0.dense.0.weight f4 [128, 32]
00000000: 1d6a 93bc 4b6c c7be 5cc3 4abf d4fb 5f3f
00000010: 7f2a f53d d12d 82be 5cdb c8be da23 d63e
00000020: ac85 1bbe 0f1b a7bd 5f88 8c3f 4421 40be
00000030: 90b4 c6be 473f c3bd ca17 51bf f2ea f6be
00000040: 6e7b 29bf 6824 4cbe 5f47 093f 6c7a 783c
00000050: 8e2f 4f3e 3c5e 85bd bb37 61be c1cd 2d3d
00000060: c463 b2be 199b bcbe 5e04 29be 06e4 503e
00000070: b6f9 f13d 9f7a 383f 2b6c 88be f671 5f3e
00000080: b40f 3abf 737a e0b9 bfbb 9bbd 534a 31be
00000090: 5de1 9abe 140e d3be 0167 b4bd 3ba4 e93e
000000a0: 53be d13d ad47 c33e fd96 dfbd ed20 ccbd
000000b0: 94d5 013e 8b48 fe3d dc35 21be 4634 38bf
000000c0: 4c4e 643e ffbf 86be 2424 943c b879 19bd
000000d0: 464e 053e 61d7 05bf 0141 973c fc43 7b3d
000000e0: d7fd cebd f639 293d 0178 acbe 7e9a 0cbf
000000f0: ec75 853d 8229 86be 0f33 b439 1fef 8dbe
00000100: 573f 603e 8dc4 adbd 807a 3ebe a75f 24bf
00000110: a84e ae3d ccdf 123d 740f a2bd 4d57 cc3e
00000120: b11e abbe 944c e1be 7ff6 e6be e668 b0be
00000130: 053e 053f 4004 87be f51d 703e 978e 84b9
00000140: 6822 1d3d 9cb6 ddbd b2b5 d9be bbcb 0bbe
00000150: 57cc e1be 24e6 e93e f623 9a3e 16dc 4f3f
00000160: fd5a ad3d d254 493e 1ffe 60be e92f d43e
00000170: 90b1 8cbe fdbf f4bd 5ebb ea3e 4256 5cbe
00000180: 8970 123e e7b6 1cbf 334e 5b3d ce05 96be
00000190: 8213 05bf b077 06be e9e9 eabd cc54 0abf
000001a0: d2d8 693e 6157 4abf 3868 fbbe 42e6 5abe
000001b0: d2c3 083f 47c4 063f 52fc 6d3d f2a7 8a3c
000001c0: 690d 153d 7501 f43d 071a debd d06d aabe
000001d0: 392e 01bf f8dd da3a 6033 11be 5ea8 a93e
000001e0: f49a 8fbe ef24 0c3f 82f0 f4be 9a5f 82be
000001f0: f96e 4abd 95b4 26bf 3518 ee3e 9c1d 4bbf
00000200: f13b fdbd b383 b63e d9f2 103d f75b 89bd
00000210: ed30 b33d 2d46 dd3e 6737 88bd 9c21 b83e
00000220: 1960 6e3e 8e45 e03e acd9 813e ca21 33be
00000230: dcc0 a4be 7d33 19bf 8f2c 06be de7e fd3e
00000240: 2047 7fbd ac25 163f b941 b2bd 8449 263e
00000250: cbe8 8dbd d79b b23e 7519 043e b74e b43e
00000260: e0be ba3d 25f8 ffbd 3d7b 943d 3f02 6cbe
00000270: 4e24 bebe eb24 513e c38a 783e 6f95 be3e
00000280: 305b 77be fc88 263d ba5e 1bbd ce05 dbbe
00000290: fa64 d2be 3467 bd3e 106b 7fbe 87ce 233f
000002a0: 5fd6 f63e 5b68 1a3d a265 e53c e9c2 5d3e
000002b0: d48d 2e3d 3182 793e 31dc 4d3f 1ed3 113f
000002c0: aa5a 883c 47d2 b7bd a2f3 febe 2b00 593e
000002d0: 45be 31be 73f0 7f3e 685b 8cbe 3e3d 56bc
000002e0: 202e ad3d 12c3 a73e c165 93bd efdb 6abf
000002f0: 33af d9be f7a9 10bd 1a9a d63d 5f7a ccbe
00000300: 1c0b bf3d b1cf 653f 874b 9dbd fdf4 c8be
00000310: 0178 553e ded0 893d 7bb0 c2be 3c90 573f
00000320: 5668 933e 0c9e ce3e 9f1f c23e 5185 a93d
00000330: 6b9a 923e b929 b1be ee43 273f 3a49 7f3e
00000340: 0d78 9fbc 3635 d2be 09df 2a3e aab8 1abf
00000350: a765 95bd 17c5 663c 86df f43e 9ef2 503f
00000360: 9dac 9d3d aa5f cfbe 0701 d0be 4809 38bf
00000370: e520 c1be 050c 643e 7bf7 153f fad3 2e3e
00000380: a786 25be 3365 fa3e b8f1 a73e 1b20 023e
00000390: 02b3 dc3e c855 a93e bbcc c1be 48e1 c43e
000003a0: b4d8 c4be d6dd e7be ca06 69bc 3913 9bbe
000003b0: 1773 88bd 5c70 b6be 7512 113f 997a 353e
000003c0: b3ba 343f 1524 26be 8d2d fbbe 5c77 1bbf
000003d0: 7a5b d5be 05e7 65be f266 983e efc8 1bbe
000003e0: 74de ab3e 61f6 0bbe 6417 253e 2c6c 073f
000003f0: 2684 0ebf ea50 fdbe daf9 11be 4705 1cbf
-0.017994935 -0.38949808 -0.79204345 0.87493634 0.11970996 -0.2542558 -0.39229858 0.41824228
-0.1518771 -0.08159458 1.0979117 -0.1876269 -0.38809633 -0.095335536 -0.81676924 -0.48226124
-0.66203964 -0.19935763 0.5362453 0.015165906 0.20232984 -0.065121144 -0.21993916 0.04243255
-0.3484174 -0.3683708 -0.16505572 0.20399484 0.11815207 0.72062105 -0.26645026 0.21820816
-0.7268021 -0.0004281584 -0.07604169 -0.17313509 -0.30250064 -0.41221678 -0.08808709 0.4563311
0.102413796 0.38140622 -0.109174706 -0.099672176 0.1267913 0.1241618 -0.15743202 -0.7195476
0.22295493 -0.26318356 0.01808364 -0.037469596 0.1301814 -0.5228177 0.018463613 0.06134413
-0.1010701 0.04131504 -0.33685306 -0.54923236 0.065166324 -0.26203543 0.00034370317 -0.27721497
0.21899162 -0.08484755 -0.18601418 -0.64208454 0.08511096 0.03585796 -0.07913104 0.39910355
-0.33421853 -0.44003737 -0.45109937 -0.3445503 0.5204776 -0.2637043 0.23448928 -0.0002528324
0.03836289 -0.108258456 -0.42521435 -0.13651936 -0.4410121 0.45683396 0.3010556 0.811952
0.0846462 0.19661263 -0.2197194 0.41442803 -0.2747922 -0.11950681 0.45846075 -0.2151728
0.14300741 -0.61216587 0.053541373 -0.29301304 -0.5198289 -0.13131595 -0.11470396 -0.5403564
0.22836617 -0.7903958 -0.4910295 -0.21376899 0.534238 0.52643245 0.05810196 0.016925786
0.036389742 0.119143404 -0.10844808 -0.33286905 -0.50461155 0.0016698232 -0.14179754 0.33136266
-0.28047907 0.54743856 -0.47839743 -0.25463563 -0.049422238 -0.65119296 0.46502843 -0.79342055
-0.123649485 0.35647354 0.035387848 -0.06706994 0.08749566 0.43217602 -0.06651192 0.35963142
0.23278846 0.43803066 0.25361383 -0.17493358 -0.3217839 -0.5984419 -0.13102935 0.49510854
-0.06232369 0.5865123 -0.08703942 0.16238981 -0.06929167 0.3488452 0.12900336 0.35216305
0.09118438 -0.12498502 0.07250068 -0.23047732 -0.37137073 0.2042424 0.24271683 0.37223384
-0.24155879 0.040657982 -0.037932135 -0.42777866 -0.41092664 0.369928 -0.24943185 0.6398701
0.48210427 0.037697177 0.028002564 0.21656384 0.042615727 0.2436607 0.8041411 0.56962764
0.016644794 -0.08975654 -0.49795252 0.2119147 -0.17357738 0.24994068 -0.27413487 -0.013076125
0.08456063 0.32766014 -0.071971424 -0.9174184 -0.4251648 -0.03531834 0.10478611 -0.39937112
0.09328291 0.89770037 -0.07680421 -0.3924941 0.20846559 0.067292914 -0.3802527 0.8420446
0.2879054 0.40354955 0.3791475 0.08277381 0.28633437 -0.34602144 0.6533803 0.24930277
-0.019466424 -0.41056222 0.16686644 -0.60438025 -0.07294779 0.014085076 0.47826785 0.81620204
0.07698939 -0.40502673 -0.40625784 -0.7188916 -0.3772041 0.2227021 0.5858075 0.1707305
-0.16164647 0.48905334 0.32801604 0.1270756 0.43105322 0.33073258 -0.3785151 0.38453126
-0.3844658 -0.45286435 -0.01422281 -0.30288103 -0.06662577 -0.35632598 0.5666879 0.17722549
0.7059738 -0.16224702 -0.4905819 -0.60729 -0.41671354 -0.22451408 0.2976604 -0.15213369
0.33568156 -0.13668205 0.16122204 0.5289943 -0.5567039 -0.49475795 -0.14255467 -0.6094555

network_body.observation_encoder.processors.0.dense.0.bias f4 [128]
00000000: 9c5c b63d c877 0cbd 9583 28be a77a 58bc
00000010: 1044 3b3e c0b0 95bd e894 08be 5638 fbbd
00000020: 5a4c 91bd eede fd3d ff6c 51bd afb8 d6bd
00000030: 55f2 623e 12d7 0a3e eaf0 92be c11f 33be
00000040: d5fa 45be 20d4 393e 94c8 55be 10f2 ab3d
00000050: fb30 6bbe 5988 233d b741 cebe e2af 8dbe
00000060: a6d9 7cbe 0d70 edbd c8cc 533e 832d 023e
00000070: 38ac 05be 03aa 66be 21c3 16be 6d99 a73e
00000080: 85b0 e7bd 399c 8abb 44c2 32be a48c b2bd
00000090: 00a4 a2be 2b12 a4bd 87de 19be 8687 b6be
000000a0: ca4e 4d3d 54b9 323e 9dc9 c7bd 9f3a 80be
000000b0: 23bd c13a fa6b 5fbe 1705 8fbe c62d 493e
000000c0: b347 99be f4de 013e 5ccc 4e3e 6761 79be
000000d0: 8a5a 3dbe 0a78 4cbd 2d7c 463d c429 a83d
000000e0: 270c 1abe 35d6 eb3d acdc ffbd 83de 41be
000000f0: 59ed 5c3e 560b 8cbe 5405 9bbe ec0c 903c
00000100: 015e 9cbd 4092 20bd 733d 493c 8b3d b6be
00000110: b122 96be d115 abbd eac1 72bc f29e 86be
00000120: d29c 073d 6035 0a3d cc1e 5bbd decf e23d
00000130: cb64 91be 8cd8 a3bd afc6 15be dc98 d43d
00000140: d092 2bbe 5d8c f43d 0ae3 333e e1d8 c7be
00000150: 8de1 0fbe a92e 75bd b82d 88ba 0e78 b9bd
00000160: b9d4 1a3e 94bb 05bd f31e 9b3d 11bd 443e
00000170: d960 a7be d119 d7be 44b6 d13d 0a58 f13d
00000180: 9099 73be 79bf 743e f31b e73a a14b 2dbe
00000190: f59a 103c 6d8d 92bd 38da 0cbe 9a55 1e3c
000001a0: 56c3 573c 750d 8e3e cd69 f73c 407b d3be
000001b0: ef1d 3f3e 70e5 00be 3764 58be df6d bbbe
000001c0: 5ff4 a4bd a6a1 a8bd 5a4b 0abe 594a 8d3e
000001d0: 171e b5be 4209 07bf 230a abbe b760 da3d
000001e0: 09c6 4dbe 154e e83c 52f0 57be 6d7b f4bd
000001f0: 450a 69bd dfc2 e43c ff9a 45be 57ed 903d
0.089043826 -0.03429392 -0.16456445 -0.013212836 0.18287683 -0.07309103 -0.13338053 -0.122666046
-0.07094641 0.12396036 -0.051129337 -0.10484444 0.22162755 0.13558605 -0.28699428 -0.17492582
-0.19333966 0.18147326 -0.20877296 0.08395779 -0.22967903 0.039924953 -0.4028451 -0.2767325
-0.24692401 -0.115936376 0.20683587 0.12712674 -0.13053977 -0.22525792 -0.14722873 0.32734242
-0.11312965 -0.004230049 -0.17456919 -0.08718231 -0.31765747 -0.08011278 -0.15026294 -0.3565027
0.050123967 0.1745351 -0.097552516 -0.25044724 0.0014781099 -0.21818534 -0.2793357 0.19646367
-0.29937515 0.12682706 0.20195144 -0.24353562 -0.18491569 -0.049919166 0.048458267 0.08211091
-0.15043698 0.11515466 -0.12493262 -0.18932538 0.21574916 -0.273524 -0.30277503 0.017584287
-0.07635117 -0.039201975 0.012282717 -0.3559383 -0.29323342 -0.083537705 -0.0148167405 -0.2629314
0.03310854 0.03374231 -0.053496167 0.11074804 -0.2839721 -0.080002874 -0.14626573 0.10380718
-0.16755223 0.11940835 0.17567077 -0.39032653 -0.14050885 -0.05985895 -0.0010389602 -0.09056102
0.1512021 -0.03264959 0.075742625 0.19212748 -0.32691076 -0.42011884 0.102398425 0.1178437
-0.23789048 0.23901166 0.0017632231 -0.16923381 0.008826007 -0.07155881 -0.13755119 0.009663964
0.01316913 0.27744642 0.030201817 -0.4130497 0.18663763 -0.12587523 -0.21131979 -0.36607262
-0.080544226 -0.08233957 -0.13505307 0.27595785 -0.3537452 -0.527485 -0.3340617 0.10662978
-0.20095076 0.028357545 -0.21087769 -0.11937604 -0.05689456 0.027924953 -0.19297408 0.07076519

network_body._body_endoder.seq_layers.0.weight f4 [128, 239]
00000000: 6fc0 96be 716a d5be 265d e03d 6816 223d
00000010: ef9d c8bd ee7d c73e 3124 af3e 4097 ed3e
00000020: 9fa3 493e 2735 4d3d 92b6 513e 4500 c7be
00000030: 4393 1ebe 5d6e 9bbe 0ec0 0dbb f3f3 573d
00000040: e62c 623d bb0f 17be f0cd a83e 5d0d 47bd
00000050: dba1 14bd d3b2 48be 2925 b93d 4b1c 95be
00000060: 625b 8ebd b6e6 363d 9d6e 9fbc d18b 623e
00000070: 181c 9b3d 203f 2fbe 91db c03e 7480 6d3e
00000080: 5864 42be 609a 9c3d 4f7d 463d 0131 3dbe
00000090: 07ed 023b 7cd6 1b3f 4134 5b3a f73b 9a3b
000000a0: a2d8 5cba 972f d3bd df3b 5abb 0139 123f
000000b0: f2ab e63d 6a7c 9a3e e18a 4bbe af02 003f
000000c0: 6b5c d33d b478 7d3e 35ef c33d a1ae 1f3f
000000d0: 3044 5bbd 5636 5c3e 63a3 0a3f 85db 053e
000000e0: 4024 983d b007 b23e ed5c 103e 4d70 10be
000000f0: 1b73 61be 3e69 1dbe f8ed 54be f532 463e
00000100: 13b1 0fbf 2aa0 e53c f1d8 b3bd e9ee 8c3e
00000110: beb0 dcbd 65e9 e7bc 2333 49be 4e84 293d
00000120: cd22 a03e ee2f e7bd 65f4 38bd 7834 9c3c
00000130: f0de 81be a6c2 b4be 7de2 8e3e 6807 5d3d
00000140: 12ca 90be c6e6 3dbe dba7 293e 9c38 733d
00000150: 6da5 203d ef67 f9bd 9176 5fbe 35ac ebbd
00000160: 4d2b 8b3e 0427 4c3c 3093 9bbe 251c c33c
00000170: 3dbe b13d 8f1a 373e 059c 953e f89a 053f
00000180: daa1 213e 6a41 413d a245 133e 06f2 ef3e
00000190: 0435 8fbd 6ce2 723e 77a3 963d bcd5 c73e
000001a0: cdb8 a8bc 11d5 2fbd 77ae 17be 0517 853e
000001b0: 647b 033e 6a13 a4be 5585 3abe c8a7 cebd
000001c0: 5b45 21bd 31c5 c43c cbfe 1f3e 91f6 e6bd
000001d0: 6a87 ffbe 3dea 15be d92e 9ebe f4d1 e8bd
000001e0: 9d1b dcbe 7828 4b3e 6b65 9dbe 5914 973e
000001f0: 00df 873e 5a5c 73bd bf93 19be a253 0dbe
00000200: 40fa 8fbe d83d 143f 03b4 3d3d a6ae b2be
00000210: cc31 98bd 4596 7cbd a39d 203e f70e 653e
00000220: 6676 df3e 60b9 db3d 7b34 fabe 13b6 51be
00000230: 0179 dbbe f1f5 1c3e 27f5 8f3e 116d bb3e
00000240: b00e 703e 8e4c 61be 98bf 4fbe d647 253e
00000250: 1078 333e f557 e53d cecb e13e acd2 68bd
00000260: d03b 6fbd e500 37bd a187 033e 096b d23e
00000270: 8e46 a2bd c16d 123e d0bf e33e 70fe 973d
00000280: d5ac adbb 2602 1d3e f678 143e 86b7 033b
00000290: 0adb f13e 272e 5e3e 669c f9bd a205 92be
000002a0: 4b4b c8bd e5f2 5d3e dfef 403e cf96 cf3e
000002b0: 3f8b 49bc d510 2fbe 3214 60be 5a22 10be
000002c0: 10d3 aa3d 0a3a ad3e 44fb 433e 4cd9 82be
000002d0: 2efc 363e 2feb a73d 4834 083e ed1c 853e
000002e0: 938b e9bc abf8 9cbd ba34 dfbe 4b10 003e
000002f0: 2c9d 35bd 59bd 493e a46d 943e 6a65 b83d
00000300: 36d9 c63e 8663 7a3e 1ab6 ad3c b5ac 67be
00000310: dde6 b23e 9cf5 cf3d b011 40be ad9e 11bd
00000320: 2c2a ae3e c3a2 83bd e3ae 89be e7ff 5e39
00000330: 131a e53d 87de d1bd 670e af3b f381 22bd
00000340: 133a 91be b094 14be ef26 dabe 6ee1 1e3e
00000350: 48f3 b23d b18f 273e c680 6c3d 8320 aabd
00000360: 3195 083e ae04 0e3f 06c4 cb3e 1567 583d
00000370: 206d bdbc 50c4 60be 42db 1abe 3980 a0be
00000380: 7bf5 a83e 6b3a a03e c10d 583e edc2 ce3e
00000390: cfb1 66bc ae7a d6be 439e bcbe 6447 2e3a
000003a0: b0de 623e a2d1 6b3d 7a78 1d3f 8ed3 433e
000003b0: ade5 053f 684b ed3d 0e43 383f 13a8 0bbe
000003c0: 7f5b f53d efde 2f3e 14dc 1dbd 258f ad3d
000003d0: f062 7e3e 63ac b0bd 735b fdbd c215 1c3e
000003e0: a2e1 7a3b b200 f33d 12c7 393d fff3 1a3f
000003f0: c607 06bd 7504 1d3c 2122 903d f50e b63c
-0.2944369 -0.4168277 0.10955267 0.03957215 -0.097957484 0.38963264 0.342073 0.46404457
0.19691323 0.05009952 0.20479801 -0.38867393 -0.15485863 -0.30357638 -0.0021629366 0.052722882
0.0552186 -0.14752094 0.32969618 -0.04859673 -0.03628717 -0.19599466 0.09040291 -0.29123148
-0.06951024 0.044653617 -0.019461924 0.22123648 0.07573718 -0.17113924 0.37667516 0.23193532
-0.1898359 0.07646632 0.048459347 -0.18475725 0.0019977705 0.6087415 0.00083619735 0.0047068554
-0.0008424615 -0.103118114 -0.0033299846 0.5711823 0.11263265 0.30173045 -0.19877197 0.50004095
0.10320362 0.24753076 0.095671095 0.6237584 -0.053531826 0.21505103 0.5415556 0.13072021
0.07428789 0.3477149 0.14097948 -0.1410534 -0.22016566 -0.15372178 -0.20793903 0.19355376
-0.5612957 0.028030474 -0.08781613 0.27526024 -0.107758984 -0.028309533 -0.19648413 0.04138594
0.3127655 -0.11288439 -0.045154948 0.019067988 -0.253654 -0.35304755 0.27907172 0.05396214
-0.28279167 -0.18545064 0.16567938 0.05938016 0.039220262 -0.12178027 -0.21822573 -0.11507455
0.27181473 0.012460474 -0.30385733 0.023817131 0.08678863 0.17881225 0.29220596 0.5218959
0.15784398 0.047181524 0.14382032 0.46864337 -0.06992534 0.23719186 0.07355397 0.39030254
-0.020595932 -0.042927805 -0.14812647 0.25994125 0.12840039 -0.32046062 -0.18214925 -0.100905955
-0.039372783 0.02401981 0.1562454 -0.112774976 -0.49908 -0.14640136 -0.30895117 -0.113681704
-0.42989817 0.19839656 -0.30741438 0.29507712 0.26537323 -0.059414245 -0.14997767 -0.13801435
-0.28120613 0.57906866 0.04631425 -0.3489887 -0.07431373 -0.061666746 0.15685134 0.2236899
0.43645018 0.10728717 -0.48868164 -0.20479612 -0.42865756 0.15328194 0.28116724 0.3660665
0.23443103 -0.2200186 -0.20287931 0.16140684 0.17526269 0.11198417 0.44100803 -0.056841537
-0.05840665 -0.044678587 0.12844707 0.41097286 -0.079236135 0.1429968 0.4448228 0.07421577
-0.005300144 0.15332851 0.14499268 0.0020098402 0.47237426 0.21697293 -0.12188034 -0.28519922
-0.09779986 0.21674688 0.18841504 0.40544745 -0.012301265 -0.17096265 -0.21882704 -0.14075604
0.08341038 0.33833343 0.19138819 -0.2555641 0.17869636 0.081991546 0.13301194 0.2599863
-0.028508937 -0.07664617 -0.43594915 0.12506215 -0.044339344 0.19701137 0.289899 0.09003718
0.38837594 0.24452028 0.021204997 -0.22624476 0.3494176 0.10154268 -0.18756747 -0.035551716
0.3401655 -0.06427529 -0.2689124 0.00021266901 0.11186614 -0.10247522 0.005342293 -0.03967471
-0.2836462 -0.14509845 -0.4260783 0.15515682 0.087378085 0.16363408 0.057739995 -0.08306982
0.13338162 0.5547589 0.39797992 0.05283268 -0.023123324 -0.21949887 -0.15122703 -0.31347826
0.32999787 0.3129457 0.21098997 0.40383092 -0.014080479 -0.41890472 -0.36839494 0.0006648211
0.22155261 0.05757297 0.6151196 0.1912367 0.5230358 0.11586648 0.7197732 -0.13638334
0.11980342 0.17174886 -0.03853996 0.08474568 0.24842429 -0.0862663 -0.12370958 0.15242675
0.003828146 0.11865367 0.045355864 0.6052856 -0.032722257 0.009583582 0.070377596 0.022223929

network_body._body_endoder.seq_layers.0.bias f4 [128]
00000000: b491 8f3e 2975 fdbe a7a1 b23d e4f0 c8bd
00000010: 2868 3dbe cbd4 9bbe e0bb 203e 487f 2cbe
00000020: 5d64 22be 9d80 93bd 758a 613e 2ee6 b8be
00000030: 4500 f3be a3cd bdbd 7c77 08be 0d09 7bbc
00000040: f819 7b3e 9e54 513d 684c 643d 1cc5 87bd
00000050: 2e14 1dbe 76cd 453e a874 bb3d 9c20 57bc
00000060: 0958 17be 178f 1a3e 46be 83be ebb6 41be
00000070: 908a 1bbe e2a5 a0be 97bb 90bd beec c5bd
00000080: ad1e 853e a2ed 413b 80e2 95be 3a3a 0f3f
00000090: 9f98 d03d 3b36 fbbd 18d4 1ebc f616 4abe
000000a0: 3ee6 10be b8ff 14be 44f8 273e f3e2 44be
000000b0: af47 a63d 5e9c 763e f1cd bf3d adbc 54bd
000000c0: d369 36bd 2a2b dfbd c097 febd 1b66 85be
000000d0: 7324 d4bd 4fb0 c13d 1bca 0abe 0843 d3bd
000000e0: 036b 99bd a1d0 99be 23aa 9ebd d4c9 193d
000000f0: a135 bfbd 7694 e3bd 8798 6d3d 190d 883e
00000100: 12d9 79be ee0f b7bd 97ba 1cbe 48cd 23be
00000110: b395 9b3e 64f0 d0be e1d5 90bd db55 eb3d
00000120: 9b4c fdbd b29b 31bd 6771 e13d f8a9 b7be
00000130: a4a6 b13d 68ac 7a3c 63a0 acbe 9fbf 5f3b
00000140: 5887 adbd 95a0 a73e 06a1 e1be eba7 b3bd
00000150: 6c1c cc3e b1be c73e a0bd 91be 045e cbbe
00000160: ee0f 053f d9c5 debc 43f1 623d cf8e 1b3e
00000170: 6586 023e 35db 383e 9474 b0be 4849 14be
00000180: 6419 5ebd 3f1e 3a3e 97be 56be fb15 6cbe
00000190: f7cf af3e 5b5f a1be 61ee 9dbc c5db 80bd
000001a0: c59e e23d 0814 97be ac76 c8be 59b2 52be
000001b0: eac1 31be d4ee 37be e8a8 6fbe 3de1 a1be
000001c0: e850 b63d 7dfe 073f bd5e 91be 73b9 1ebe
000001d0: 5275 e03d 21d8 ad3e 5da3 b3be de5f 09be
000001e0: 1d4a 80be 7337 2cbe c077 64bd 4060 263e
000001f0: c5c4 92be 1683 1c3e 22cd 8c3e e251 173f
0.2804085 -0.4950345 0.08722239 -0.09811571 -0.18496764 -0.30435786 0.15696669 -0.16845429
-0.15858598 -0.072022654 0.22025473 -0.36113113 -0.47461143 -0.09267738 -0.1332683 -0.015321982
0.24521625 0.051106088 0.05573693 -0.066293925 -0.15339729 0.19316658 0.0915311 -0.013130333
-0.14779676 0.15093647 -0.25731105 -0.18917434 -0.15189576 -0.3137656 -0.0706703 -0.096642956
0.25999966 0.0029591103 -0.29274368 0.5594822 0.1018536 -0.12266203 -0.009694122 -0.19735321
-0.1415033 -0.14550674 0.164033 -0.192272 0.08119141 0.24083087 0.09365452 -0.051937748
-0.044534516 -0.10896905 -0.12431288 -0.26054463 -0.10358515 0.09457456 -0.1355366 -0.103155196
-0.07491114 -0.30041984 -0.07747295 0.037545994 -0.09336401 -0.11112301 0.05800679 0.26572493
-0.24399212 -0.08938585 -0.15305553 -0.15996277 0.3038765 -0.40808403 -0.07072044 0.11490985
-0.12368127 -0.043361373 0.11007958 -0.35871863 0.08674362 0.015299894 -0.33716115 0.0034141315
-0.084730804 0.32739702 -0.44068164 -0.08772262 0.39865434 0.39012673 -0.28464985 -0.39720166
0.5197743 -0.02719395 0.055405866 0.15191196 0.1274658 0.18052371 -0.34463942 -0.1448108
-0.054223433 0.181756 -0.20971142 -0.2305526 0.34338352 -0.31518063 -0.019278707 -0.06291918
0.11065439 -0.2950747 -0.3915304 -0.20575847 -0.17359129 -0.179622 -0.23404276 -0.31617156
0.089021504 0.53122693 -0.28392592 -0.15500431 0.10959877 0.33953956 -0.35085574 -0.13415477
-0.25056544 -0.16818027 -0.055778265 0.16247654 -0.28665748 0.1528438 0.27500254 0.5910932

network_body._body_endoder.seq_layers.2.weight f4 [128, 128]
00000000: 0a6a a0be 4f08 87be 2c0d c8be b65f 32be
00000010: 5a2a 763d 3df6 d1bd 4697 263e 8819 043d
00000020: c8a8 e3bd ecaa eebe d0bf 1d3e 5fc1 77bd
00000030: 28b3 3fbe 72e0 94bd 1418 d9be bcc0 d3be
00000040: a28e 80bd e4cd a3be 6626 38bc 8a58 603e
00000050: 5fce 283b 1020 823e fd62 343e 5729 2f3e
00000060: c8a4 3e3d ef59 403f d5a2 5cbc 10a6 ba3e
00000070: cd54 b3be 3275 203e 2af8 dbbd 5fd8 90bd
00000080: 991f 043d 70f5 82bd 1af6 153e f0ba 0a3f
00000090: 34b9 4dbd f5ae a83c 11ae 42bf d66d 81be
000000a0: e35f 53be 3aea adbd d8f1 303e 1348 cabc
000000b0: f093 58be a8d3 b73e f12f 183e 8755 923e
000000c0: 275b 56be b860 e73d a8e5 8d3e 6c9b 50be
000000d0: 93f0 bb3e 72da a53e 5264 7abe fb75 8d3e
000000e0: 5b4b 38be a3a3 8c3e c363 e2be a0f0 77be
000000f0: e2d2 073e 1118 9abe ad84 023e 3664 1cbe
00000100: 9c1a 50be c75f 36bd 8a17 27bc ec71 a13d
00000110: 1e42 153f ac01 11be e1e4 ce3e 9da6 3ebe
00000120: 9a4c 16bf 5258 1e3e 8015 8cbe b48c 183f
00000130: b09e 97be b595 dabe 257e 3ebd 6ccf e5be
00000140: bbc8 cbbe 798b 273e e91d 293e bf23 c63c
00000150: f0ef 913d 1bf6 a53e 2b8e 37bf 9e8c dd3d
00000160: bb7f 2a3f 70fb 683e eebc 8bbe c697 ff3d
00000170: e33e d63e 3d1c 8abe 8151 bb3c ac9b afbd
00000180: 0fb1 f4be e466 ecbb 433a 2abd e33e 863c
00000190: cd97 aa3e 904c e33d 2d36 2fbe 320e 4cbe
000001a0: 9aca be3e 067d aebd c573 96be 22f3 84bd
000001b0: dfe8 953d cf56 613d 5160 d53e 0510 7e3d
000001c0: bbb5 33bd 823e 033f 8559 03be 0fac a23e
000001d0: d298 2cbd f921 663e 687a bdbd cbab 4fbc
000001e0: 5d56 253e 66e7 3ebd b78e d83e f7aa 3b3f
000001f0: c51a 203e 4c70 493e d417 003f 4593 7b3d
00000200: 1d5a 75be 54f0 56be e2bb 47bf 14b8 ec3e
00000210: ff18 7b3c b3a7 96be 3822 193f 9f14 c03e
00000220: df83 d43d a3b8 053a 3b23 963e 0fc5 f1bc
00000230: ea5a 99bd 1a48 df3e 1cf4 7abe 9ee1 d6be
00000240: c9b5 3cbc 9229 9dbe 3a26 5bbe 517d 123f
00000250: 7f54 353e 2283 b93e dc0a a43e 67d1 133f
00000260: e8b8 c4bc 36a3 333f eb1d 1fbf 9419 783e
00000270: afbf 4bbe 992f 45bd 305d febe 23d0 4bbd
00000280: b095 da3e a11e c03e 2d38 79be eba9 233f
00000290: ff9b 92be 0a98 d03e 802f 19be e3d8 fe3c
000002a0: 5db6 e1be c9ec e8be df2f 15bf 74ce 653e
000002b0: 76ce ccbd c66d 363d fa09 463d 61ff 753e
000002c0: 387a 30be 61de 073e 5bbe 1d3e 8335 1ebe
000002d0: 7553 b43c 5c05 243f dd14 4c3d dfe6 5f3d
000002e0: 555e ebbe 47e2 37bd 881c dfbd 4c76 b9be
000002f0: c988 bf3e e2e6 3ebc b441 1b3f c806 c73d
00000300: ce2d 10bf fe6c 0ebe be62 b3be 9042 a13e
00000310: ca56 2d3f ab89 59be b0e3 a9bd 4e57 cebc
00000320: 4cbe b6be a89b 033f 54fc ddbd a912 8bbc
00000330: a28f 0bbf b9e6 86be 24c0 adbe 1773 a73e
00000340: 6976 21be 1eb0 a13d 0527 65bc 2d83 adbd
00000350: 39e3 983e 83fa 3a3f 2b91 38be 3941 873e
00000360: cd2a 173f 69d1 b53c 01f7 0cbd 52ed 0a3e
00000370: b603 503e 599e 99be 8706 403e 249c 17bf
00000380: 3f31 b1be 43b9 8c3e 63d8 e8be 02ca 8b3e
00000390: 54a5 303f a458 bcbe dd6c b53e f087 1fbf
000003a0: 05a2 583f 40e2 753d 3e8c 0dbc f2c0 b1be
000003b0: 4aad 093f bea2 a0bd c58d 5f3e 1f0d 883e
000003c0: eed9 4ebe 4e9a 033f f51c a03e 5620 093e
000003d0: b2a6 f4be ec70 a6bd 0c44 a33e 7d99 05bf
000003e0: 99b9 c43e 12da 6fbd 34ab c43e e620 3d3f
000003f0: 9aa4 e73d 8ca6 473e 993e 183f 82a6 c23e
-0.313309 -0.26373526 -0.3907255 -0.17419323 0.060098983 -0.10252044 0.16268644 0.03225091
-0.11116177 -0.46614778 0.15405202 -0.060487147 -0.18720686 -0.07269372 -0.42401183 -0.41357982
-0.06277205 -0.3199302 -0.011239624 0.21908775 0.0025757772 0.25415087 0.17615886 0.17105614
0.046543866 0.7513723 -0.013466557 0.3645482 -0.35025635 0.15669706 -0.10740693 -0.070725195
0.032256696 -0.0639447 0.14644662 0.54191494 -0.05022545 0.020591239 -0.76046854 -0.2527911
-0.20642047 -0.08491941 0.17279756 -0.02469257 -0.21150184 0.35903668 0.14862038 0.28580877
-0.2093321 0.112977445 0.27714276 -0.20371789 0.3670698 0.32393223 -0.24452332 0.27629074
-0.17997496 0.27468595 -0.44216737 -0.24212885 0.13264039 -0.30096486 0.12745924 -0.15272602
-0.2032265 -0.044524934 -0.010198483 0.07883057 0.5830401 -0.14160794 0.40408996 -0.18618245
-0.58710635 0.15463379 -0.27360153 0.59589696 -0.29613256 -0.42692342 -0.04650702 -0.44884813
-0.39801583 0.16361798 0.16515316 0.024186967 0.071258426 0.32414326 -0.71701306 0.10817836
0.6660115 0.22752166 -0.2729258 0.1248012 0.41844854 -0.2697467 0.022866013 -0.08574614
-0.47791335 -0.007214414 -0.04155947 0.016387409 0.3331894 0.110985875 -0.1711051 -0.1992729
0.37263948 -0.0851994 -0.293852 -0.064916864 0.07319807 0.055014428 0.41675046 0.062026996
-0.043874484 0.51267254 -0.12827118 0.31771895 -0.04213793 0.22473897 -0.09251863 -0.012675236
0.16146226 -0.046607397 0.42296383 0.73307747 0.15635212 0.19671744 0.5003636 0.061419744
-0.23960157 -0.20990115 -0.7802106 0.4623419 0.015325784 -0.2942482 0.5981784 0.37515733
0.10376715 0.00051010604 0.29323754 -0.02951291 -0.074880436 0.43609697 -0.24507183 -0.41969007
-0.01151795 -0.30695778 -0.21401301 0.5722247 0.17708014 0.3623286 0.32039535 0.577414
-0.024013951 0.70170915 -0.62155026 0.24228507 -0.1989734 -0.048141096 -0.4968047 -0.04975904
0.42692327 0.37523368 -0.24337836 0.6393115 -0.2863464 0.40740997 -0.14959526 0.031109279
-0.44084445 -0.45493153 -0.5827617 0.22442037 -0.10000317 0.04453828 0.04834936 0.240232
-0.17234123 0.13268425 0.15404646 -0.154501 0.022012452 0.6407068 0.049824584 0.054663535
-0.45970407 -0.04489353 -0.10894114 -0.36223066 0.37409046 -0.011651726 0.6064713 0.0971809
-0.5631989 -0.13908765 -0.35036272 0.31496096 0.67710555 -0.21243922 -0.08295381 -0.025188114
-0.3569206 0.5140939 -0.108391434 -0.016976671 -0.5451604 -0.26347902 -0.33935654 0.32704994
-0.15767826 0.0789492 -0.013986354 -0.084722854 0.29860857 0.730385 -0.18024127 0.26416948
0.59049684 0.022194581 -0.03441525 0.13567093 0.20313916 -0.30003622 0.1875249 -0.59222627
-0.34607884 0.27485093 -0.4547759 0.27302557 0.6900227 -0.36786377 0.3543462 -0.623168
0.8462222 0.060030222 -0.008639393 -0.34717518 0.53780043 -0.078435406 0.21831425 0.2657251
-0.20200321 0.51407325 0.31272092 0.13391241 -0.47783428 -0.08127007 0.31887853 -0.5218733
0.3842285 -0.058557577 0.38411868 0.73878324 0.11310692 0.19497126 0.59470516 0.3801766

network_body._body_endoder.seq_layers.2.bias f4 [128]
00000000: 7c78 c63e 9d71 fc3e b87d 80be e072 b53d
00000010: 8546 843e 090b 9dbe 9327 083e 3d85 92bd
00000020: ecbf da3c 26df 023e b6ce 08be 84ca cfbe
00000030: de75 40be b233 9a3d e9a7 d4bd e611 7bbe
00000040: e42c 763e e032 abbe a852 453e 9a69 4cbe
00000050: 172a 253f 3c64 6cbe 7f44 fa3d 62bc ca3e
00000060: e781 493e 09ab 1dbe 75bf 4c3f 0f5b 653e
00000070: d3f6 36be b366 b13e 3c63 03bd 229a 243e
00000080: a1a7 1c3e 2a81 4bbd 08d6 74be 03ec 09be
00000090: 26a8 dabc 432c bfbd 19dd cf3e 5467 9bbe
000000a0: 996a 3fbe b6f7 163d b99e 443e fe61 9d3d
000000b0: 5cca 72bd 592e 69be d9aa 52be ea3b 253e
000000c0: 9305 d2bc 2cef 2e3d 760f 123e c1e4 553e
000000d0: 1dca 8e3d dfdd b9be 280f 7bbe b79c 103e
000000e0: 37c2 ea3d bc45 67be dbc8 5cbd 60d1 5c3d
000000f0: 3445 d9bc 1409 dc3e 3bf0 b53e caf4 4f3e
00000100: 965a 33be ca92 433d 36bd 6a3e 64be fbbd
00000110: 0fc1 aa3e c3e2 37be b086 dcbe 21c5 c3be
00000120: a90b 4b3e d042 84be df37 973d 8d3c 633c
00000130: 8965 b7bd ad02 93bd 787f 76bd a4dc e6be
00000140: f4b6 f13d 2796 143f 2033 9fbe c709 adbe
00000150: 5ca8 88be 5bba 25bd 5b82 98bc 2234 623e
00000160: 22a0 0cbe 87b2 483e b67f 85bd 5300 5cbe
00000170: 5193 833d c824 af3d cce1 8d3d 051c bdbd
00000180: 0a1d abbe fe08 7bbe 99d7 d9be 43d6 1fbe
00000190: 9fcc fd3d 17f4 8dbe 1356 fe3c 92f1 b53d
000001a0: c0a3 aabe 9073 9e3e 618c 3fbe eec9 b0bc
000001b0: 613a 43be 63f0 663e ca14 e0bd 2e53 1bbe
000001c0: c53a f53e 0ed8 cf3d c8d9 82bc 79a7 12be
000001d0: dfc3 41bd ec0d e3bd d0e3 abbd 235f 7abd
000001e0: 885d 863e 4de3 eabb 05ab 2cbe 69e8 623e
000001f0: e06e 17be 101e c53d 7560 833e ef1c 6d3e
0.38763797 0.4930543 -0.25095916 0.08859801 0.25835052 -0.30672482 0.13296346 -0.071543194
0.026702844 0.12780437 -0.13360104 -0.40584195 -0.18794963 0.07529391 -0.10383589 -0.24518546
0.24040562 -0.33437252 0.19269812 -0.19962159 0.6451735 -0.23085111 0.12220096 0.3959685
0.1967846 -0.15397276 0.7997964 0.22398017 -0.17867593 0.34648666 -0.03207706 0.16074422
0.1529832 -0.049683727 -0.23909771 -0.13468938 -0.026691508 -0.09334614 0.40598372 -0.3035227
-0.18693008 0.03685733 0.19201173 0.07684706 -0.059275016 -0.22771586 -0.20572986 0.16136137
-0.025637424 0.04270856 0.1426371 0.20888044 0.06972144 -0.36302087 -0.245175 0.14122282
0.11462825 -0.22585195 -0.05390249 0.053910613 -0.026522256 0.42975676 0.35534844 0.20308223
-0.17515025 0.04774741 0.2292374 -0.122921735 0.33350417 -0.17957596 -0.43071508 -0.38236335
0.19828667 -0.25832224 0.073837034 0.013869417 -0.08954913 -0.07178245 -0.060180157 -0.4509021
0.11802474 0.58041614 -0.31093693 -0.33796522 -0.26690948 -0.040460926 -0.018616846 0.220902
-0.13732961 0.19599353 -0.065184996 -0.21484499 0.06424583 0.08551937 0.06927833 -0.0923386
-0.33420593 -0.24515149 -0.425473 -0.15609078 0.12392544 -0.27725288 0.031046903 0.088839665
-0.33328056 0.30947542 -0.18705894 -0.021580663 -0.19065239 0.22552638 -0.10941465 -0.1516845
0.478964 0.10148631 -0.015972987 -0.14321698 -0.047305938 -0.1108664 -0.08393061 -0.061125886
0.26243234 -0.0071682096 -0.16862114 0.2215897 -0.14788389 0.096248746 0.25659528 0.23155569

action_model._discrete_distribution.branches.0.weight f4 [5, 64]
00000000: 1879 943e a733 b73f e723 623e e509 febe
00000010: 273e 2fbf d353 5bbd c3b7 d5be 1c54 e9be
00000020: 4aa9 303e 53e8 30ba 9f3e f6be b9ea 1f3f
00000030: 8a29 a03e f156 1d3f e40a 263f af84 a4be
00000040: 75b3 9cbe 3e25 58bd c5ff 3bbe 1350 153f
00000050: e8bf 993f 097a 6dbe 285f e3be 05df f9bf
00000060: cc01 90bf 6534 5dbf 17a1 88bf 1a53 43bf
00000070: 1be6 53bf a875 893e 2221 2abf 0b43 6cbf
00000080: 9d62 c53e f8b3 303f 92b5 c53e 5f62 663f
00000090: 9316 bcbb b584 e5be d531 93be 630c 683e
000000a0: e858 2c40 5054 d2be 8996 023f ed48 51bd
000000b0: 1e73 ddbe 4b45 95bd 139a fe3d 76f1 8e3d
000000c0: d1cc 64bf eeea 1cbe e7bc 49bf 254e 6e3e
000000d0: 7140 0ebd 4a46 fabd da76 8e3f 1fde 1cbe
000000e0: 4866 ad3d 2927 a53f 9246 15bf 6ea6 483d
000000f0: 04ce c6be 4010 2cbe 54ac 15bf 5569 7cbe
00000100: 0e7c 1840 8a51 9bbf 1c95 673f 241a 503f
00000110: dd89 1b3f 63b0 8dbf 64c0 c0bf 07fe 1a3f
00000120: cf09 c63f 6e71 d73e 3fa4 99bf 0636 593d
00000130: 50f2 a93f e2e9 573f 6acc 853f 164b 9abf
00000140: df71 e6bf b058 11bf dcfe 6dbf 09b4 c2bf
00000150: 9bcc 7f3f 45a3 91bf 0a78 f1bf b634 343e
00000160: 03cd d6bd 439c 9c3f 6eaa 443f 8660 293f
00000170: 15f4 883e e15a 57be cd2e e1be d34d 803f
00000180: 1ebf 0440 1894 163e a506 ed3c 7068 383f
00000190: 1038 db3e d234 cc3f b52e f5bf 3caf 583f
000001a0: 8dbd eebf 7938 0ac0 ba33 e43e 619d 8a3f
000001b0: 4eb3 e8bf c850 223f b4c3 143f 7736 a13f
000001c0: 3914 ffbe b660 c4bf c038 a23f 23c7 92bf
000001d0: 61e6 7dbd a647 1fbf df5f 4dbf f460 a53f
000001e0: 3297 cabf dfa7 37bf fce3 a53e 56a9 42bf
000001f0: c8e8 ac3f 5091 2cbf 0a2d dd3d cda5 fe3e
00000200: ae0b 083f 1c2c 493f 3f86 b33e b25d 333d
00000210: bbc1 18be 74a8 f03e 1d9d 563e 0bf0 2ebf
00000220: cef7 2f3f 6ad0 adbf 0fd4 783f 2652 893e
00000230: 5144 753e 9111 063f c50c adbe cb88 5bbf
00000240: 6cd5 19bf e2a7 25be 8578 e13e a13b 893f
00000250: e4f8 a73e 872b 5bbe c020 3abf 8f54 b83e
00000260: 8245 263e e18f a0be f1c5 d63e 36fe 63be
00000270: f4f8 dc3e 73b5 ea3d b364 0c3f 004a 3cbf
00000280: c354 bf3e e5fe b53f 353e 003f d2a7 86bb
00000290: c808 07bf d9d8 7b3f 3432 85bf 7ebe f6be
000002a0: 542c 9d3e 4ac7 97bf b0ea 29be 0c11 2e3f
000002b0: c734 19bf 7ecf e23c 7535 2e3f 9e60 9c3e
000002c0: ba20 d13e 7a0b d93e e172 d2be a921 6ebd
000002d0: 616a 4bbf e265 88bd a4f9 a33e eb5f fd3e
000002e0: b246 86be 14e8 8fbd d9a1 dbbe 33de aebd
000002f0: 0f8d f7be 64b7 f83e 0dae 603f 105d 21bf
00000300: 99b9 70bf ab08 0ac0 2aa0 8dbe 03a1 9f3f
00000310: 9460 443f bd0f c53f 3592 cebd 653a 96bf
00000320: b957 ab3f 7080 d43d f1cd b03f 36ac 11bf
00000330: 290d 3abe a8a5 803f f52b ffbf 1441 d93e
00000340: ec9b 6a3f ae62 8e3f e4c8 b03f 5309 863e
00000350: de86 42be beec 883e 5292 703f fa59 163f
00000360: 07e1 733f 0eec 263e 8d65 5d3e 163d 5c3f
00000370: bbb6 273f 51c2 0f3f 366f 323e 9eda a9be
00000380: eca0 a9be fe9a 663f 2fba 7cbf 7b39 10bf
00000390: f7df febf 6c59 2ebf 74e1 943e 3149 64bf
000003a0: 2186 1abf e7c7 6c3d b3bd de3c 131f 8f3f
000003b0: 7ec4 f83e b3d8 9e3c 9ae6 743f fd10 cabe
000003c0: b572 a53f e645 5dbf 3e2b 83bf 6923 c43f
000003d0: e1a0 0b3f f15e d4bf 82ff fdbe 7f9e c2be
000003e0: 1a20 2a3f c3bd 393e cc66 a0bc 1bc5 a8be
000003f0: cfd9 e9bf a255 52bf 1154 34be 9e3d d6bf
0.28998637 1.4312638 0.22084008 -0.49616924 -0.6845421 -0.053546738 -0.41741762 -0.45571983
0.17252079 -0.0006748486 -0.4809465 0.62467533 0.31281692 0.6146079 0.6486037 -0.3213248
-0.30605665 -0.052769892 -0.18359287 0.5832531 1.201169 -0.23191084 -0.44408536 -1.9521185
-1.1250548 -0.8640807 -1.0674161 -0.7629868 -0.8277299 0.26847577 -0.66456807 -0.922898
0.38551798 0.6902461 0.3861509 0.8999385 -0.0057399957 -0.4482781 -0.28748956 0.22660975
2.6929264 -0.4107995 0.5101095 -0.051094938 -0.4325189 -0.07288607 0.12431731 0.06979649
-0.89375025 -0.15323994 -0.7880387 0.23271997 -0.034729425 -0.12220438 1.1130021 -0.15319107
0.08466774 1.2902576 -0.58310807 0.048986845 -0.38829052 -0.16803074 -0.58466077 -0.24649556
2.3825717 -1.2134259 0.904619 0.8128989 0.6075724 -1.1069454 -1.5058713 0.60543865
1.5471743 0.42078727 -1.2003249 0.053030036 1.3277073 0.8434125 1.0453007 -1.2054164
-1.8003501 -0.5677595 -0.9296701 -1.5211192 0.9992158 -1.1377951 -1.8864758 0.17598233
-0.10488322 1.2235187 0.76822555 0.6616291 0.2674872 -0.21030761 -0.4398102 1.002375
2.0741649 0.14704931 0.028933832 0.7203436 0.4281621 1.595362 -1.9154879 0.84642386
-1.8651596 -2.1596968 0.44570714 1.0829278 -1.817972 0.6340451 0.5811112 1.2594746
-0.49820116 -1.5342014 1.2673569 -1.1467022 -0.061987285 -0.622187 -0.8022441 1.2920213
-1.5827391 -0.71740526 0.324005 -0.76039636 1.3508539 -0.6740923 0.10799606 0.4973587
0.5314282 0.7858293 0.3506336 0.043790527 -0.14917652 0.4700352 0.20958371 -0.68335027
0.68737495 -1.3579228 0.97198576 0.26820487 0.23951842 0.52370554 -0.33798805 -0.85755605
-0.6009128 -0.16177323 0.44037262 1.0721322 0.32807076 -0.21403323 -0.7270622 0.36002013
0.16237453 -0.3135977 0.41947892 -0.22264943 0.43158686 0.1146039 0.54841155 -0.73550415
0.37369356 1.4218413 0.5009492 -0.004109361 -0.52747774 0.9837776 -1.0405946 -0.4819221
0.30697882 -1.1857693 -0.16593432 0.6799476 -0.59846157 0.02768683 0.6805032 0.30542463
0.4084528 0.42391568 -0.4110327 -0.05813757 -0.79459196 -0.066600576 0.32026398 0.49487242
-0.2622581 -0.07026687 -0.42896917 -0.08538475 -0.48349807 0.48577416 0.8776558 -0.6303263
-0.940332 -2.156779 -0.27661258 1.2471012 0.76709867 1.5395428 -0.100864805 -1.1736571
1.3386146 0.1037606 1.3812848 -0.569034 -0.18169083 1.0050554 -1.993529 0.42432463
0.9164417 1.1123865 1.3811307 0.2617899 -0.1899676 0.2674312 0.9397327 0.58731043
0.9526524 0.16300985 0.2162077 0.8603071 0.655132 0.5615588 0.17425236 -0.33174604
-0.33130586 0.9008025 -0.98721594 -0.5633771 -1.9912099 -0.68105197 0.29078257 -0.8917418
-0.60360914 0.05780783 0.027190065 1.1181358 0.48587412 0.01939044 0.9566437 -0.39466086
1.2925631 -0.8643478 -1.0247571 1.5323306 0.54542357 -1.6591474 -0.49609 -0.38011548
0.66455233 0.18138795 -0.019580267 -0.3296288 -1.8269595 -0.82161915 -0.17610194 -1.6737554

action_model._discrete_distribution.branches.0.bias f4 [5]
00000000: e190 0c40 ce1a f9be 68ea acbe 4664 08bf
00000010: 9afe 14bf
2.1963427 -0.48653263 -0.33772588 -0.53278005 -0.5820099
