Assets/Roundabout/TFModels/CrossroadLights.onnx (onnx, 479971 bytes, 15 tensors)

network_body.observation_encoder.processors.0.conv_layers.0.weight f4 [16, 9, 8, 8]
000000 8f e3 ef bc c2 36 04 bd 42 11 5a be 4e 76 c1 be
       -0.029283313 -0.032278784 -0.21295646 -0.37785572
000010 48 19 a2 b9 39 36 e4 bc b0 f7 2f 3c f3 84 f3 3d
       -0.00030917884 -0.027857887 0.010740206 0.118905924
000020 2a 58 32 be fa 6a c7 bd 87 4f 0a be fa 02 9a be
       -0.17416444 -0.09737201 -0.135069 -0.30080396
000030 67 6b 80 be 24 b8 e4 bd 2a 4c 07 bd e9 a1 29 3d
       -0.2508194 -0.111679345 -0.03303162 0.041414175
000040 3f ad 0a be 72 8b 4b be 02 e9 c5 bd 3d 15 ef bc
       -0.1354265 -0.19877413 -0.09663583 -0.029184932
000050 02 1b 18 3e 78 c2 0e 3c 32 59 9b bd 8e f5 e0 3d
       0.14854053 0.008713357 -0.07585372 0.10984336
000060 13 23 2f bd 36 0a 39 be e5 b7 c2 bd ea 5a 62 3e
       -0.04275806 -0.18070301 -0.09507731 0.22104993
000070 90 79 61 3e bb 57 e1 bd 0c 34 ed 3b ea 20 33 3d
       0.22019029 -0.110030614 0.0072388705 0.04373256
000080 74 5e ef bd 6f 27 cb be 7b ee b2 be 54 5e d7 bd
       -0.116879374 -0.39678523 -0.3494757 -0.105160385
000090 62 c5 1d 3e 4a 54 da bc 11 eb cd 3b ec 19 27 be
       0.15407327 -0.02665152 0.0062841256 -0.16318482
0000a0 1d 2b eb be 49 11 98 be 69 d5 03 be 6e ea be 3c
       -0.4593133 -0.29700688 -0.12874378 0.023305144
0000b0 10 9e 26 3e 94 5b eb 3c e7 95 dc 3d 93 65 4f bd
       0.16271234 0.028730191 0.10770779 -0.050633978
0000c0 fe 67 f7 be e6 8c 81 be 4f 74 d5 bd be a5 fd 3d
       -0.48321527 -0.2530281 -0.10422575 0.123851284
0000d0 1e 6a 26 3e dd ea f1 b9 dc 6a 10 3e 31 60 bd bc
       0.16251418 -0.0004614209 0.14103264 -0.023117157
0000e0 34 ce 72 bd 77 c4 c1 3d ac 05 50 bc 54 6b ce bc
       -0.059278682 0.09461301 -0.012696665 -0.025197662
0000f0 18 9f 0c 3e 4f b2 b4 bd fc 66 72 3b 46 44 88 3c
       0.13732564 -0.08823072 0.0036987653 0.016634118
000100 bd 99 bc bd e2 a6 7f be 70 78 c7 be ef 23 99 be
       -0.09209011 -0.24966004 -0.38959074 -0.29910228
000110 37 4d d2 bd 87 0d 0f be 9c 8b 9c 3c 5f 7a cf bc
       -0.10268634 -0.13970004 0.01910954 -0.025326906
000120 d7 d6 21 be ed 75 a0 be ea 26 89 be 67 e5 86 be
       -0.15804611 -0.3133997 -0.26787502 -0.26346895
000130 8c e9 30 bd 30 3e 2c 3e 2e 76 eb 3d 89 bc 1e 3d
       -0.043191478 0.16820598 0.1149715 0.03875402
000140 af e1 3e be 47 25 a1 be 39 0c ba be 1d 3b fc bd
       -0.18640779 -0.31473753 -0.3633745 -0.123159625
000150 78 f3 6a be 55 54 c6 bd c7 84 21 3e e1 69 38 bd
       -0.22944438 -0.09684054 0.15773307 -0.04502285
000160 ad be ae bd ac 3b a4 3a 3f d8 47 be ed df 6b be
       -0.08532462 0.0012529991 -0.19516085 -0.2303464
000170 61 d3 c0 bd de de 57 be 01 be 6a be cf ae 4d 3c
       -0.09415317 -0.21081111 -0.22924043 0.012553885
000180 85 0c c8 3d a9 af 88 be 4c 80 74 be 4c 8b 24 be
       0.09768013 -0.26696518 -0.23877066 -0.16068763
000190 f8 92 22 be e0 c7 ba bb 29 1a 95 bc 6e de d9 3d
       -0.15876377 -0.0057000965 -0.01820095 0.10638128
0001a0 13 e9 90 3d fe 9c 05 be 9a 4b 9e be 80 c3 e7 be
       0.070757054 -0.13048169 -0.30917054 -0.45266342
0001b0 2a b8 3f be ce b3 7d bd 9e 27 92 3d 40 48 20 3e
       -0.18722597 -0.061939053 0.07136463 0.15652561
0001c0 bb 96 1e 3e de 81 8f bd e6 55 b9 3d 9c 54 ee 3c
       0.15487187 -0.07007192 0.09049587 0.02909308
0001d0 2d cf 81 bd 78 ed 7f be 4d 86 bb be 40 50 84 3d
       -0.06338344 -0.24992931 -0.366259 0.06460619
0001e0 e0 d4 e9 bd 8f 27 22 3d 38 c2 6f bc 6e a6 b6 bd
       -0.11417556 0.039588507 -0.014633708 -0.08918463
0001f0 c4 4f 2f bd 47 da 09 be 99 34 52 3c 80 62 24 be
       -0.04280068 -0.13462172 0.012829923 -0.160532
000200 34 9f e9 3d ba 4d 69 bd 23 0a b1 bd 01 eb 5d 3e
       0.11407319 -0.05695889 -0.086445116 0.21671678
000210 dc 46 59 3c d9 80 27 3e b6 58 e5 3d 55 60 89 be
       0.013261523 0.16357745 0.11198561 -0.26831308
000220 a7 8f 87 3d 89 ff 87 be ca 77 a7 bd ef 9f 38 3c
       0.066191964 -0.26562145 -0.08177145 0.0112686
000230 33 b1 3f 3e 38 1f 20 3e d0 67 3f 3e 66 80 75 3e
       0.1871994 0.15636909 0.18691945 0.23974761
000240 c4 c9 80 3e cd 20 be 3d 2e a6 cf be c5 28 43 be
       0.25153935 0.092836 -0.40556473 -0.19058521
000250 dd d7 10 3e aa f2 e2 3e 54 9f 53 3e 97 2b d5 ba
       0.14144845 0.44325763 0.20666248 -0.0016263601
000260 7b f6 74 3e cd 07 65 3e 64 b4 8d bd ba c4 04 3d
       0.2392215 0.22366257 -0.069191724 0.032414176
000270 52 dc a2 3d c7 c7 3e 3e dc a2 5d 3e 3d 6d 03 3e
       0.07952179 0.18630897 0.21644157 0.1283464
000280 24 f2 64 3e 5d 0c cd bd e8 02 6f be cd 02 7b be
       0.22357994 -0.10012124 -0.23340952 -0.24512787
000290 ee ca 63 bd 29 be 84 bd d6 f1 1a 3e b1 e0 e1 bd
       -0.05561345 -0.06481583 0.15131316 -0.110291846
0002a0 87 32 ac 3c f0 64 0e be 0b 3b b1 3d af 82 61 bd
       0.021020187 -0.13905692 0.0865384 -0.05505627
0002b0 65 ca 96 3d 96 1b 77 be 7c c2 21 be 50 5f cd 3c
       0.073628224 -0.24131617 -0.15796846 0.025069863
0002c0 03 be 6c 3e 7a 4b 47 3e 76 e0 97 3e 71 2f 32 3e
       0.23119359 0.19462386 0.29663438 0.1740091
0002d0 89 bd b6 3d a6 d8 8c be 5d 55 04 bf ff 27 2e be
       0.0892287 -0.2750904 -0.51692754 -0.17007445
0002e0 6d f2 94 3d 9a 0b 67 3d 7e 64 91 3e 01 d9 a1 3e
       0.072728015 0.05640755 0.28396982 0.31610873
0002f0 66 ca e1 bd c6 78 82 be 30 53 06 be 3c 3f 5f bd
       -0.110249326 -0.25482768 -0.13117671 -0.054503664
000300 83 f6 2e be ab 60 cc 3d e5 24 9d 3d 6b 0e 05 be
       -0.17086224 0.099793755 0.07673053 -0.12993781
000310 5d a7 b8 3d 60 90 34 3e 93 ba 6b 3e 61 03 f3 3d
       0.09016297 0.176332 0.23020391 0.11865879
000320 76 11 83 3e 73 c0 03 bd ce 5b ae bd 23 7b 31 be
       0.2559926 -0.032165956 -0.08513604 -0.17332129
000330 cd 79 a9 bd a4 9c 0e 3e 0e 77 3d 3e a2 f3 9b 3d
       -0.08275185 0.13926941 0.18502447 0.07614829
000340 ff 59 29 be f8 3d 9b bd ce 78 3f 3d 0d 49 d9 bd
       -0.16538237 -0.07580179 0.046746068 -0.106096365
000350 30 b8 0e 3e ac 78 88 3e 78 61 9d 3e 48 65 16 3e
       0.1393745 0.26654565 0.30738425 0.14687073
000360 0f 04 8d bd ff 8b b8 bc 59 b2 07 3e c2 27 e1 3d
       -0.0688554 -0.022527693 0.13251628 0.10993911
000370 c7 26 56 3e 03 d0 cb 3e 7d 67 0b 3e f0 da 27 3e
       0.2091323 0.39807138 0.13613696 0.16392112
000380 8e 11 7a be 0f 3d be be 36 f6 3c be b7 ca 12 3e
       -0.24420759 -0.3715596 -0.18453297 0.14335142
000390 d9 4e 6e 3e 41 8f b8 3e ab d2 14 3e 69 9a 53 bd
       0.23272265 0.36046794 0.14533488 -0.05166093
0003a0 4a 0d c0 be 9a fc cb be ea bf b3 bc de 72 54 3d
       -0.3751014 -0.39841157 -0.021942098 0.05186736
0003b0 23 6c 71 3e b1 fe 14 3e 96 48 d8 3d bb 79 0f 3e
       0.23576407 0.14550282 0.1056072 0.1401128
0003c0 fc d7 d9 3c 2b 69 3d 3e 80 6d 99 3e 3e a8 14 3e
       0.026592247 0.1849715 0.29966354 0.14517304
0003d0 9b a9 e2 3d df 38 fb 3d 5a 33 13 3e e3 9b 82 3b
       0.11067506 0.12266707 0.14375058 0.0039858683
0003e0 98 5a 12 3e 2c 0f 56 3e cf 46 77 3e 60 dc df bd
       0.14292371 0.20904225 0.24148105 -0.10930705
0003f0 30 f0 81 be f8 99 60 bd 05 2a c1 3d d1 2b c6 3c
       -0.2537856 -0.054834336 0.09431843 0.024190815

network_body.observation_encoder.processors.0.conv_layers.0.bias f4 [16]
000000 77 1e ae be 8b 41 58 be 20 ab 3b be f6 c3 ab bc
       -0.34007618 -0.21118753 -0.18326998 -0.020967465
000010 52 bf 96 bd 09 5b c3 bd 91 e2 dd be 48 bf 86 be
       -0.0736071 -0.09538848 -0.4333692 -0.2631781
000020 b0 62 e6 bd 3b 5e 01 be a6 ff e4 bd cb fc b4 bc
       -0.11249292 -0.12633602 -0.111815736 -0.022093197
000030 91 37 5a be 94 a1 3e 3e 5f 59 22 be 40 3f b1 be
       -0.2131026 0.18616325 -0.15854405 -0.34618568

network_body.observation_encoder.processors.0.conv_layers.2.weight f4 [32, 16, 4, 4]
000000 44 6d ba bd 85 52 bb 3e 7a 79 00 3f 88 db a0 bc
       -0.09102872 0.36586395 0.5018536 -0.01963593
000010 7f a6 ee bd b3 6f 0d be 01 1e 23 3e 9c 1b b0 3c
       -0.1165285 -0.13812141 0.15929414 0.02149754
000020 9c ca ed 3e 7e ec c6 3d ae 17 74 bc 23 8a ab 3c
       0.4644364 0.09713076 -0.014898224 0.020939892
000030 63 1c 99 3d 29 b2 7e 3e 6f 7f 1e bd 20 15 cb 3d
       0.074761175 0.2487265 -0.03869575 0.09916139
000040 96 51 a6 3d fa 72 86 be de a9 3e be 50 67 a4 3e
       0.0812103 -0.26259595 -0.18619487 0.3211007
000050 42 a6 ce 3d 92 cb 9a 3e e1 0a 46 3e ad fa dc 3d
       0.10090305 0.30233437 0.19340087 0.1079
000060 0a e2 5e 3e a9 01 1a 3e 3d 97 80 3d 44 6c 3b 3e
       0.21765915 0.15039696 0.062788464 0.18303019
000070 d1 df 7f be eb e7 42 be 37 f1 8e bd 35 12 ff 3d
       -0.24987723 -0.19033782 -0.06979602 0.124546446
000080 04 59 ce 3e c7 db 7e 3a 05 06 a7 bd a3 93 a0 3d
       0.4030229 0.00097220804 -0.08155445 0.078406595
000090 0c f0 ea 3d 23 c3 ed 3d f5 26 a7 3e 03 5b 41 bc
       0.114715666 0.11609485 0.3264691 -0.011801484
0000a0 d8 29 9e be 62 f3 a8 bd 26 bb 4f 3e 74 ed c2 bd
       -0.308913 -0.082495466 0.20286235 -0.09517947
0000b0 f5 c1 d7 bd 9a cd a0 be 4a 70 27 be 62 2e 21 bf
       -0.10535041 -0.31406862 -0.16351429 -0.629614
0000c0 23 ef ce 3d 5e b3 02 be a6 9b 8b be aa 5f 43 be
       0.101042055 -0.12763736 -0.27267188 -0.19079462
0000d0 32 39 d0 3e a9 f4 02 3f f1 d9 59 be 47 55 b6 3e
       0.40668637 0.5115457 -0.21274544 0.35611936
0000e0 73 e8 bb bd 18 b2 15 be 03 6d 17 3f 89 ba 30 3e
       -0.091751955 -0.14618719 0.59150714 0.17258658
0000f0 76 ca 73 be d0 c5 90 be 14 7b 53 be 8b db 6c 3d
       -0.23807701 -0.2827592 -0.2065242 0.05782656
000100 a9 f1 a4 bd b5 f5 f8 bd c4 f2 0a bf 27 e4 ba bd
       -0.080539055 -0.1215624 -0.5427668 -0.09125548
000110 31 05 0e be 32 ba 6b 3c 63 2c 03 3e e8 81 df 3d
       -0.13869168 0.014387654 0.12809901 0.109134495
000120 e7 5f 88 bd 4f 13 19 3e 05 78 00 be 76 9b af 3d
       -0.06658917 0.14948772 -0.12545784 0.08574574
000130 a4 08 b7 3d c2 58 ba 3d e9 28 31 be e9 64 2e be
       0.08937195 0.090989605 -0.17300762 -0.17030682
000140 83 c1 a0 be db 26 11 bb 50 4f 0d 3d d8 78 d9 3e
       -0.31397638 -0.0022148404 0.034499466 0.4247501
000150 bd 78 8b bd 4d 80 3d 3d ee 9e 46 be 1e 3f 90 3e
       -0.068101384 0.046264935 -0.19396564 0.28173155
000160 42 77 95 3e 8c 2c 09 be 9d 21 2f be 78 c0 3d be
       0.2919255 -0.133959 -0.17102666 -0.18530452
000170 5e c8 15 be 92 bb 42 3e 4a 1f db 3c 58 6f 2d 3e
       -0.14627215 0.19016865 0.026748318 0.16937006
000180 92 74 40 3d 0b 97 93 bc eb 2f f9 be e5 6f 19 bd
       0.04698617 -0.018016359 -0.4866937 -0.037460227
000190 a4 a4 11 3d 9d 42 d0 bc 15 14 c8 3e db 5c 0f 3e
       0.035557404 -0.025422389 0.3907782 0.14000265
0001a0 89 ec 46 be cd 28 00 bd d2 55 55 be a6 8b 56 3e
       -0.19426169 -0.03128891 -0.20833519 0.20951709
0001b0 04 f8 e6 bc b5 53 b9 bc bf 9f db bd 45 09 7e be
       -0.028194435 -0.022622922 -0.107238285 -0.24808224
0001c0 e1 86 44 be 46 fa 08 be 14 76 f3 be 75 c3 f9 be
       -0.19192077 -0.13376722 -0.47551024 -0.48781934
0001d0 6d d4 b3 be 0a f3 bd be 5e d2 22 be e9 64 6d 3d
       -0.35123006 -0.37099487 -0.15900561 0.057957564
0001e0 1f 19 b2 be 3a cd b1 3c 80 9c 29 be 47 df 48 3d
       -0.3478479 0.021704305 -0.16563606 0.04904106
0001f0 53 c8 9e be fc d0 3b 3d b3 ef e1 bd 6e ac 84 bd
       -0.3101221 0.0458536 -0.11032047 -0.06478201
000200 d7 0f 43 be 36 eb 82 be c7 cc 89 be 8c aa ae be
       -0.19049011 -0.25570077 -0.26914045 -0.34114492
000210 c4 79 18 be 79 41 24 bd a9 cf d8 3c 85 98 ad bd
       -0.148902 -0.040101502 0.026466208 -0.084763564
000220 fc 0a 92 3e f1 1d fb be 31 70 28 3e da 8e d6 bd
       0.28524005 -0.4904628 0.16449048 -0.104764655
000230 bb fe ff bd 1b 6c 7f be 30 88 5d bd e8 44 cf 3d
       -0.12499758 -0.24943583 -0.054084957 0.10120565
000240 d7 33 49 be 1d b9 b3 bb 9d 06 96 bd 54 69 0c be
       -0.19648682 -0.0054847137 -0.0732548 -0.13712054
000250 ff 55 b3 be c5 2b 5c be 8b 6e 9c be 42 a3 c5 3e
       -0.35026547 -0.21501072 -0.30553088 0.38601118
000260 8b 05 94 bd ad 99 09 3e c0 26 e9 be 68 40 05 bd
       -0.0722762 0.13437529 -0.45537376 -0.032532126
000270 a2 4a 9e 3e 6a 4a d5 3e 09 86 dd 3d 1c 61 ac be
       0.30916315 0.41658336 0.10816581 -0.3366784
000280 dd 57 e6 bd 95 2d f3 bd 23 1e a8 3e 60 d6 a9 3e
       -0.11247227 -0.118739285 0.32835492 0.33171368
000290 95 3c 25 3e 74 04 77 bd 34 c3 ac 3e 78 cd d4 bc
       0.16136391 -0.06030698 0.33742678 -0.025976881
0002a0 ca 13 ca bc 36 cf 09 be 6d 02 a2 3e 2d fc db 3d
       -0.02466764 -0.13457951 0.31642476 0.10741458
0002b0 52 6c 91 3d 31 70 fc bd a2 be 18 be f0 d5 33 be
       0.071007386 -0.12326086 -0.1491647 -0.1756208
0002c0 d0 d8 4a 3d ef 7d 80 be e1 fa 54 bf 93 d0 2d bf
       0.049523175 -0.2509608 -0.8319531 -0.67896384
0002d0 3b 19 a8 3d f5 2a 75 be 3e f8 9c 3e 4a 6f 62 ba
       0.08207937 -0.23942168 0.30658144 -0.0008637799
0002e0 e9 ed 93 bd 32 3d c0 be fb ea 01 be a9 3b ee be
       -0.07223112 -0.37546688 -0.12687294 -0.46529892
0002f0 01 0b db bd d2 ff 29 be ba f5 17 3d 2c 8a be bd
       -0.10695458 -0.16601494 0.037099577 -0.09303698
000300 ec 3f 64 be 24 55 a1 be db 48 ba be bb 19 d9 be
       -0.2229001 -0.3151027 -0.3638371 -0.42402443
000310 0a 42 a6 3e 82 bb 3e 3d 13 04 18 be d7 48 4e 3d
       0.3247226 0.04656554 -0.14845304 0.050362434
000320 86 8f 07 be 4e 4a f7 3d 23 9c 2e be ce 0a db 3d
       -0.13238344 0.12074719 -0.17051749 0.1069542
000330 fd bd 06 3e 63 8d 85 be 10 51 74 be cc 97 85 bd
       0.13158412 -0.26084432 -0.23859048 -0.065230936
000340 b3 20 cd 3e 57 54 c6 3d 15 3f 5f 3c 3b b4 71 3d
       0.4006401 0.09684055 0.01362588 0.05900977
000350 cb ad 42 3e e1 4a 89 3e 04 bf 80 3e 94 ca 0d bb
       0.1901161 0.2681494 0.25145733 -0.0021635639
000360 3e d5 79 bd 61 0d c3 be da 01 ec 3e 31 01 04 3f
       -0.06099438 -0.38096145 0.46095163 0.5156432
000370 8d cf 94 3e 97 9b a9 bd 78 04 83 be 8f 5f 5c be
       0.290646 -0.082816295 -0.25589347 -0.21520828
000380 0e 4e b1 bd b3 32 a9 be af 3b b4 3c c5 eb 08 3c
       -0.08657466 -0.33046493 0.022001116 0.008356993
000390 91 1c e8 3e 43 aa 29 be b6 39 67 be 24 3c 14 be
       0.45334294 -0.16568856 -0.22580609 -0.14476067
0003a0 f8 af 3e 3e f6 52 0a 3e b9 5f cf be ce 1c eb bc
       0.18621814 0.1350821 -0.40502718 -0.028700259
0003b0 62 09 48 be 05 6c a2 be 4f d6 d5 3d 95 ba a3 3d
       -0.1953483 -0.31723037 0.10441267 0.07994572
0003c0 73 6c b6 be ae 78 4f be b9 76 13 be aa 6d 68 3d
       -0.35629615 -0.2026088 -0.14400758 0.05674521
0003d0 bd 12 59 be c4 08 ec 3d fa 1a 97 3c c9 a2 ae 3d
       -0.21198554 0.115251094 0.01844548 0.085271426
0003e0 83 7e 93 3d 1d a4 9f 3b dd 71 1b bd e9 38 f6 3d
       0.072018646 0.0048718587 -0.037950385 0.120225735
0003f0 f0 95 7e be cf a7 e1 bd ad c2 2a be 3c 11 11 bf
       -0.24861884 -0.11018335 -0.16675825 -0.5666692

network_body.observation_encoder.processors.0.conv_layers.2.bias f4 [32]
000000 d1 0b 5a 3e 4f 3d 64 3e 28 21 38 3d 9c ea 05 3e
       0.2129357 0.22289012 0.044953495 0.13077778
000010 b7 bc 14 3d 0d a4 0e 3e d2 0b 94 3d 0f dc 57 bc
       0.036312785 0.13929768 0.07228817 -0.013175025
000020 d8 0e 13 3c 58 c4 76 3d 55 f6 98 3c 01 a5 67 3e
       0.008975707 0.06024584 0.018672148 0.22621538
000030 a6 6b bd 3d 5a d6 32 bd 83 67 8c 3e d7 d9 27 be
       0.09249048 -0.043661453 0.27422723 -0.16391693
000040 95 3a b1 3d 2f 39 fa 3c ce 06 a0 bb 71 67 06 3e
       0.08653752 0.030544845 -0.0048836237 0.13125397
000050 49 43 36 bd 9b 99 a0 3d e3 c9 03 be 63 51 9a 3c
       -0.044497762 0.07841798 -0.12869982 0.018837636
000060 8a 32 86 bd 0a 4d d5 bd 88 6d 0b 3e 02 3b e9 3a
       -0.06552608 -0.10415085 0.13616002 0.0017794075
000070 0a 99 7d bd 6b f8 d0 bd 4a 17 fa bd 15 79 41 bd
       -0.061913528 -0.10203632 -0.12211473 -0.047234613

network_body.observation_encoder.processors.0.dense.0.weight f4 [128, 32]
000000 e3 8e cd bd b1 87 19 bf a5 b9 11 bf dc 22 3e 3f
       -0.10037019 -0.59972674 -0.56923896 0.7427194
000010 c0 53 e2 bc 81 cd 49 be f8 2b c6 be 01 28 c3 3e
       -0.027627826 -0.197073 -0.3870542 0.38116458
000020 e2 d6 a4 bd 26 0e f7 3d 33 f4 2d 3f ae 36 3a be
       -0.08048798 0.120632455 0.67950743 -0.18184921
000030 1a ca fb be 80 48 8a be ec 2a b8 be 82 26 bc be
       -0.4917763 -0.27008438 -0.35970247 -0.3674813
000040 88 ec 4e bf ab c4 b3 bd 71 7d 9a 3e ba b4 1e be
       -0.8082967 -0.08777746 0.3017383 -0.15498629
000050 a6 65 90 3c e8 15 32 3d f6 30 60 be 65 ab c3 bc
       0.017626595 0.043477923 -0.21893677 -0.023885438
000060 05 d9 cf be e5 7c c1 be 25 4c 1d be 37 fe 95 3e
       -0.4059526 -0.377906 -0.15361078 0.29295513
000070 eb b5 31 3d 86 09 2e 3f 20 58 84 bd c2 22 43 3e
       0.04338638 0.6798328 -0.06462121 0.19056228
000080 5e 2f eb be 81 ab 6b 3e cd 96 8b 3d 5a 1b 76 be
       -0.45934576 0.23014642 0.06815872 -0.24033871
000090 aa 5e 8f be 79 64 ab be 25 bc 21 3e af c1 1b 3d
       -0.2800191 -0.33475092 0.15794428 0.038026508
0000a0 dd b3 d3 3d 8d 8f 0c 3f 13 a3 b0 3e 48 09 36 be
       0.103370406 0.5490654 0.34499416 -0.17776978
0000b0 aa 81 97 3e 24 b5 c2 3e 42 75 94 be 52 62 8a bf
       0.29591113 0.38028824 -0.2899571 -1.0811255
0000c0 79 82 6d 3e e9 d4 84 be 1b 6d 71 3d 25 1c de 3d
       0.23194303 -0.25943688 0.05894194 0.10845212
0000d0 22 47 9e 3e 76 9a b1 be 47 fb 72 bd 9f bb 29 3e
       0.30913645 -0.34688157 -0.059321668 0.16575478
0000e0 e4 21 de 3d 4d a3 43 3e 79 49 f1 be af eb c0 be
       0.10846308 0.19105263 -0.47126368 -0.37679812
0000f0 09 0b 53 bd 94 9b f4 be 3a bd 78 3d ca 6b 14 bd
       -0.051524196 -0.47774947 0.060727336 -0.03623561
000100 c1 1d 42 3e 70 f9 b7 bd da fd 9a be 52 11 00 bf
       0.18956663 -0.08983123 -0.30271798 -0.5002643
000110 37 07 cd 3e 91 0d 6e 3d 89 23 81 be 7b 14 05 3f
       0.40044567 0.058118407 -0.25222424 0.51984376
000120 28 a0 47 be 4e 48 c1 be ae 31 84 be bd 2e 91 be
       -0.19494689 -0.37750477 -0.25819153 -0.2835597
000130 81 23 8b 3e 39 09 af be 7f a1 14 3e 50 10 77 3b
       0.27175525 -0.34186724 0.14514731 0.0037698932
000140 0a 0e c7 bd 1b b4 82 be 99 7d 83 be c0 65 65 bd
       -0.097194746 -0.25528035 -0.2568176 -0.05600524
000150 fb 54 0b bf a6 b7 cd 3e 97 4b d8 3e cf e6 45 3f
       -0.54426545 0.40179175 0.4224517 0.7730531
000160 9f 0e 5c 3e 82 f2 5d 3e 3f cf 3f be 9e 20 32 3e
       0.21489953 0.2167454 -0.18731402 0.17395255
000170 eb af 88 be 38 54 b9 3e ef 7a 98 3e 95 3f dc bd
       -0.26696715 0.36197066 0.2978129 -0.10754315
000180 4c c1 c6 3d 57 78 04 bf 7e 18 07 3e 6c 0e 58 3d
       0.09704837 -0.51746124 0.13192937 0.05274813
000190 1f a4 0b bf 2a 85 32 3e 65 9a d0 bd d5 6b 0e bf
       -0.54547304 0.1743361 -0.101856984 -0.5563329
0001a0 ed 90 c9 bc f7 1d 52 bf 0b 45 05 bf b7 e7 e6 be
       -0.024605239 -0.8207697 -0.52058476 -0.4509866
0001b0 5a 2f b5 3e 4b 35 cf 3e 59 dd 38 3e 3e 8a ba 3c
       0.3538769 0.40470347 0.18053187 0.022770997
0001c0 1f ad c9 3d 84 0f 1e 3e 0d f7 38 3e e5 49 ac be
       0.09847473 0.15435606 0.18062992 -0.33650127
0001d0 8d 03 fc be be 2f 64 bd 07 27 df 3a d1 2d bc 3d
       -0.4922146 -0.055709593 0.0017025181 0.09188426
0001e0 1e f5 85 bd d2 71 f7 3e 68 c4 1d bf 9e 78 5b bd
       -0.06540893 0.48329026 -0.6162782 -0.053581826
0001f0 40 14 56 3e df cf db be 6b 0c d9 3d f3 9d 62 bf
       0.20906162 -0.4293203 0.10598072 -0.8852226
000200 f1 15 47 be c6 d7 d9 3e 09 d3 44 3d d8 85 47 be
       -0.19441964 0.42547435 0.04805282 -0.19484651
000210 55 35 c1 3d 77 d0 cb 3e ad ef 2a 3d 31 42 8f 3e
       0.094340004 0.39807484 0.04173248 0.27980188
000220 7a 11 ca 3d d7 3b e0 3e e4 d0 bf 3e 76 a0 1a be
       0.09866615 0.43795654 0.37464058 -0.15100273
000230 44 ef 02 3e 74 4c 0d bf bf 70 9e be aa c1 b1 3e
       0.12786585 -0.55194783 -0.30945393 0.34718066
000240 9e c2 24 3d 74 de 0e 3f 3d 90 1a 3e 29 b2 c9 3d
       0.040224664 0.55808187 0.15094085 0.098484345
000250 29 44 c5 ba a3 f4 dc 3e fa 54 fd bc 78 d2 d5 3e
       -0.001505022 0.43155393 -0.030924309 0.41762137
000260 12 59 a5 3e 53 db 92 be 77 03 83 3e cb f2 5d be
       0.32294518 -0.28682956 0.2558858 -0.2167465
000270 25 25 86 be 0e 27 0f 3e b8 b4 a3 3e 8b 3a d8 3e
       -0.26200214 0.13979742 0.31973815 0.42232165
000280 52 8a 56 be 9c 2f d5 3e 17 36 14 be 77 1f b2 be
       -0.20951203 0.41637886 -0.14473759 -0.3478963
000290 55 13 8d be 8f e0 c4 3e 71 3e 8d be f8 d3 14 3f
       -0.27553812 0.38452575 -0.27586702 0.5813594
0002a0 c2 56 f3 3e ff b1 53 be ec 89 bc 3e 8d f9 90 3e
       0.47527128 -0.20673369 0.36823976 0.28315392
0002b0 5b 32 ad 3d 73 08 85 3e ea 75 5c 3f d2 3b ff 3e
       0.0845687 0.2598301 0.8611742 0.49850327
0002c0 15 e6 28 3e 67 ee 20 be e0 6f ac be af 19 ff 3d
       0.1649402 -0.15715943 -0.33679104 0.12456071
0002d0 c3 e6 1c bd 75 14 69 3e dc 04 37 be 1a bd 3a bb
       -0.03830601 0.2276171 -0.17872947 -0.002849406
0002e0 59 c1 b7 3e de 36 fc 3e 44 1d 5b bd 04 a6 4b bf
       0.358897 0.4926061 -0.053494707 -0.79550195
0002f0 51 e6 34 be 9f b7 2a 3e ba ed 79 39 cc 4e a7 be
       -0.17665984 0.16671608 0.0002383505 -0.32677305
000300 85 2c eb bd c4 4e 7b 3f 22 10 8c be bd 5f bd be
       -0.11483101 0.9816706 -0.27356058 -0.36987105
000310 17 d4 b0 3e e8 2e 67 be f4 e3 a8 be d6 df 10 3f
       0.34536812 -0.22576487 -0.32986414 0.56591547
000320 93 47 1c be 60 29 a6 ba 20 54 82 3e 69 e8 f3 bd
       -0.15261678 -0.0012677126 0.25454807 -0.11909563
000330 a7 e6 b8 3e c0 60 ad bb ab 9a f6 3e 89 88 22 be
       0.36113474 -0.0052910745 0.48164877 -0.15872397
000340 75 ad 03 3e 15 f2 94 be 6a 95 58 3e 02 41 1f bf
       0.12859137 -0.29090944 0.21150747 -0.6220857
000350 ff 34 70 bd eb b2 b1 bd 40 e4 c6 3e dd 4e 30 3f
       -0.05864429 -0.08676704 0.38846016 0.68870336
000360 2d bc 00 3f 45 03 3f bf 00 e3 0c bf 27 4b 3d bf
       0.50287133 -0.74614364 -0.55033875 -0.739428
000370 b7 58 12 bf dc 74 2f 3d 21 84 13 3f e0 fe 4f 3e
       -0.5716662 0.042836055 0.5762349 0.20312071
000380 06 31 8a bd 16 cd fc 3e df 67 0b 3f b4 ba d9 3e
       -0.06747632 0.49375218 0.5445537 0.42525256
000390 fe 97 0f 3f d8 7c e0 3e 21 c4 dc bc 4e af c6 3e
       0.56091297 0.43845248 -0.02694899 0.38805622
0003a0 ec dd 1e be a2 03 be be 6d be 06 3e 7e 6d 9f bd
       -0.15514344 -0.37112147 0.13158579 -0.07784556
0003b0 3d 27 dc 3d df 1b 98 be c1 a1 41 3f 33 ac 28 3e
       0.107496716 -0.29708764 0.7563744 0.16471939
0003c0 c7 76 10 3f 55 11 66 3c b0 f9 f5 bd 03 49 a4 be
       0.5643124 0.014042218 -0.12010515 -0.32086954
0003d0 48 91 7f bd 6a e7 6f be 4b c5 05 3f 78 fb 8c 3d
       -0.06239441 -0.23428121 0.5225417 0.06883901
0003e0 95 e3 e5 3e 59 f9 92 bd b3 f1 a7 3e e3 48 88 3e
       0.44900194 -0.071764655 0.3280159 0.26618108
0003f0 0e 87 04 bf 76 ae b9 be 0a 04 ef bc 8d 69 ca be
       -0.5176858 -0.36265916 -0.02917673 -0.39533654

network_body.observation_encoder.processors.0.dense.0.bias f4 [128]
000000 6f 6e 9d 3d 48 5c 0e 3e 5b 05 58 be d0 73 a8 bd
       0.07687079 0.1390239 -0.21095793 -0.082252145
000010 76 d4 5e 3e 1f fe 06 bd 15 a0 92 be 56 3b e6 3c
       0.21760735 -0.032957193 -0.28637758 0.028104465
000020 07 60 08 3d 71 9a 87 3d 33 b6 b0 bd d5 8a 90 3c
       0.033294704 0.06621254 -0.08628502 0.017644325
000030 d0 55 20 3e be 02 84 3e 86 a7 6e be 02 9a 6e be
       0.15657735 0.25783342 -0.23306093 -0.23300937
000040 45 66 1f be 77 21 62 3e ca 6a 57 3d b2 77 cf 3d
       -0.15566356 0.22083078 0.052592076 0.10130252
000050 f6 ae c8 bd d3 84 2d 3e ec 3f 7f bd d0 d6 85 be
       -0.09798996 0.169452 -0.06231682 -0.2614045
000060 dd 34 85 3c a3 6d 6b be 97 25 2f 3e f2 ce 17 3e
       0.016260559 -0.22991042 0.17104183 0.14825037
000070 6f a2 30 bc 86 bd e4 3c 30 e5 a9 bd 1f b4 b8 3e
       -0.010780915 0.027922403 -0.08295667 0.3607492
000080 f2 56 d4 3d 86 03 9b b7 10 2f b6 3d b0 0d 91 be
       0.10368146 -1.847908e-05 0.08895695 -0.28330755
000090 8e 58 84 be c6 b9 89 bd 84 ff b8 3b c5 32 21 be
       -0.25848812 -0.067248866 0.005645694 -0.15742023
0000a0 ed 86 1f 3e 4c d1 cb bc d3 25 cf bd 71 e0 74 be
       0.15578814 -0.024880074 -0.10114636 -0.23913743
0000b0 1b 6c 7e bd ee 5f 0d be e0 60 82 be 01 0e 9b 3e
       -0.062114816 -0.13806126 -0.25464535 0.30284122
0000c0 ba 5d 81 be a9 1f 21 3e aa b9 7c 3e 8d 9b 54 be
       -0.2526682 0.15734734 0.246802 -0.20762463
0000d0 f4 30 77 be ed 60 39 be 4c 97 00 be cb 8c 2d bd
       -0.24139768 -0.1810338 -0.12557715 -0.0423706
0000e0 85 a4 28 bd e8 a8 a4 bd 7e 33 84 be 40 66 08 be
       -0.041172523 -0.08040029 -0.25820535 -0.13320255
0000f0 d1 2a 47 3e f5 5d e3 bd b9 4e 17 be 82 2e b8 3c
       0.19449927 -0.11101905 -0.14776124 0.022483114
000100 49 e3 3f bd f1 8f 60 3d ff c8 0e be de 04 af be
       -0.046847615 0.054824773 -0.13943861 -0.341834
000110 9d 37 b3 be 7d 79 cc 3d ff a6 52 be 49 36 5a be
       -0.35003367 0.099841096 -0.20571516 -0.2130977
000120 3c 44 90 bd e8 2d f5 3d 0b 3e 02 be 6c 1f 4e 3e
       -0.07044265 0.119716465 -0.1271898 0.20129174
000130 ea 74 23 be f5 a6 f1 bc 09 14 81 be 8d 34 cb 3d
       -0.15962568 -0.029498557 -0.25210598 0.09922133
000140 29 01 40 bd 12 f2 73 3d 3b 57 d0 bd 14 22 77 be
       -0.046876106 0.059557028 -0.10172888 -0.24134094
000150 0b 4e 1e bd 8d 25 b6 bd ca 64 11 3e ae 4c 88 bd
       -0.038648646 -0.08893881 0.14198604 -0.066552505
000160 d4 a6 17 3e df 6d 79 bd b8 9c 77 3e 4d 75 81 3e
       0.14809734 -0.060895797 0.24180877 0.25284806
000170 85 14 ec be 19 6c f6 bd 63 65 a4 3c 9c 89 1c 3e
       -0.46109405 -0.12032337 0.020067876 0.15286869
000180 2b 08 1c bc db 30 f1 3d d9 37 55 3e d1 0a 32 be
       -0.009523432 0.117768966 0.20822085 -0.17386939
000190 f8 25 66 3e 7c f3 6b 3e 66 50 4b bd e7 b3 28 be
       0.22475421 0.230421 -0.04963722 -0.16474877
0001a0 92 85 12 3e 3c 7a 9b 3d c6 d4 53 be a8 34 94 bd
       0.14308766 0.07591674 -0.20686635 -0.07236606
0001b0 d8 62 54 3d 65 af 78 3e 9c d9 0b be cf 1c a1 be
       0.051852077 0.24285658 -0.1365723 -0.31467292
0001c0 91 6a 1c be d7 a0 45 3e 33 82 a2 bd e3 67 1b 3e
       -0.15275027 0.19299637 -0.0793499 0.15176348
0001d0 06 47 5e be c5 0b 8d be 1b e2 23 be 5e 4f de 3d
       -0.21706781 -0.27548042 -0.16004221 0.10854982
0001e0 9b 75 ac bd 48 ab fd 3d 2d 10 1c be 01 8b 3a bc
       -0.08420869 0.12386185 -0.15240546 -0.01138568
0001f0 02 74 7e 3e a2 a4 d0 3d aa b8 2c be b1 d7 03 bd
       0.24848941 0.10187651 -0.16867319 -0.03218812

network_body._body_endoder.seq_layers.0.weight f4 [128, 239]
000000 4e 8a 3c bd 61 fc 6a be da 6a da 3d f8 7d 4d 3d
       -0.046030335 -0.22947837 0.106649116 0.05016896
000010 66 e9 4f 3e 91 7d b9 3e df 5e 21 3e d6 6f ab 3d
       0.20303878 0.36228612 0.15758847 0.083709404
000020 82 19 a4 3e 48 ce 3a 3e de 66 d0 3e cd c4 cf be
       0.3205071 0.18242753 0.4070348 -0.40579835
000030 26 92 ae 3d 10 19 84 be 12 e8 c5 bc 52 ea 55 3e
       0.08523969 -0.2580037 -0.024158511 0.20890167
000040 03 9c 2e 3e 5e 98 37 be ab 05 76 3e ef 97 bf 3c
       0.17051701 -0.17929217 0.240256 0.023387877
000050 7d c1 d6 bd b8 00 b2 bd 81 bc e1 3d 14 37 27 be
       -0.10486124 -0.08691543 0.110222824 -0.16329604
000060 94 17 4e be ad 71 f3 3d 26 29 04 bd 90 c6 9a 3e
       -0.20126182 0.11886916 -0.032265805 0.30229616
000070 bf d5 6b bd 12 e2 74 bd 08 70 47 3e 8d 59 2a 3e
       -0.05757689 -0.05978591 0.1947633 0.16635723
000080 94 a5 c2 bb 82 5f 87 3e d9 41 f8 3c c9 49 5a 3c
       -0.0059401486 0.26440054 0.030304836 0.013323256
000090 55 14 05 be b7 93 d7 3e fd a1 53 3c 4e db 76 3e
       -0.12996037 0.42104885 0.012917039 0.24107096
0000a0 5b bd 2b be 5b 60 89 bc 2b 9c dd 3d 13 f5 9e 3e
       -0.16771452 -0.016769579 0.10820802 0.31046352
0000b0 e7 04 09 3e d3 e1 1d 3e ba 0d 82 3d 1e 71 92 3e
       0.13380776 0.15418176 0.063502744 0.28601927
0000c0 df 35 64 bd 96 ed aa 3d 20 df c0 bc 00 e3 c1 3e
       -0.055715438 0.08346097 -0.023543894 0.378685
0000d0 53 21 16 3e c5 74 af 3d f2 b6 fe 3e ad f3 6a 3e
       0.1466115 0.08567194 0.4974895 0.22944517
0000e0 07 18 5c 3e f8 f1 b2 3c ac 3b 85 bc 8a 1d 4a be
       0.2149354 0.021843895 -0.016263805 -0.19737831
0000f0 dd 0b fa bd f4 40 da bd d1 96 6c 3e 95 da 12 3e
       -0.12209294 -0.1065692 0.23104407 0.14341195
000100 fd 11 c3 be 39 10 2f bc 0d c3 82 3d 16 e2 f0 3d
       -0.3809966 -0.01068502 0.06384859 0.117618725
000110 62 8f 20 bd ca 89 41 bd 87 1c 77 be a1 96 c4 3d
       -0.03919924 -0.047250547 -0.24131976 0.09599043
000120 23 56 0b 3e 0f 8b 08 bd af 3b 88 3d a6 bf b9 3d
       0.13607077 -0.03333574 0.06652009 0.09069757
000130 5e be 52 be 25 fc 4a bd e6 81 5b 3e 2f c6 62 bd
       -0.20580432 -0.04955687 0.21436271 -0.055364784
000140 00 d5 b6 bd 7e cc c5 bd 4a 9a 2d 3d 89 dd 90 3e
       -0.08927345 -0.096581444 0.04238347 0.28294018
000150 be 7d 86 bd 4f 18 7b bd e2 2e 2e be ad 7f 6a 3d
       -0.06566952 -0.06130248 -0.17010072 0.057250667
000160 94 3d 6d ba d5 ff aa bd d5 5c af 3c a6 6e 24 bd
       -0.00090500084 -0.08349577 0.02140657 -0.040144585
000170 c3 c3 12 3e d3 02 a9 3e 6e 17 0c 3e 90 45 ce 3e
       0.1433249 0.33009967 0.13680813 0.40287447
000180 0f 39 cc 3d 3c 1c 75 bc 3f 42 1f 3e bc 42 b5 3e
       0.099718206 -0.014960345 0.15552615 0.35402477
000190 d7 8e 18 be 05 1d ab 3e d6 6d 92 3d cc d1 4b 3d
       -0.14898239 0.33420578 0.07149856 0.049760625
0001a0 51 94 e6 bb 1a c8 2d be 89 0f e2 3d f4 b3 d5 3c
       -0.0070367237 -0.16970864 0.11038119 0.026086785
0001b0 ca 33 44 3e e3 1d a6 be c1 ce 77 be a6 66 67 3d
       0.19160381 -0.32444677 -0.24199964 0.056494378
0001c0 f6 0c 8c 3d 61 bf 47 3d 32 bf 22 3e e7 06 3f bb
       0.068384096 0.048766498 0.15893248 -0.0029148401
0001d0 c3 16 09 be 36 a6 db 3d 05 79 ee bd 98 70 50 3d
       -0.13387589 0.107250616 -0.116441764 0.050888628
0001e0 26 f8 be be f9 91 78 3e 93 11 ab 3d 57 a0 99 3e
       -0.37298697 0.24274434 0.083529614 0.30005142
0001f0 5b 09 1c 3e 0c 36 0b 3e 15 55 25 3e 6e 70 9e be
       0.15237944 0.13594836 0.16145737 -0.30945152
000200 56 06 7d be c9 00 23 3f 34 0b 82 be a9 c2 45 be
       -0.24709448 0.63673073 -0.25399172 -0.19312538
000210 d5 87 be 3c 08 8b f5 bd 56 bf c7 3d e9 27 ab 3d
       0.02325813 -0.11989409 0.09753291 0.08357222
000220 c7 32 40 3e 96 1f 3f 3e e6 9d 46 be 46 a1 67 be
       0.1876937 0.18664393 -0.19396171 -0.22620115
000230 43 3b 9f be e5 4d 96 3d ff 62 f9 bd d9 97 86 3e
       -0.310999 0.07339076 -0.12177085 0.26287726
000240 16 ad d9 3c a7 df 80 bd dd ef 3f be b7 b7 fd bd
       0.026571792 -0.06292658 -0.18743844 -0.123885565
000250 73 37 9c 3d e8 e3 82 3e 58 43 69 3e e6 14 c7 3d
       0.076277636 0.25564504 0.22779596 0.09720783
000260 49 c1 d2 be 43 43 0a be c9 c7 49 3e 15 d3 dc 3e
       -0.4116309 -0.13502221 0.19705118 0.43129793
000270 64 0d 5f be 46 15 2f 3d f0 66 cd 3e b4 fe 80 3d
       -0.21782452 0.042744897 0.40117598 0.06298581
000280 dd 7f 93 bd f9 6d ea bd 48 52 37 bd bb c1 0f 3d
       -0.07202122 -0.11446757 -0.044756204 0.035096865
000290 75 97 22 3f fe 68 06 be 9d 31 85 3d 96 20 ef bd
       0.63512355 -0.13125989 0.065036036 -0.11676137
0002a0 ea d9 06 be ba 8a 61 3e 69 fd 00 3e bb 59 d4 3e
       -0.13169065 0.22025576 0.12596668 0.4147471
0002b0 ed 0d 84 bd 11 c4 35 3d 06 ee 27 be 2c 7a 58 be
       -0.06447969 0.044376437 -0.16399392 -0.21140355
0002c0 89 e5 f4 3d c5 a9 5d 3d f6 50 a6 3e 19 54 a1 3c
       0.11957843 0.054116983 0.32483643 0.019693421
0002d0 32 07 55 3e 55 7e 16 3e b1 09 39 be 65 cf 46 3e
       0.20803526 0.1469663 -0.18070103 0.19415052
0002e0 35 46 0a be 27 93 4c be d7 f8 d6 bd ec 82 31 be
       -0.13503344 -0.19978009 -0.10496681 -0.17335099
0002f0 df 77 52 be db 87 d0 3e c5 92 ab 3e 0a 7d 9b be
       -0.2055354 0.4072865 0.33510414 -0.30368835
000300 51 bb 98 3d e7 91 eb 3e db 41 2b 3e 6f 41 ee bd
       0.07457603 0.46009752 0.1672434 -0.11633574
000310 d5 54 8f 3e d6 75 89 3d c5 ad d4 bd 08 77 39 3e
       0.2799441 0.067119285 -0.103847064 0.18111813
000320 1f 96 de bc c2 4e c6 bd 7a 21 e1 3b 71 15 81 bd
       -0.027171193 -0.096829906 0.006870446 -0.06302918
000330 bf d8 84 3c c9 17 bf bd ee 13 d7 38 40 ea 0a be
       0.016216634 -0.093307085 0.00010255711 -0.13565922
000340 db 29 81 be 6a 9f d3 bb b3 d6 e2 be 3e 5a 32 bd
       -0.25227246 -0.0064582126 -0.44304428 -0.043543093
000350 14 ef eb 3c f0 64 ad 3e 57 74 9c 3e a9 01 89 bd
       0.028800525 0.33866072 0.3055751 -0.0668977
000360 7c d2 a9 3d da f3 52 3e cd 68 5c 3e 8b bf 22 3e
       0.082921 0.20600834 0.21524353 0.1589338
000370 ce 16 1d be d1 14 0b 3e e3 84 c6 be d9 db 97 be
       -0.1534073 0.1358216 -0.3877326 -0.29659918
000380 cc 03 f0 3e 70 58 46 3e 11 30 c5 3d 32 ae 57 3e
       0.46877897 0.19369674 0.096283086 0.21062544
000390 98 7f ab 3e 1c b5 39 be a7 b8 10 be 33 e4 da bd
       0.33495784 -0.18135494 -0.1413294 -0.10688057
0003a0 60 53 e5 3c 30 c1 e5 3b a4 a9 60 3f 31 65 5c 3e
       0.027993858 0.007011555 0.8775885 0.21522976
0003b0 10 f5 37 3f ef 6d 0d ba 25 73 58 3f ed c1 16 bd
       0.7185831 -0.00053951045 0.84550697 -0.036806036
0003c0 b7 c5 94 3d e7 2b c6 3c 66 86 c1 be 84 a9 36 3e
       0.072642736 0.024190856 -0.3779785 0.17838103
0003d0 16 5d 9c 3c 8a 5e 91 bd 9a c7 c5 3d 46 ec 8c bd
       0.019087356 -0.0709811 0.096572116 -0.06881003
0003e0 64 8d 86 3d b5 d8 3e 3e e0 76 0c bd e7 f0 6b 3d
       0.06569937 0.18637355 -0.034293056 0.05760279
0003f0 52 9a 8e 3d 81 e8 a0 bd f4 fd ea 3d 41 e6 35 be
       0.06963028 -0.078568466 0.11474219 -0.17763616

network_body._body_endoder.seq_layers.0.bias f4 [128]
000000 2f 9d 54 3e 02 e9 b0 be c1 16 1c 3e 12 72 9f bd
       0.20763086 -0.3455277 0.15243055 -0.07785429
000010 e8 8c 1b be 5b ca 62 be e1 f0 b9 bb a2 58 40 bd
       -0.1519047 -0.22147505 -0.005674467 -0.046959527
000020 b8 a1 d4 bd 96 3d 38 bb 67 6c af 3d 01 26 37 be
       -0.10382408 -0.002811288 0.08565598 -0.17885591
000030 da 69 70 be e0 9c de bd 98 92 69 be d7 ad a0 be
       -0.23477879 -0.10869765 -0.22809827 -0.3138263
000040 6c 83 9f 3e 32 92 7b be ea 76 e0 3d 9b c6 83 be
       0.31154954 -0.24567488 0.10960181 -0.2573746
000050 21 ed f5 bd eb e2 b0 3e c0 0b 04 3e 93 31 d4 bd
       -0.120081194 0.34548125 0.12895107 -0.10361018
000060 18 fd c4 bd 2b 2f e5 3c 42 8d 2a be 37 eb f1 bd
       -0.09618586 0.027976593 -0.16655448 -0.11812442
000070 cd 50 29 bc 3e ec dd bd 7c 6d 8b bd 08 a5 5f be
       -0.010334206 -0.10836075 -0.06807992 -0.21840298
000080 c7 56 ae 3e ad 36 e5 bd 0c 00 87 be 75 2e ec 3e
       0.3405058 -0.11192069 -0.26367223 0.46129194
000090 a9 eb 5a bc 5d 60 c5 3c ab 54 61 be ea 9d 23 be
       -0.01336185 0.024093801 -0.22004955 -0.15978208
0000a0 70 1f 15 be 98 07 73 be 9e dd 01 3e 0d b2 ec 3b
       -0.14562774 -0.23733366 0.12682196 0.0072233737
0000b0 30 04 5b be 6f be 71 bd f9 1f 06 be ec 9d 58 be
       -0.21388316 -0.059019502 -0.13098134 -0.21153992
0000c0 96 db 09 bc 93 f5 35 be b8 21 9b bd 2e bd bc be
       -0.00841417 -0.1776946 -0.07574791 -0.36863083
0000d0 aa 56 95 be ee 51 1a bd e7 07 0b 3c 65 9d 12 be
       -0.29167682 -0.03767579 0.008485771 -0.14317854
0000e0 3f 91 02 bd eb 0e 8b be cc 75 51 bd 3d 2c a7 bd
       -0.0318768 -0.2715982 -0.05113773 -0.08162735
0000f0 68 c0 b0 bd 0e f0 73 be ef d4 15 bb 13 19 b2 3e
       -0.086304486 -0.23822042 -0.0022862514 0.34784755
000100 39 d4 8d be bf d2 41 3e 14 97 c6 bd a1 3e 0a be
       -0.27700976 0.1892805 -0.096967846 -0.13500454
000110 3c 67 68 3e ee 14 23 be 37 ca 1c be 0d c8 75 3d
       0.22695631 -0.15925953 -0.15311514 0.060005236
000120 52 a5 2a be f5 07 71 3e 8f 91 23 be 32 c8 b2 be
       -0.16664627 0.23538192 -0.15973495 -0.34918362
000130 91 ba b9 bd c4 59 3e bd b1 8b 8c be 35 1d 17 bd
       -0.09068788 -0.046472326 -0.27450326 -0.03689309
000140 4d 15 d0 bd 68 aa ab 3d 76 59 b2 be 87 cb ed bd
       -0.10160313 0.08382112 -0.34833878 -0.116110854
000150 fc 50 1d 3e a0 b7 6b 3e 71 eb 7d be c4 2f 91 be
       0.15362924 0.23019266 -0.24796845 -0.28356755
000160 50 f6 a8 3e 34 15 50 be e7 f4 90 3c 75 53 14 be
       0.33000422 -0.20320588 0.017694904 -0.14484961
000170 b3 15 91 bb ca b7 f1 3d 72 a1 ae be 88 22 5c be
       -0.0044276356 0.11802633 -0.34107548 -0.21497548
000180 da 5f ba bd 65 31 46 3e 5f eb 60 be 5e 69 89 bd
       -0.091003135 0.1935478 -0.21964787 -0.0670955
000190 19 7c 5d 3e 85 d7 8a be c9 9c 6c be 6f d6 99 bd
       0.21629371 -0.27117553 -0.23106684 -0.07511603
0001a0 e0 4b c0 3d 59 2c af be 9f ea 93 bd 6b 74 06 be
       0.09389472 -0.34213522 -0.07222485 -0.13130347
0001b0 df 56 31 be f8 61 89 bc b6 fa 85 be ed bf 1d bf
       -0.17318295 -0.016770348 -0.2616784 -0.6162098
0001c0 01 18 a9 bd e4 52 d3 3e d4 08 86 be 17 c7 2a be
       -0.082565315 0.41274178 -0.2617861 -0.16677509
0001d0 92 de 86 3d 2a 28 b8 3d 03 b9 88 be 9d 52 d4 bd
       0.06585421 0.08992036 -0.26703653 -0.1036732
0001e0 40 a2 f9 bd 55 f6 cf bd 9a b2 64 be d6 fd a1 3c
       -0.1218915 -0.10154406 -0.22333756 0.019774359
0001f0 0d 3f 3a be 9b 14 38 3d 18 0d 22 3e c2 64 f7 3e
       -0.18188114 0.044941526 0.15825307 0.4831906

network_body._body_endoder.seq_layers.2.weight f4 [128, 128]
000000 da 95 7b bd 43 43 30 be bd a6 aa bd dd 4a ec 3c
       -0.061422206 -0.17213158 -0.08332584 0.028844291
000010 2b 47 da bc 42 9d 45 be 38 88 54 3e f6 d8 4e 3c
       -0.026645264 -0.1929827 0.20755088 0.01262497
000020 d3 aa 97 be c5 1f bd be 74 d4 98 3e 49 9e 40 be
       -0.29622516 -0.369383 0.2984959 -0.18810381
000030 d6 ed 0d bf c1 68 1f be 29 d9 a0 be 1f 70 02 be
       -0.55441034 -0.15567304 -0.3141568 -0.12738083
000040 57 bd 34 bc e0 2f 2f 38 b8 34 0d 3e e1 03 4f 3d
       -0.01103147 4.176784e-05 0.13789642 0.05054081
000050 a0 e9 e2 3c c8 e4 c2 3e d5 e8 71 3e 79 1d 93 3e
       0.027699292 0.3806517 0.23623975 0.28733423
000060 bd f7 11 bd 0c 33 09 3f 0e c6 72 3d 29 bb 73 3e
       -0.035636652 0.53593516 0.05927091 0.23801865
000070 44 62 5a be ef 20 0f 3e d2 17 20 be 0c 8c 1a be
       -0.21326548 0.13977407 -0.15634087 -0.15092486
000080 05 2c 6c bd 43 3f e5 3d 7d d4 2e 3d 91 66 79 3e
       -0.057659168 0.11193707 0.042683113 0.24355532
000090 d8 20 64 be 7e 8c 3f 3e 8a ad c7 3c 88 af 90 be
       -0.22278154 0.18705937 0.024374742 -0.2825892
0000a0 71 03 48 be f0 ff b2 be e0 9f 94 3d 7d 34 f3 3d
       -0.19532563 -0.3496089 0.07257056 0.11875246
0000b0 01 05 cc 3d 61 a2 f4 3e c4 3d 23 bb 0b 57 76 3e
       0.09961892 0.47780135 -0.0024908641 0.24056642
0000c0 f1 f0 1d 3e 13 d2 00 3c b7 f8 79 3e 9a 7c 07 bd
       0.15423943 0.007862586 0.24411283 -0.033077814
0000d0 46 7a 86 3e d0 15 e3 bb 08 ab 41 3b 4a 4f b3 3d
       0.26265162 -0.0069300905 0.0029551405 0.087553576
0000e0 35 29 03 3e cd 86 28 3e 20 17 07 be 53 fb 26 be
       0.12808688 0.16457672 -0.13192415 -0.1630681
0000f0 94 5d eb 3d e5 f9 4d be c8 54 8f 3c c9 80 64 3e
       0.11492458 -0.20114858 0.017496482 0.22314753
000100 17 d7 12 be f1 9e 93 3d 57 c7 eb bd 0c 88 2a be
       -0.14339863 0.0720805 -0.115126304 -0.1665346
000110 00 d3 e9 3e f1 a1 1c be 50 8b e9 3e ca c3 53 be
       0.45668793 -0.1529615 0.456141 -0.20680156
000120 4e cb 17 bf 3c 9b 64 3d 5a 28 34 be 60 0e 4b 3e
       -0.59294593 0.055812106 -0.17593518 0.19829702
000130 a6 aa a2 bc 12 bf 2f be 2b 05 13 bd 45 30 bd be
       -0.019856762 -0.17162731 -0.0358936 -0.3695089
000140 b9 2a 76 be 86 44 a3 3d 04 79 e9 bd e4 9c 09 3c
       -0.24039735 0.07972054 -0.11400035 0.008399222
000150 88 f2 87 3d 64 8f a7 3e ec 69 2a bf d0 c1 98 bc
       0.06638056 0.32726586 -0.66567874 -0.018647105
000160 4c 38 e8 3e 40 34 ee bd e5 98 68 bd 3f 2f cd bc
       0.4535545 -0.1163106 -0.056786437 -0.025046943
000170 39 d8 4b 3e 40 6e 35 3e b3 70 60 3e c5 3a 6a 3e
       0.19906701 0.17717838 0.21917991 0.22873981
000180 07 2c f5 be c3 e3 b0 3e a2 2f 21 be bb fd a2 bd
       -0.47885153 0.34548768 -0.15740827 -0.079585515
000190 2e 0d 3f 3e 8e ba 8e 3e 87 33 96 be d6 e9 31 be
       0.18657371 0.27876705 -0.29336187 -0.17374358
0001a0 37 88 25 3e 27 57 bd bc 9d 54 57 be f3 51 ee bd
       0.16165243 -0.023112847 -0.21028371 -0.11636724
0001b0 0b 2a b1 3d 23 3f d1 3c 0b 9d 3a 3d ac 3a c4 bd
       0.08650597 0.025542801 0.045559924 -0.09581503
0001c0 4d d1 10 be d7 d2 a0 3e 00 a7 11 be 3e 12 b0 bd
       -0.14142342 0.31410858 -0.14223862 -0.085972294
0001d0 b1 fd 64 3e 2f 1e a2 3e ac 44 82 be ae 28 0d be
       0.223624 0.31663653 -0.25443017 -0.1378505
0001e0 a7 01 53 3e 99 38 1e 3c ac 8a ab 3d fe 1d dc 3e
       0.20606099 0.009657049 0.08376059 0.42991632
0001f0 fe d5 8f bd 3b 7e fd 3d f7 66 af 3e 0c 91 b7 3e
       -0.07023238 0.12377592 0.34258243 0.3585285
000200 ff 11 00 bf 05 2e 84 be 9b 25 49 bf 30 6a a5 3e
       -0.5002746 -0.2581636 -0.78573006 0.32307577
000210 a9 a2 bc bd 9f e4 ce be 47 e2 01 3f b9 fd ae 3e
       -0.092107125 -0.404088 0.50735897 0.3417795
000220 1d 45 00 3e 17 6b b2 bd 57 0e c0 3e 63 a1 7f be
       0.12526365 -0.08711832 0.3751094 -0.24963908
000230 22 7d 0d be 7e ba 98 3e 2b 97 28 be ab ee aa be
       -0.13817266 0.29829782 -0.16463916 -0.33385214
000240 ac 4e ae bd b2 35 40 bd 69 f2 ec bd 80 3f b4 3e
       -0.08511099 -0.046926208 -0.115696736 0.35204697
000250 be e3 63 3d 87 94 91 3e 6e d3 2b 3e d8 a4 de 3e
       0.055637114 0.2843363 0.16779873 0.4348514
000260 02 8e 2d bd 16 b7 0e 3f f8 15 29 bf 7d 85 bd 3d
       -0.042371757 0.55748117 -0.66049147 0.092539765
000270 2b b5 92 be 7c 47 92 be 0c 45 06 bf de 9a 89 be
       -0.28653845 -0.28570163 -0.5244911 -0.26875967
000280 0a 5e 8b 3e 57 ad 85 3e 45 12 85 be 10 3f bc 3e
       0.27220184 0.2610881 -0.259905 0.36766863
000290 0b d8 a5 bd 6f 5c d5 3e 65 f4 e5 3d 99 35 4b be
       -0.080978476 0.41672084 0.11228255 -0.19844665
0002a0 51 24 b8 be 4d 50 d3 be b4 59 16 bf ec d6 58 3e
       -0.35965207 -0.41272202 -0.58730626 0.21175736
0002b0 08 26 99 bd df 12 1e bd a5 08 8b 3d a3 44 29 3e
       -0.07477957 -0.038592216 0.06788758 0.16530089
0002c0 d3 49 98 bb 34 75 88 3d 39 e5 9e 3d 0c 66 32 be
       -0.0046474724 0.0666298 0.077585645 -0.1742174
0002d0 59 33 b9 bd 93 63 b2 3e 20 87 bc 3d 91 00 ce 3d
       -0.09042997 0.34841594 0.092054605 0.10058702
0002e0 f9 8b d6 be 1a 43 38 3e 00 84 40 be 99 f8 c7 be
       -0.41903666 0.17994347 -0.18800354 -0.39056852
0002f0 5e f4 aa 3e 26 9b a2 bd b5 c6 99 3e b1 65 39 3e
       0.33389562 -0.079397485 0.30034414 0.18105198
000300 57 04 d8 be ad 2b e5 be 29 89 f6 be ef b6 61 3e
       -0.4219081 -0.44759884 -0.4815152 0.2204244
000310 10 a4 e8 3e 37 1a 18 be 96 f0 88 bd b4 96 59 bd
       0.4543767 -0.1485375 -0.06686513 -0.053122237
000320 3d a4 3f be 98 22 8e 3e 00 3d 3a be 30 81 44 bd
       -0.18714996 0.27760768 -0.18187332 -0.047974765
000330 88 30 95 be b3 f4 bf be ab bf 5a be 98 63 95 3d
       -0.2913859 -0.37491378 -0.21362178 0.072943866
000340 c1 fe 37 be 23 a7 96 be f1 d7 04 be 6d bf 93 be
       -0.17968275 -0.2942439 -0.12973 -0.28856984
000350 35 c1 1f 3e 94 9a ec 3e 96 fc 36 be 0f 56 bf 3c
       0.15601046 0.46211684 -0.17869791 0.023356466
000360 bc 23 8a 3e 1c f1 e4 3c 19 f0 86 3d 07 a8 80 3c
       0.26980388 0.027947001 0.06588764 0.015705122
000370 b9 b9 00 3e e7 94 be 3d c3 2f 99 3e 60 36 c2 be
       0.12570848 0.093057446 0.29919252 -0.3793211
000380 c0 ad 9d be 52 99 8c 3e 84 e9 f2 be 20 ad 16 3e
       -0.30796623 0.27460724 -0.47443783 0.1471448
000390 ae 4a ec 3e 19 8b 83 3b 86 ae 90 3e 3d d2 16 bf
       0.46150726 0.0040143845 0.2825815 -0.5891455
0003a0 73 f8 0e 3f 08 00 95 bd ce 5e ea bd 59 55 d8 be
       0.55847853 -0.072753966 -0.11443864 -0.42252615
0003b0 2e 1c be 3e 1b 43 b8 bc 2e 52 a4 3d 64 7f 2e 3e
       0.37130874 -0.022492936 0.08023487 0.17040783
0003c0 c6 33 83 be 21 73 72 3e 43 ea a9 3b 66 95 a9 3b
       -0.25625437 0.2367673 0.005185397 0.0051752804
0003d0 4c e6 ba be 3a 9c 34 be 2c 23 27 3e 15 17 14 bf
       -0.36503828 -0.1763772 0.16322011 -0.5784772
0003e0 0f b5 9f 3e 23 77 c9 bd 8d 8e d3 3e 05 37 0d 3f
       0.31192824 -0.09837177 0.41319695 0.5516208
0003f0 91 a0 56 be 6c 5c fd 3d ee 7c f3 3e 54 1a 08 3f
       -0.20959689 0.12371144 0.4755625 0.53165174

network_body._body_endoder.seq_layers.2.bias f4 [128]
000000 fc 30 60 3e 61 ea ce 3e 03 fc 1a be d7 94 2e 3e
       0.21893686 0.40413192 -0.15135197 0.17048965
000010 31 9b 65 bc 80 fc 4e bd f7 d9 ec 3d 54 32 67 3d
       -0.014014051 -0.05053377 0.11565011 0.05644448
000020 41 e7 e0 bd 7d 08 ee 3d 99 22 01 be 73 a8 2c 3a
       -0.10981608 0.11622713 -0.12610854 0.000658638
000030 4a 7d 41 37 2c a1 09 3e 8a 4f 0a be 1b c6 4b be
       1.1532868e-05 0.13440388 -0.13506904 -0.1989979
000040 21 c3 7f 3d 08 e8 77 be fc 88 60 3d 61 05 53 be
       0.06244195 -0.24209607 0.05481814 -0.2060752
000050 82 c3 6b 3e b0 94 ca bd 60 c5 ce 3d 64 73 00 3f
       0.23023799 -0.09891641 0.1009624 0.5017607
000060 95 32 3e 3e 97 f5 c4 bd 29 4d 47 3f 3c 17 a4 bc
       0.18573983 -0.09617155 0.7785211 -0.02003061
000070 05 cb 27 be 39 a7 85 3e c5 a3 76 3c 32 72 01 3d
       -0.1638604 0.26104143 0.015053694 0.031603046
000080 2b 1f 82 3d 4f d5 12 be 81 80 d2 bd 24 94 0d 3e
       0.06353601 -0.14339183 -0.102784164 0.13826042
000090 e1 7d fd bd 06 77 a3 bd ee 1f a4 3e f7 72 b1 be
       -0.12377525 -0.07981686 0.3205561 -0.34658024
0000a0 1e e4 6f bd 7a ac 0b be 74 fa 4f 3e 4a 7f 0e be
       -0.05856716 -0.13640013 0.20310384 -0.13915744
0000b0 da ef c1 bc 18 79 cc 3d a8 2e 14 bd b4 80 74 3e
       -0.02367394 0.09984034 -0.036177307 0.23877221
0000c0 26 0d 91 3d 95 21 5b 3e 19 cf 1b 3e b6 04 13 3e
       0.07082586 0.2139953 0.1521572 0.14357266
0000d0 ec c8 67 bb 85 70 44 be 45 95 dd 3d 38 c7 25 bd
       -0.0035367562 -0.19183548 0.108194865 -0.040473193
0000e0 cf eb 06 3e 14 da 38 bd ea b1 f2 3d f7 36 07 3e
       0.13175891 -0.04512985 0.11850341 0.13204561
0000f0 0b 66 c9 3d 1e 7f e7 3d 5e 49 05 3f 07 be da 3d
       0.09833916 0.113035426 0.52065074 0.10680776
000100 6a f7 82 bd 69 a4 5f bd c2 8f 44 3d 65 6b 22 be
       -0.06394847 -0.054600153 0.04798866 -0.1586128
000110 20 5f 03 bb c3 18 da 3d f4 5b 3f be a5 63 d1 bd
       -0.0020045713 0.10649254 -0.18687421 -0.10224084
000120 c6 9f fe 3d 1f ea 12 bd ce e2 d9 bd 4f ac 10 be
       0.12432818 -0.035867807 -0.10638963 -0.1412823
000130 dd 08 81 be 6c b6 de bd e7 d6 48 bd 28 ca 97 be
       -0.25202075 -0.10874638 -0.04903307 -0.2964642
000140 ef f7 07 3e 1e 0e 24 3f 2c 5f a1 be 44 7e ea bd
       0.13278173 0.6408404 -0.31517923 -0.114498645
000150 28 95 90 be e5 f1 ba be e3 fc b2 bd 63 dd 5b bd
       -0.28238797 -0.36512676 -0.087396406 -0.053677928
000160 7d ad 96 be ce ea 00 3d 72 d5 8a be bc c2 5a bd
       -0.29429236 0.031473927 -0.2711597 -0.05340837
000170 29 c6 0b bd 11 27 29 bd 75 c7 7e bd 7f 86 92 3c
       -0.034124527 -0.041297022 -0.062201936 0.017886398
000180 76 dd 90 be c8 fb f1 bd 3d 5b 62 be ad 3c 2a be
       -0.2829396 -0.118156016 -0.22105117 -0.16624708
000190 d9 cb e7 3d 63 47 0e be a2 b0 f4 39 3f 56 ac bd
       0.11318178 -0.1389442 0.00046670908 -0.08414888
0001a0 b9 99 1f be 8a 37 38 3e 3f 2a ac bd 8f 0f ec bd
       -0.15585984 0.17989936 -0.08406495 -0.11526405
0001b0 ea 13 09 be 42 be 18 3e 09 5a 7e be 4a 28 12 be
       -0.13386503 0.14916328 -0.24839033 -0.14273182
0001c0 6d b5 07 3e f2 d5 0d 3d ff c6 8f be 43 78 67 bc
       0.13252802 0.034627862 -0.2808151 -0.014127794
0001d0 e6 e6 aa 3d d8 6e 69 3d 60 ff d8 bd aa a7 8c bd
       0.08344822 0.056990474 -0.10595584 -0.06867917
0001e0 22 f8 1a 3e 08 ec ee 3d 57 17 d4 bd 95 67 33 be
       0.15133718 0.11666113 -0.10356014 -0.17519982
0001f0 71 3a 21 be 77 f5 8d 3d 09 d2 82 3e 3c e6 86 3e
       -0.1574495 0.06931584 0.2555087 0.2634753
