Assets/Lanes/Models/LaneLights.onnx (onnx, 349270 bytes, 9 tensors)

105 f4 [1, 256, 128]
000000 27 88 80 bc f8 74 21 3e ab 9b fb bd 9b 88 63 be
       -0.015689922 0.15767276 -0.12285551 -0.2222008
000010 4c d9 82 3d 06 3b c1 3d bd 15 ba bd 56 c3 5c be
       0.06389102 0.09435086 -0.090861775 -0.2155889
000020 85 f7 5e 3d fe ac af bd 08 b6 97 3e 13 e7 24 3d
       0.05443527 -0.085779175 0.29631066 0.040259432
000030 65 53 18 be e8 a9 fd 3d 73 e9 5f bb 6e 0d d8 3e
       -0.14875562 0.12385923 -0.0034166246 0.42197746
000040 2b 1d e3 bd 9d e5 cc bb 33 ce 2e be 5e 63 22 3e
       -0.11089548 -0.006252958 -0.17070846 0.15858218
000050 6e 32 ec bd 6b ec 32 3e 4f 20 0e be 98 c3 ad 3d
       -0.11533056 0.17472999 -0.13879512 0.08484572
000060 e3 44 a2 3c c8 cd f3 bd 1c 50 b3 bd a2 7c 29 be
       0.019808238 -0.11904484 -0.08755514 -0.1655145
000070 e9 e0 a0 3e 5d ac 45 be 4d 03 82 bd c0 e8 22 be
       0.31421593 -0.19304033 -0.06348286 -0.159091
000080 cb b7 11 3d a8 1a 98 3e 4d 05 27 bd c5 05 e2 bc
       0.03557567 0.29707837 -0.04077654 -0.027590642
000090 30 f8 0a be e0 ca ff bd 24 fd 54 3d cc 05 0c 3e
       -0.13571239 -0.12489867 0.051999226 0.13674086
0000a0 7d 1a dc bc fb 89 ba bd 88 15 27 3d 36 e1 1b bd
       -0.0268681 -0.09108349 0.04079202 -0.038056575
0000b0 d1 ca 1f bd d1 cc cc 3d 82 34 96 bd f1 89 6b bd
       -0.03901178 0.10000003 -0.07334234 -0.057504598
0000c0 0c 9c 2f be 29 17 a5 3c b0 3e a4 3d 82 9b 59 3b
       -0.17149371 0.020152645 0.08019769 0.0033204262
0000d0 50 97 bd 3d 9e 89 80 3e 46 db 18 3e 02 6a 2d bd
       0.09257376 0.25104994 0.14927396 -0.042337425
0000e0 3a d7 c1 bd 1b 0f f1 bc 41 07 96 be d4 5f 03 be
       -0.09464879 -0.029426148 -0.2930241 -0.12829524
0000f0 ed e7 83 3d ae 9e cd 3c 74 c1 99 3d 23 2c 6f 3e
       0.06440721 0.025100078 0.075076014 0.2335668
000100 bf 27 9e bd f8 5b 3a 3e b6 a7 a9 3d 29 9e 94 3d
       -0.07722425 0.18199146 0.082839414 0.07256729
000110 42 fe 53 3e 9c 1a 53 3e 88 f1 87 3e 44 fd 5e 3e
       0.2070246 0.2061562 0.2655146 0.217763
000120 73 09 9c 3e d9 1d 54 3c 1a a3 2d 3e 6f 73 40 3d
       0.3047596 0.012946569 0.1695675 0.046985086
000130 f2 b5 25 3c be 26 47 3e 85 3e 91 3e 53 db 43 3e
       0.01011418 0.19448373 0.2836801 0.19126634
000140 5e 97 2f be 41 b5 65 3d 4f 5c 4b 3e 15 30 6c 3d
       -0.17147586 0.05608106 0.19859432 0.057663042
000150 c5 a5 fc 3d 51 e0 16 3c 14 c5 69 bd cb fb 41 3d
       0.123363055 0.009208755 -0.057072714 0.04735927
000160 53 44 62 3d ed 00 c8 3d 99 b4 39 3e 4a f9 6e 3e
       0.05524094 0.097658016 0.18135299 0.23337284
000170 14 3f 7f 3e db 8c 95 3e ef 25 3a be 03 d2 d6 bd
       0.24926406 0.29209027 -0.18178533 -0.10489275
000180 c5 6b 9c bd 4a 8c 86 bd c0 a7 0e be 3b 5e 02 be
       -0.07637743 -0.06569727 -0.13931179 -0.12731259
000190 1e a2 2e 3c 2a b1 a2 be d8 55 3e 3d 7a 23 d8 bc
       0.010658769 -0.3177579 0.046468586 -0.026384104
0001a0 83 6a b5 3d 31 aa ce bc 03 6e 06 3e 1a 4c 08 be
       0.08858206 -0.025227638 0.13127904 -0.1331028
0001b0 f8 b5 38 3e a6 f2 13 3d 3a e2 b8 bd 52 a1 6f 3e
       0.18038166 0.03612008 -0.09027524 0.23401383
0001c0 b8 1b 2f 3e ce c9 a3 3e 80 0c 1c 3e 71 f8 8f be
       0.17100418 0.31989902 0.15239143 -0.28119233
0001d0 66 ff d9 bd 12 8b 71 be f6 60 5e 3e 30 f1 6e 3e
       -0.106444165 -0.23588207 0.21716675 0.23334193
0001e0 f8 9f 58 bc 9c 35 09 3d eb 1e 25 be 61 0f 2a bd
       -0.013221733 0.03349839 -0.16125076 -0.041518573
0001f0 e5 ae 14 3d 55 56 a9 3c dc 7a be 3d 7e 9f 99 bb
       0.036299605 0.02067105 0.09300777 -0.0046882024
000200 ae 45 94 be 30 3a 1b 3e 10 2e c1 3d 24 b5 55 3e
       -0.2895941 0.15158916 0.09432614 0.20869881
000210 ad a7 ae be 38 55 ed bd e3 5b 65 3c f0 97 18 be
       -0.341123 -0.1158852 0.013998958 -0.1490171
000220 e3 ab 44 3e df 5e a1 3d cb d8 c0 bc a5 1c 64 3e
       0.19206195 0.07879423 -0.023540875 0.22276552
000230 52 4a 7b 3e 49 29 4b 3e f1 7b 72 3d bc 6e 3a 3d
       0.2454007 0.19839968 0.05920023 0.04551576
000240 e0 55 04 be b9 31 98 3e 96 cd 6d 3e 78 0c 07 3f
       -0.12923384 0.29725435 0.23222956 0.527534
000250 16 c4 d4 bc 43 68 c8 3e 43 92 00 3d 44 47 87 3d
       -0.025972407 0.39142045 0.031389486 0.0660539
000260 d4 56 0e 3e 41 79 4e 3b 68 a4 d0 3e 4b 83 34 be
       0.1390031 0.0031505378 0.40750432 -0.1762821
000270 b9 07 bb 3e 14 24 9e 3e 89 94 cb bd 05 5d 6b bd
       0.3652933 0.308869 -0.0994044 -0.057461757
000280 a2 0f 09 3e a6 bd 25 3e a2 7c 8e be d5 ed fc 3d
       0.1338487 0.16185626 -0.27829462 0.1235005
000290 54 e4 24 be c7 0e 3e 3e c0 24 4f bd 9a da d3 3e
       -0.16102725 0.18560325 -0.050572157 0.41377717
0002a0 ff 9b 09 3e 67 0f 30 3e ec 0d 58 bd 1b 38 8a bd
       0.13438414 0.17193376 -0.052747652 -0.067489825
0002b0 f4 52 ba 3c e8 cd 78 3e 39 b8 4d 3e b3 e0 cf 3e
       0.022744633 0.24297297 0.20089807 0.4060112
0002c0 c8 66 d2 3d 79 8b 8b 3c 6d 34 4a 3e 5a 5d 2b 3e
       0.1027351 0.01703428 0.19746561 0.1673483
0002d0 93 12 d2 3d 2b 85 6b 3e a5 53 ab bd f4 55 5e 3e
       0.10257449 0.23000018 -0.08365563 0.21712476
0002e0 cc da 8f 3e f7 8b 53 3e b7 da cc 3d ac 4f 6e be
       0.28096616 0.20658861 0.10002654 -0.2327258
0002f0 ab 3b 5f bc bd e2 df 3e 80 12 21 3e 56 29 c7 3e
       -0.013625066 0.43727675 0.15729713 0.38898724
000300 5b cb 45 3e 5d 58 fb 3e 51 bf dd be 52 1d 86 3e
       0.19315855 0.49090853 -0.43310025 0.26194245
000310 60 01 c4 3d d5 98 89 3e e0 e6 77 be 71 6a 8d 3e
       0.09570575 0.26874414 -0.24209166 0.2762027
000320 2c 13 82 3e bb 9d c8 3c 7e 98 26 be 44 6f 52 be
       0.25405252 0.024489274 -0.16269109 -0.20550257
000330 ff c5 a2 3d f6 9b f2 3d f4 63 23 3e 59 fb 32 3e
       0.07947921 0.118461534 0.15956098 0.17478694
000340 93 33 a8 3d 39 e3 dc 3d 5c 03 a2 be 24 39 f4 3e
       0.08212962 0.10785527 -0.31643188 0.47699845
000350 fc 79 22 3e 38 97 81 bd 7a 7a 39 bd 4a 55 e6 3d
       0.15866846 -0.06327671 -0.04528282 0.11246736
000360 f5 ad 09 3d ce b6 c4 3e 39 a9 c7 3d 0d f1 ea 3e
       0.033613164 0.3842072 0.097490735 0.45887032
000370 c7 78 d9 3d 37 21 93 3e ce 9f 88 3e 9d 7e f0 3d
       0.106187396 0.28736278 0.2668442 0.117428996
000380 47 25 46 3b c8 3d ca 3d 4d d2 84 bc f9 81 6d 3e
       0.0030234621 0.09875065 -0.01621356 0.23194112
000390 59 33 a0 3e 75 6c 7d bd e7 0b 67 3e b4 af 11 3e
       0.31289175 -0.06187101 0.22563134 0.14227182
0003a0 9b da 98 be 98 fa 0f 3e 4f 04 d0 be e8 e7 5a 3d
       -0.29854283 0.14060438 -0.40628287 0.05344382
0003b0 79 d6 bc 3e 45 03 ea bd ae 71 ec 3e c1 f2 bf 3e
       0.3688238 -0.11426405 0.4618048 0.37489894
0003c0 9a cf cc 3e 47 86 b4 bd 93 59 9a 3c 1d 5a 6a be
       0.40002137 -0.08814674 0.01884154 -0.22885938
0003d0 b7 c9 ce bd 92 0f 7a bd 6d 9d 0a bc a0 49 45 3c
       -0.10097068 -0.061050005 -0.008460385 0.012041479
0003e0 d6 ba 9b 3e 78 b3 1f be 4a 7f e8 be 8f ad 15 be
       0.30415982 -0.15595806 -0.45409614 -0.14616989
0003f0 97 ba 13 3c dd f6 27 be 77 ef d9 3e 1a 47 de 3e
       0.009016654 -0.16402765 0.4256551 0.4341362

106 f4 [1, 256, 64]
000000 5c 42 de bd 94 40 a1 3d 08 8a 53 be d2 dd 33 3d
       -0.10852501 0.078736454 -0.20658123 0.043912716
000010 49 e8 20 bd c5 b3 49 be ad aa f7 3d fd bc df bd
       -0.039284024 -0.19697483 0.12093101 -0.109247185
000020 d8 0f 80 3d aa c4 bf bc 21 90 d1 3d 4e ff 71 be
       0.06253022 -0.023409206 0.102325685 -0.23632547
000030 3b 0b 8c be 57 6e 9f 3b ff a3 8c bd 7e 2a c0 3d
       -0.27352318 0.0048654485 -0.06867217 0.09383105
000040 bd 89 22 be 64 12 1e bd f8 21 92 3e 91 68 3e be
       -0.15872855 -0.038591757 0.2854154 -0.18594576
000050 0d f1 7d 3e ad 27 28 be 5c 63 8e be dd 2a c0 3c
       0.24798985 -0.16421385 -0.2781018 0.023457939
000060 c1 e1 25 3e 9a c1 a8 be 35 1a a6 bd fd c9 ad 3e
       0.161994 -0.32960206 -0.08110467 0.33943167
000070 ff 50 9e 3d ec ba 58 bd 20 b6 99 bd 13 11 be bd
       0.077302925 -0.052912638 -0.07505441 -0.092806004
000080 54 52 0e be 70 e4 ba bd 43 b5 04 3e ac 42 1b be
       -0.13898593 -0.09125602 0.12959771 -0.15162152
000090 fb 14 86 3e a7 67 cd bd 55 c7 2d 3d 57 1d b7 3e
       0.26187882 -0.10029536 0.042426426 0.35764572
0000a0 1f 1b bc 3d 3a f8 f7 bd d4 d3 e6 bc bc d6 e7 bd
       0.091848604 -0.12107892 -0.02817718 -0.11320254
0000b0 3e 99 30 3e 02 5d 5e be d4 d2 03 3d 67 cd 5b 3c
       0.17245957 -0.21715167 0.032183483 0.013415671
0000c0 d3 4b 28 3c ce 03 7a be 7a 5d bc 3d d1 1f 83 3e
       0.010271984 -0.24415514 0.09197517 0.25610211
0000d0 0f 66 99 3c 1e e8 3f 3e d1 5c 5d bd 53 c3 00 3b
       0.018725423 0.1874089 -0.054043595 0.0019647672
0000e0 39 ea ba 3d d5 35 18 be 26 e0 f9 bc e7 b8 8d 3d
       0.09126706 -0.14864285 -0.03050239 0.06920033
0000f0 7c 3f 03 bc 5e 66 05 bc ee 76 2d 3c eb 5e 8b be
       -0.008010741 -0.008142082 0.010587437 -0.27220854
000100 e8 80 a6 be 9a 58 08 be c3 5d a0 be 59 80 dd bb
       -0.32520223 -0.13315049 -0.31321535 -0.006759685
000110 34 03 01 3e 2c 87 23 be c6 6b bc 3e 85 06 9b bd
       0.12598878 -0.15969533 0.36800975 -0.07569603
000120 8f 5d 96 3e ac e0 39 bd 00 30 bf 3e 98 7c 97 bd
       0.29368255 -0.04538028 0.3734131 -0.07396811
000130 d3 e7 55 3e 4d 98 d4 3e 88 52 16 be 04 90 55 3e
       0.20889215 0.41522446 -0.1467992 0.20855719
000140 05 4b 59 3e e7 ad 60 bc c6 e7 65 3c ba 8f 78 be
       0.21220024 -0.013713337 0.01403231 -0.24273577
000150 57 25 dc 3c 02 b2 90 bd ae b2 89 3e ba f1 c4 bd
       0.026873274 -0.07065202 0.26894134 -0.09616418
000160 65 6d 8d be 38 1f 3a be c5 5f 5e bd a3 62 0d bd
       -0.27622524 -0.18175972 -0.05429055 -0.034517895
000170 8b 7f c0 bd d0 e8 5a bd 15 fd 88 be 0a bd 9e be
       -0.09399327 -0.053444684 -0.26755586 -0.310036
000180 80 83 a2 be 57 d6 2f 3e 3e d2 96 3d e1 aa 84 bd
       -0.31740952 0.17171608 0.07364319 -0.06477905
000190 dd 89 d5 3c 01 df 3a 3d 5a b2 a7 be 9d 4f 52 3e
       0.026066715 0.04562283 -0.3275326 0.20538183
0001a0 5b d0 e5 3d 14 76 87 3e 57 82 03 3e 34 97 01 3f
       0.11221381 0.26457274 0.1284269 0.5062134
0001b0 80 f6 af be bb 62 43 be 40 a9 96 bd cc af 9c be
       -0.34367752 -0.19080631 -0.073565006 -0.30602872
0001c0 cb e8 89 be 31 e8 1b 3d e1 16 55 be cf 82 1b bd
       -0.2693542 0.03806323 -0.20809509 -0.037966546
0001d0 80 30 a9 be 99 5f 0c 3d 79 eb 2a be c5 f4 3c 3e
       -0.33044815 0.034270857 -0.16691388 0.18452747
0001e0 fc 26 15 bd 6d 5f 3c be 53 77 d5 bc 08 52 39 3e
       -0.03641413 -0.18395777 -0.026057875 0.18097699
0001f0 95 d3 1a be a8 30 3a be 0c f8 80 be 09 a2 f8 bc
       -0.15119775 -0.18182623 -0.25189245 -0.030350702
000200 f7 07 02 be 3e b0 74 be f1 c4 50 bc 16 d9 14 3d
       -0.12698351 -0.23895356 -0.012742267 0.03633984
000210 dd 10 40 3d 5e bd 0b bd ca 21 d9 bd 11 29 67 3e
       0.046891082 -0.03411614 -0.10602148 0.2257426
000220 19 29 8c 3d c2 ee 30 3d 02 6c 5e be 7f 86 37 3e
       0.06843776 0.043196447 -0.21720889 0.179224
000230 21 50 82 bb df a6 41 bd 5a bb 18 bd 1c 02 11 3e
       -0.0039768373 -0.04727828 -0.037288047 0.14160961
000240 6d e1 53 be a1 34 a2 3e 2d 55 3a 3e 60 b5 f9 bd
       -0.20691462 0.31680778 0.18196554 -0.12192798
000250 e7 4f 48 be ee ee 97 3b 58 e4 1d be 18 67 0f 3d
       -0.1956173 0.004636637 -0.15419137 0.035010427
000260 9d d6 74 be 73 14 72 3e 85 73 1a bd 7c 03 ad bc
       -0.23909993 0.23640613 -0.037707824 -0.021119826
000270 5f 38 b0 3d b1 40 3f be 6a 1d f8 bd 7e 8a 5f 3e
       0.08604502 -0.18677022 -0.12114985 0.21830174
000280 87 c4 9c bc 9f b5 fd 3d ca b4 31 be f0 7d 1a 3d
       -0.01913668 0.12388157 -0.17354122 0.03771776
000290 56 d3 b2 3d dd 44 8d 3e 74 ec fd 3e ff 69 af be
       0.087317154 0.275916 0.49594462 -0.34260556
0002a0 b5 e0 89 3e 26 ff 6f 3e 0a 8c 20 be 0b 84 aa bd
       0.2692925 0.23437175 -0.1567842 -0.083259664
0002b0 49 2a dc 3d eb ca 35 3d f9 1c a9 bd 7b 3f 5c 3c
       0.10750253 0.04438297 -0.08257479 0.013442869
0002c0 4a 8d dc bd 68 80 84 3d 5e f9 51 3d 6c e9 cc bd
       -0.10769136 0.06469804 0.051263206 -0.10005459
0002d0 ad 61 04 be a2 5e 15 be 4e 98 45 3e 10 6e 26 bd
       -0.12927885 -0.14586881 0.19296381 -0.040632308
0002e0 24 60 b1 be fd c3 ca 3e 09 fa 3a 3e f4 ef 7a be
       -0.34643662 0.39602652 0.18259443 -0.24505597
0002f0 56 03 92 3e 18 de 23 bf 31 29 98 be d2 ba a2 3d
       0.2851817 -0.64010763 -0.29718927 0.079457894
000300 34 a3 aa bd d9 3b 8b 3e 45 0c 2d 3d 38 9b 8a 3c
       -0.0833191 0.27194098 0.04224803 0.016919717
000310 e3 81 1d be 00 84 61 bd e7 3d 46 3e 30 93 79 3e
       -0.15381579 -0.055057526 0.19359551 0.24372554
000320 3f 90 4b 3d 6f 7e 83 3e 94 6b ed 3d 62 5a 3b be
       0.04969811 0.256824 0.115927845 -0.18296197
000330 cc 17 36 3e f9 0b 44 3e ed 8d 82 bc 7f ba a2 be
       0.17782515 0.19145192 -0.015936816 -0.3178291
000340 43 2e 73 3e 92 bc a3 3e 44 26 ad 3c f4 cc 05 be
       0.23748116 0.31979805 0.02113641 -0.13066465
000350 98 60 65 bd fd 6d 3a 3d c8 51 ef 3d 3a aa c7 bd
       -0.056000322 0.04551505 0.116855204 -0.09749265
000360 c0 4d 96 bd a5 8b 71 be b6 f5 b0 be 0a 37 28 3e
       -0.073390484 -0.23588426 -0.34562463 0.16427246
000370 19 ec a4 3e 8d f1 10 3d cb a8 d4 be b1 c2 52 3c
       0.32211378 0.03538661 -0.4153503 0.012863801
000380 61 4e b4 be c4 39 1d bc 5a fd 05 be ea 0d 53 be
       -0.35216048 -0.009596292 -0.13084927 -0.20610777
000390 f7 2b ba 3d f4 41 3e bc 38 c4 a7 3c 6e 47 22 3d
       0.09090417 -0.011612404 0.020479307 0.039618902
0003a0 aa b2 c6 3d 85 fd 18 3c 3a 0d 8e 3c 4f 00 18 3d
       0.09702046 0.0093377875 0.017340291 0.03710967
0003b0 24 db 03 3d 42 7f 83 3e 36 da af be 41 32 b1 3d
       0.03219141 0.25683028 -0.3434617 0.08652163
0003c0 7e b6 15 be fd 2a 61 3d 03 3a 6a 3e 18 07 c6 bc
       -0.14620396 0.054972637 0.22873692 -0.024173304
0003d0 0b f8 6e be fc 14 43 be 80 36 9b 3e e8 ea f2 be
       -0.23336808 -0.19050974 0.30315018 -0.47444844
0003e0 7d 4f 3b be ce b5 09 be 84 f6 3b 3e f4 2e df bd
       -0.18292041 -0.13448259 0.18355757 -0.108976275
0003f0 e5 2e fd bd 0b d5 b0 bd a1 37 2b be ed 09 97 3e
       -0.1236246 -0.08634385 -0.1672044 0.2949976

107 f4 [1, 512]
000000 16 17 4b be a4 b8 8b be f2 5f 8f bc cb 28 0e be
       -0.19833025 -0.27289307 -0.017501805 -0.13882749
000010 1b f4 94 be ed e5 54 be 55 0e 17 be b9 2f cc bd
       -0.29092488 -0.20790835 -0.14751561 -0.0997004
000020 94 98 3b be 9b 3b f5 bd 17 42 6a bd 40 a7 65 be
       -0.18319923 -0.119742595 -0.057191934 -0.22427082
000030 7d 52 5e 3e dd d5 22 be a6 c4 d2 be f7 e2 28 be
       0.21711154 -0.15901895 -0.41165656 -0.1649283
000040 61 8f 4a be a7 a7 4c 3d 64 51 c4 bd a4 63 0f bd
       -0.19781257 0.049964573 -0.095858365 -0.035007134
000050 09 76 12 be b0 4c 98 be 87 58 f0 3a 22 0b 87 be
       -0.1430284 -0.29746008 0.001833693 -0.2637568
000060 e1 69 ea bd 98 9c c9 bd ce d1 2c be 8d 61 87 bc
       -0.11445976 -0.09844321 -0.16876909 -0.016526008
000070 b8 4c 20 3b d8 3b dc bd 82 63 d8 be 3c 8b b5 bd
       0.002445979 -0.10753602 -0.42263418 -0.088644475
000080 5a 19 9f 3b d1 a5 f0 bd 16 dd 33 be 2a 78 a8 bd
       0.004855317 -0.11750377 -0.17564806 -0.082260445
000090 aa 80 a7 be 06 6b 4b be b8 3d ae bd 75 3d 20 be
       -0.3271535 -0.19865045 -0.08507866 -0.15648444
0000a0 c3 56 3b be 67 71 71 3d 0a d0 8c bc 39 7e 11 be
       -0.18294816 0.05894604 -0.017189045 -0.14208306
0000b0 db 3a 6f be 77 f4 11 be 32 dc 09 be f4 53 4a be
       -0.23362295 -0.14253412 -0.13462904 -0.19758588
0000c0 50 6d 01 3d 8e e5 79 be 0e e3 c4 bd f8 7e e6 bd
       0.03159839 -0.24403974 -0.0961362 -0.11254686
0000d0 bc 38 98 be ef 86 b3 bd ff a8 81 bd 1e 9d 6d be
       -0.29730785 -0.08765971 -0.063310616 -0.23204467
0000e0 0b cb 73 bd 44 a9 7a be 02 db 2a 3d 9d 70 fd bd
       -0.05951981 -0.24478632 0.04171277 -0.12374995
0000f0 8e 7c 8a bc 0d 2b 1b be 04 60 e3 bd f7 42 fb bd
       -0.016905095 -0.15153141 -0.11102298 -0.12268632
000100 50 4b 9f bd 32 04 cc bd 0b e3 07 3e 6c 8a 37 bb
       -0.077780366 -0.09961738 0.13270204 -0.002800609
000110 69 89 f7 bd 65 5f ad bd 1c ce 37 3d a0 b0 a1 bc
       -0.12086756 -0.08465461 0.044874296 -0.019737542
000120 64 72 0a be e5 b3 07 bd 67 61 93 be 12 45 90 bc
       -0.13520199 -0.033130545 -0.2878525 -0.01761106
000130 9b 91 4b be 78 b4 18 be fa 93 6d be 02 c3 55 3d
       -0.19879763 -0.14912593 -0.2320098 0.052187927
000140 62 86 a7 bd 5b a8 c7 bd 3e c6 93 3c a0 03 fc bc
       -0.08179928 -0.09748908 0.018038865 -0.030763447
000150 a6 24 82 3d 82 cb 0d be 7f f3 32 be 9b c8 3b bd
       0.063546464 -0.13847163 -0.17475699 -0.04584561
000160 a7 62 96 bd 50 f1 d9 3d 78 17 49 3e 68 ca 1a 3e
       -0.07343035 0.1064173 0.19637859 0.15116274
000170 6a 21 ab bd 5e 93 b2 be 99 34 7e bd 38 99 a5 bc
       -0.083559826 -0.34878057 -0.06206188 -0.020214662
000180 07 96 03 be de bd da 3d 72 a4 5f bc bd 44 38 be
       -0.128502 0.106807455 -0.013650047 -0.17994972
000190 1f d1 a9 3d d3 e3 a4 bd c2 c5 73 bd e7 e2 a4 bd
       0.0829184 -0.080512665 -0.05951477 -0.08051091
0001a0 84 7d 49 3d 66 a5 6e bb 8c 69 1f be 24 7a 3a 3e
       0.049191967 -0.0036414503 -0.15567607 0.18210655
0001b0 ac 8d e2 bb f8 f5 1c 3d d7 7a ab 3b fb 9d 11 3b
       -0.0069138613 0.03832051 0.0052331495 0.0022219408
0001c0 1f 90 21 be 06 77 04 3b c8 d9 ca 3d 82 bf a4 bd
       -0.15777634 0.0020212545 0.0990482 -0.0804434
0001d0 6c 77 03 3c 0d 5c 64 3d 02 b6 54 bd 73 29 a5 bb
       0.008024078 0.05575185 -0.05193139 -0.0050403415
0001e0 9c 94 db be c6 55 29 bd f0 01 11 be 75 5a 6a 3d
       -0.42886817 -0.041341566 -0.14160895 0.057215173
0001f0 9d 1d 0b bd b0 a8 c4 3d 77 c7 d9 3d 56 13 d1 bd
       -0.03396379 0.09602487 0.10633748 -0.10208766
000200 62 09 6a 3f 16 d7 9a 3f 62 1d 8c 3f bb 88 86 3f
       0.9142057 1.2096889 1.0946467 1.0510477
000210 fc fd 7c 3f 4e c4 67 3f 8d 2c 49 3f 2d 5e 80 3f
       0.9882505 0.9053391 0.78583604 1.002874
000220 69 0b 82 3f 76 71 76 3f b2 95 90 3f 6f 67 80 3f
       1.0159732 0.9626688 1.1295683 1.0031565
000230 bb fc 98 3f 6c 3b 79 3f 20 18 64 3f f1 80 6c 3f
       1.1952127 0.97356296 0.8909931 0.9238425
000240 f4 be 6c 3f f8 f0 86 3f ce 4f 6b 3f 15 1d 63 3f
       0.9247887 1.0542288 0.9191865 0.8871625
000250 77 93 77 3f df 39 7a 3f ef eb 5c 3f cc 34 81 3f
       0.9670939 0.97744554 0.86297506 1.0094237
000260 12 5a 90 3f d3 2f 73 3f 86 13 a4 3f ff b2 82 3f
       1.1277487 0.9499485 1.2818458 1.0210875
000270 90 46 85 3f 99 21 84 3f f9 8e 41 3f 2e 80 6d 3f
       1.0412159 1.0322753 0.75608784 0.9277371
000280 e5 ed 94 3f ad 84 64 3f 8a ab 70 3f 40 fe 75 3f
       1.16351 0.8926495 0.9401175 0.9609108
000290 ec 99 2f 3f 73 de 6c 3f 3a 46 76 3f 8b a4 92 3f
       0.6859424 0.9252693 0.9620091 1.1456465
0002a0 eb e6 5d 3f 22 45 3f 3f 4e f6 83 3f ee 80 44 3f
       0.8668048 0.74714863 1.0309541 0.7675923
0002b0 02 bd 85 3f f5 a2 88 3f e3 b0 39 3f a2 87 98 3f
       1.0448306 1.067473 0.7253553 1.1916392
0002c0 cb be 6e 3f b2 79 75 3f 96 e5 90 3f bc 5d 84 3f
       0.93259877 0.9588882 1.1320064 1.0341105
0002d0 00 8b 66 3f 1c 02 7f 3f 8a ad 7f 3f 09 d7 51 3f
       0.9005585 0.99612594 0.99874175 0.8196874
0002e0 79 39 6b 3f 34 34 7e 3f 91 99 80 3f f6 bd 77 3f
       0.9188457 0.99298406 1.0046865 0.9677423
0002f0 14 87 5b 3f 1a 9c 6a 3f 3d 5f 92 3f c2 ba 6d 3f
       0.8575299 0.9164444 1.1435314 0.92863095
000300 92 78 9c 3d b0 37 92 bb 2a dd 67 bc 97 e8 54 3d
       0.076401845 -0.004462205 -0.014151851 0.051979627
000310 1a e9 2d 3e 94 db 7a bd 8b 78 36 be fd 86 2e 3d
       0.16983452 -0.061244562 -0.17819421 0.042609204
000320 f9 e8 aa bd 58 99 62 3d 65 cf 7e bd 50 f6 39 3d
       -0.08345217 0.05532202 -0.062209506 0.045400918
000330 8f be 45 be 91 88 03 be 29 1c 77 3c 4f 38 e9 bd
       -0.19310974 -0.12845065 0.0150823975 -0.11387693
000340 8b 89 bd 3c 15 a5 e0 bd a1 24 bd bd 1d e7 0f 3e
       0.023136875 -0.10968987 -0.09235502 0.14053006
000350 e6 1c 37 bc e0 f4 12 be cd 19 a8 bd 99 32 20 3c
       -0.0111763235 -0.14351225 -0.08208046 0.009777688
000360 72 78 a3 bc 80 bc ac bc 5e fe 5e 3d af 5c 56 be
       -0.019954894 -0.021085978 0.054441802 -0.20933793
000370 b9 e6 98 3d 05 65 9a 3c 54 f9 21 3c be 28 0d 3d
       0.07465882 0.018846998 0.009886105 0.034462683
000380 25 02 9a 3e 82 56 cf bd fe e7 fb bd cb 39 ab 3c
       0.3007976 -0.10123922 -0.123001084 0.020901581
000390 2c 65 d8 bd 18 67 d5 3b 93 ce 8b 3d 18 cc b8 bd
       -0.10566172 0.006512534 0.0682651 -0.09023303
0003a0 d3 70 a4 3a 49 05 d6 3d 3c 4a b7 bc 9b 49 52 bd
       0.0012545831 0.10450227 -0.022374265 -0.051339727
0003b0 e7 b5 c0 3b f0 58 64 bd 68 4f 8f 3d e9 1e 3f 3e
       0.0058810594 -0.05574888 0.069975674 0.18664135
0003c0 15 2c 25 3d 02 8d d7 bc 19 5d 1e 3e 56 4e 35 3d
       0.040325243 -0.026312355 0.15465201 0.04426416
0003d0 9e 0d 9c 3d 5c 0b 9a bd 33 a8 a3 3d 93 74 36 3d
       0.07619785 -0.07521698 0.07991066 0.044544768
0003e0 93 49 46 be 03 db 67 3d 90 89 fc 3c 2d fd 53 bc
       -0.19364004 0.05660535 0.030827314 -0.01293878
0003f0 5c b8 97 3d 53 4a 09 3d 26 33 3a bd e5 23 f0 3c
       0.07408211 0.033518147 -0.045458935 0.02931399

action_model._discrete_distribution.branches.0.bias f4 [4]
000000 50 8c bb bd b7 8e 80 3e 14 86 30 bc 21 a1 41 be
       -0.09157622 0.25108883 -0.010774154 -0.18909122

action_model._discrete_distribution.branches.0.weight f4 [4, 64]
000000 36 af 85 3e 3c 7a 43 be ee 68 3b be ce e5 85 be
       0.26110238 -0.19089597 -0.18301746 -0.2615189
000010 8b 6c 94 3d 34 02 76 bd 85 fc f9 3d 5c 78 95 3d
       0.072472654 -0.060060695 0.122063674 0.07298347
000020 17 a6 8a 3d 54 fb 29 3d f7 44 82 be d4 f1 1e 3e
       0.067699604 0.04149945 -0.2544324 0.15521938
000030 67 62 dd 3c e1 3e 7d 3f 5f 52 b5 bd ac 20 5e bd
       0.027024461 0.9892407 -0.08853602 -0.054230377
000040 41 74 87 be 5a 01 38 3e 96 6c 11 3e fc 43 88 3e
       -0.26455882 0.17969266 0.14201578 0.26614368
000050 86 12 ca be ff 51 e4 3e cc e6 56 3e c8 5c 88 be
       -0.39467257 0.44593808 0.2098648 -0.26633286
000060 b5 41 ca 3e e8 f7 85 3e 44 94 18 3f 3a 57 1e bf
       0.39503255 0.261657 0.59601235 -0.6185185
000070 98 41 24 be 4f 8d c8 be 6f eb aa be ce 38 cb be
       -0.16040647 -0.3917031 -0.33382747 -0.39691776
000080 9d c9 ae bd 83 85 8b be 10 ab 77 3e bc 95 78 3e
       -0.085345484 -0.272503 0.24186349 0.24275869
000090 e4 68 4d 3f 0f 9c d4 be eb 55 be be ff 02 6f be
       0.80238175 -0.41525313 -0.37174925 -0.23340987
0000a0 8b 8a e0 be 70 e2 d4 be 3f c5 3d be fa 91 e1 3e
       -0.438557 -0.41579008 -0.18532275 0.44056684
0000b0 1c 72 54 be 28 a1 73 3e fe c1 cb be b3 41 16 3f
       -0.20746654 0.23791945 -0.39796442 0.58694
0000c0 8a 07 b5 be 72 7e b3 3e 35 52 98 be d3 ed 71 bf
       -0.35357314 0.35057408 -0.2975022 -0.94503516
0000d0 cf 82 44 3e db 9e 1a 3f 0e dd 0a be eb 99 43 3e
       0.19190525 0.60398644 -0.13560888 0.19101684
0000e0 1c bc 8c bd 4b 61 0e 3e b7 2a 5d 3d 06 59 7e be
       -0.068718165 0.13904302 0.053995814 -0.24838647
0000f0 06 64 a8 be 3c cc 71 3e db 52 42 be 8e e4 8b be
       -0.32888812 0.23613065 -0.1897692 -0.2732281
000100 e0 26 51 be 7c 39 2a bf 06 cd 22 3e 13 a1 4b be
       -0.20424986 -0.66493964 0.15898523 -0.19885664
000110 05 1a 3e be 19 ad ed 3d c5 80 81 3d 60 4e b9 3d
       -0.18564613 0.116052814 0.06323389 0.09048152
000120 5e 02 17 bf 0c 73 2d 3f 77 bd 5f 3d 1d 4e bd bd
       -0.5898799 0.6775367 0.054624047 -0.092434146
000130 25 93 e7 3e ee b8 06 bf 21 1c 01 3d 52 0f 94 3e
       0.4522945 -0.5262593 0.031520966 0.28917938
000140 e8 d9 eb 3e 4b 8f 9e 3e b8 55 28 bf aa 55 01 3e
       0.46064687 0.309687 -0.65755796 0.12630334
000150 c5 04 b5 bb 71 d3 d8 be 1c cf 9a 3e f2 be fb 3e
       -0.00552425 -0.42348817 0.30236137 0.49169117
000160 99 0f 2b bf e2 d2 46 3d 39 eb 25 bb 0b a2 96 3e
       -0.66820675 0.048540957 -0.0025317206 0.29420504
000170 40 aa 85 3e 54 51 c7 3e 89 9f 6b 3e 54 a9 a8 3e
       0.26106453 0.38929236 0.23010077 0.32941687
000180 bb 6b 5b be 4f 9b 80 3c 45 f1 82 bd dc 7c ee be
       -0.21427815 0.015699057 -0.06393675 -0.46579635
000190 a4 84 5b bf 04 7b 21 3f ed d2 50 bc cb 16 b2 bd
       -0.8574927 0.6307833 -0.012745601 -0.08695754
0001a0 fc 49 e0 3e 99 1e 95 be 45 c1 72 be ca 41 cf be
       0.43806446 -0.29124907 -0.23706539 -0.4047988
0001b0 88 a3 86 be 07 c0 38 3d 8f f5 06 3f e7 ef 0c 3f
       -0.2629664 0.045105007 0.5271844 0.5505356
0001c0 c2 c9 84 3e f9 de 6c be 49 89 14 be 03 e6 89 3f
       0.2593518 -0.23131932 -0.14505495 1.0773319
0001d0 5e 4f 54 be 05 f6 46 bf 72 ed 14 3f 95 38 21 bf
       -0.20733401 -0.77719146 0.5817481 -0.6297696
0001e0 9e 4a 36 bb 6b a0 47 be bd ea cd 3a e6 33 5f 3e
       -0.0027815471 -0.19494788 0.0015710216 0.21797141
0001f0 2e 86 07 3f 90 35 b9 be 27 aa 87 3e 6b 17 83 3e
       0.52939117 -0.36173677 0.26497003 0.25603804
000200 04 26 3a be 2f a0 86 3f c0 3c cf bd aa 56 0d 3f
       -0.18178564 1.0517634 -0.10119009 0.55210364
000210 52 b5 94 3e 72 90 91 3d 93 dc cb 3c b8 90 31 3e
       0.29044586 0.07107629 0.024885451 0.17340362
000220 50 2a 0b 3f e7 b9 a9 bf 75 c2 5e be 18 d9 b1 bd
       0.5436144 -1.3259858 -0.21753867 -0.086839855
000230 49 1c 0c bf b1 e6 0b be a8 e6 4e 3d 5b 57 98 be
       -0.5473066 -0.1366222 0.05051294 -0.29754147
000240 9d 28 13 3e 94 dc a5 be 8e 8c 2c 3f 87 cd 78 be
       0.14370961 -0.3239485 0.6740197 -0.24297152
000250 84 9d 1c 3e d7 e9 bc bd 6b 17 5f bf cb 88 de be
       0.15294462 -0.09224289 -0.8714511 -0.4346374
000260 73 d8 1f 3e 4d 8f 0c be ab 1b 08 bf ab 04 9e be
       0.15609913 -0.1372654 -0.5316722 -0.30862936
000270 0e 42 9a 3d 0b 7c 0f 3d 2f f6 84 be b8 a8 73 be
       0.0753213 0.035030406 -0.25969073 -0.2379483
000280 b9 b4 4c be 26 ae 2f 3e ce 9b 69 3d 34 93 16 3d
       -0.19990815 0.17156276 0.057033353 0.036761478
000290 0c d2 65 3e ec 8c 5c 3e ec 88 40 3f b5 28 a8 3d
       0.22443408 0.21538132 0.75208926 0.08210889
0002a0 3b 8f 96 bc 2a a3 4a 3f 1b 5f 18 3f e7 ff 04 be
       -0.018378844 0.7915522 0.5952012 -0.12988244
0002b0 0b 57 40 3e 8c 99 01 bf b4 61 64 be 40 f1 8f bf
       0.18783204 -0.5062492 -0.22302896 -1.1245499
0002c0 42 71 a1 bd 62 2c 38 3d 49 6d 3a 3f 51 b9 e1 be
       -0.0788293 0.0449642 0.72823006 -0.44086698
0002d0 a1 0a 9a 3d bc 9f 41 3f bf bb c7 be 18 db 22 3e
       0.075215586 0.7563436 -0.39010426 0.1590389
0002e0 74 71 d2 be 74 97 05 3f a1 49 c9 3e 39 1d f1 3c
       -0.41102183 0.52184224 0.39313987 0.02943288
0002f0 f1 15 05 be 6d 4e 93 bc fa 40 89 3d f7 6e 53 3e
       -0.12996651 -0.017981732 0.067018464 0.20647798
000300 32 06 ba bd e3 7b 0e bf 21 d3 c5 3e c8 50 b0 3d
       -0.09083213 -0.55657786 0.3863764 0.08609158
000310 df 8b 45 be e5 63 8b be 7b a7 04 be 5c 6b 25 be
       -0.19291638 -0.2722465 -0.12954514 -0.16154236
000320 ca a6 b2 bd c4 60 5b bf d0 4d 7d 3e 1a 98 e6 3c
       -0.08723219 -0.8569453 0.24736714 0.0281487
000330 ab 81 2d bf 2a a7 4b 3e 9b f1 0a be 90 d0 ce 3d
       -0.6777598 0.19887987 -0.13568728 0.10098374
000340 aa cd 85 bd 54 c1 e4 be 32 05 61 3e f8 31 8c be
       -0.06533368 -0.44678748 0.21974638 -0.27381873
000350 0a 08 32 be 24 e0 68 3e cb cb ae be 37 94 1a be
       -0.17385879 0.22741753 -0.34139857 -0.15095602
000360 9d 97 e0 3e 6c ae bf 3e ae 18 29 be f5 00 f7 3c
       0.43865672 0.3743776 -0.16513321 0.030151824
000370 82 95 69 3d fa c1 cf 3d d9 03 a0 3e a4 16 41 3e
       0.057027347 0.1014442 0.31252936 0.18856293
000380 75 31 88 bc 48 b6 07 3e c9 b1 f6 be 67 09 9a 3e
       -0.016625145 0.13253129 -0.48182514 0.30085298
000390 43 84 98 3d 75 72 9e bd e5 aa 8b 3d 98 37 0b bf
       0.07447102 -0.07736675 0.06819705 -0.54381704
0003a0 18 b4 80 be d4 21 99 be ea 43 00 3f b5 43 43 3e
       -0.251374 -0.2990862 0.5010363 0.19068797
0003b0 df 83 35 be a2 bc a1 be 0d 75 4d be b3 83 dc bd
       -0.17726086 -0.31589228 -0.20064183 -0.10767307
0003c0 e4 8e a2 3d 39 23 36 be af f9 81 be f6 4d b1 bf
       0.079374105 -0.17786874 -0.25385806 -1.3851917
0003d0 0a 96 8a be 28 70 b3 3f a8 27 4d be c4 0e 85 3d
       -0.27067596 1.4018602 -0.20034659 0.06496957
0003e0 2e 8a 5e bd a9 3e 18 3b 46 08 97 3d 08 5f a1 3d
       -0.054330997 0.0023230708 0.07374625 0.07879454
0003f0 3c fe bc be bd e1 70 3e 1a 6b 87 3d 3a 8e 4d be
       -0.36912715 0.23523612 0.06612225 -0.20073786

network_body.linear_encoder.seq_layers.0.bias f4 [128]
000000 e8 37 81 be c5 87 e9 3d 16 54 6a 3e 10 a4 2f 3d
       -0.25237966 0.11402849 0.22883639 0.04288107
000010 ca 96 0c be ed 9a ca bd a8 52 ec bc 90 e1 f9 3d
       -0.13729396 -0.09892831 -0.028848007 0.12201226
000020 85 cd 80 be f0 e5 6c 3d ab 8b 96 bd 25 10 11 3e
       -0.251568 0.057836473 -0.07350858 0.14166315
000030 38 cf 79 be 70 0b db 3d 4b bc 02 3d dc ba 81 be
       -0.24395454 0.10695541 0.03191785 -0.25337875
000040 c3 0c 35 be 32 1a 10 be 47 91 55 bd ee 2e 04 3c
       -0.1768065 -0.14072493 -0.0521405 0.00806783
000050 07 fa c8 3d 03 68 a7 bd 72 80 0c be 88 43 31 bd
       0.09813314 -0.081741355 -0.13720873 -0.043277293
000060 38 04 08 be dc 6c f5 bc 40 10 fc 3d f8 a0 d9 bd
       -0.1328286 -0.029959135 0.12307787 -0.106264055
000070 1b 3d 80 be f6 1b 62 bd 35 d6 39 be 4c 0d da 3d
       -0.2504662 -0.055202447 -0.1814812 0.106470674
000080 81 5f 21 be f7 73 7f 3e aa 2e 99 be 97 f9 84 be
       -0.15759088 0.24946581 -0.29918414 -0.25971672
000090 60 78 18 be 95 90 f0 bd 1e 73 b6 bd 8b 4b 86 3d
       -0.1488967 -0.11746327 -0.089086756 0.065573774
0000a0 bf 0d 7d 3c ff c2 41 bd be 6a 9a be 93 d7 ea 3d
       0.015445172 -0.047305103 -0.30159563 0.11466899
0000b0 74 74 2c 3e 82 1e 6c be 7f 1a 0a 3c 9e a3 40 be
       0.16841298 -0.23058513 0.008429169 -0.18812415
0000c0 8b 4f f3 bd 08 68 82 bd b7 1a 52 bc a9 dc 92 3c
       -0.11880406 -0.06367499 -0.012823752 0.017927485
0000d0 4f 48 8f be 3a 3f ba 3d 86 ed 5f bc 29 3c 06 3c
       -0.27984855 0.09094091 -0.01366747 0.008193054
0000e0 24 b0 51 be ef ad b8 bd 95 16 2d be 5d 07 ce bd
       -0.20477349 -0.0901755 -0.16903146 -0.10059998
0000f0 a8 d0 2c be b0 9d 2e 3d 16 65 63 bd f2 eb 4f be
       -0.16876471 0.04263085 -0.055516325 -0.2030485
000100 30 24 29 be 81 05 fa 3b 78 a8 d6 3d a6 fe ae be
       -0.1651771 0.0076300506 0.104813516 -0.34178656
000110 4e 8e 41 be 1f 37 dc bd 3a 64 cb bc 6f e7 88 bc
       -0.18901941 -0.10752701 -0.024828065 -0.016711919
000120 c1 05 54 be 76 49 ed bd 90 c6 f5 3d 44 9e 1a 3d
       -0.2070532 -0.11586277 0.120007634 0.03774859
000130 ff 59 0f be 4e 1e aa 3d df a3 db bd bc 4e 64 3d
       -0.13999175 0.083065614 -0.10724615 0.05573915
000140 2a db 08 3e af ec 0e 3e 29 b7 d8 bc 03 7c 1b 3d
       0.13364854 0.13957475 -0.026454525 0.037960064
000150 ea f3 32 bd 68 10 f4 bc 21 8b ad 3d 11 8f 1e be
       -0.043689646 -0.02979298 0.08473802 -0.15484263
000160 17 e3 ec 3c aa fd a2 be ff 9c 96 be ce 8f 44 be
       0.028916879 -0.31834155 -0.29416654 -0.19195482
000170 00 2d df 3d 3d 2e f0 3d 1a 27 68 bd db 72 96 bc
       0.10897255 0.11727569 -0.056677915 -0.018365314
000180 59 07 49 bd c3 eb 2d bd 9f a9 68 bd 00 ee 7d bd
       -0.049079273 -0.042461168 -0.05680239 -0.061994553
000190 0c ec 0f bd 6e 85 36 be c6 ca 6c bb dc 07 2a be
       -0.03513722 -0.17824337 -0.0036131605 -0.1660456
0001a0 27 9e bb bd b0 30 9f 3d 97 b4 ba bd 3a c2 cb bc
       -0.091610245 0.07772958 -0.09116476 -0.024872888
0001b0 c5 30 19 be 0c 61 d1 3d d9 da 3e be ee cc 1c be
       -0.1496001 0.10223588 -0.18638171 -0.1531255
0001c0 24 02 b5 3d 03 88 7c 3c 26 6e 16 3e 79 bf f6 bd
       0.08838299 0.015413287 0.14690456 -0.12048239
0001d0 86 9a c2 bd 8f 3c 88 bd 7a 3c f1 bc dc 9e a5 be
       -0.09502129 -0.06652176 -0.029447783 -0.32347763
0001e0 2a c4 69 3d 46 5d 66 3c 12 1c bc 3c f4 3b 01 be
       0.057071842 0.014060324 0.022962604 -0.12620527
0001f0 ed 98 20 3e f4 1e 45 be 2f cd c0 bd e7 d5 32 3d
       0.15683337 -0.19250089 -0.09414136 0.043661024

network_body.linear_encoder.seq_layers.0.weight f4 [128, 156]
000000 3c 64 b8 3d 9a 4a 31 3d ef 91 81 3e 36 9f 63 3e
       0.09003493 0.043284036 0.2530665 0.22228703
000010 37 2c 44 3d 23 99 93 bd 27 f1 9a 3d 23 0c 04 3e
       0.04789373 -0.07206943 0.075655274 0.12895255
000020 f7 cb 01 be 0b 77 ed 3c e9 9f 8f 3d a3 14 39 3d
       -0.12675463 0.028987428 0.07012922 0.045185696
000030 31 e7 3e bd fa 4a 20 bd 5d 06 1d bb 2e e5 ca 3d
       -0.0466072 -0.039134003 -0.0023960092 0.09906994
000040 23 42 36 bd 17 26 8a bc c8 d3 20 bc 74 40 0c be
       -0.044496667 -0.016863866 -0.009816118 -0.13696462
000050 09 fc 8f bd c9 eb ed 3c 01 c4 65 bd cd 78 b3 bc
       -0.07030494 0.029043095 -0.056095127 -0.021908188
000060 0a 3d df 3d b0 7c 90 bd a4 11 f2 bd 24 0d 1a 3e
       0.10900314 -0.07055032 -0.11819771 0.15044075
000070 20 72 e2 bc e1 50 b5 3d 66 11 05 bf 9e 27 4b bd
       -0.02764231 0.08853317 -0.5197967 -0.04959833
000080 ab 66 f6 3d 54 26 d4 3d f7 c0 25 3e c0 88 d2 bc
       0.12031301 0.10358873 0.16186891 -0.025699973
000090 5a 1a 86 be c6 b6 8d be 93 fe 01 3e 7a 67 58 be
       -0.2619198 -0.27678508 0.12694769 -0.21133223
0000a0 d3 7a 18 3d a7 8a a4 bd 11 45 e7 be 8d 2f a1 bd
       0.03722651 -0.08034258 -0.4516988 -0.07870398
0000b0 ac 44 03 3e c8 a8 87 be 7b 76 57 3c a6 1d 08 bd
       0.12819165 -0.26495957 0.013150807 -0.0332314
0000c0 b1 c6 b2 be 77 f3 85 be 09 14 f6 3d 0c e1 f6 3d
       -0.34917215 -0.2616231 0.1201554 0.12054643
0000d0 11 a8 39 bd b2 95 06 3c cb 45 02 bf ba fc 76 be
       -0.045326296 0.008214401 -0.50887746 -0.24119845
0000e0 06 c4 80 3c 1c c0 05 3e db d3 88 bd 22 c6 1c be
       0.015718471 0.13061565 -0.06681033 -0.15309957
0000f0 e1 58 ea be d7 d5 82 3e d4 f6 a3 bd 99 4a 8f be
       -0.45770934 0.25553772 -0.08006063 -0.279866
000100 8e c4 b2 3c af 86 a2 3d 00 98 eb bd d9 75 fd bd
       0.02182224 0.07935845 -0.11503601 -0.12375993
000110 58 eb a9 be 6d f7 dd bd 7a 81 6f 3e 23 a9 d1 bd
       -0.33187366 -0.10838208 0.23389235 -0.102373384
000120 a9 c2 b6 be 81 40 0f 3d 6a a4 5e be a5 ef 81 be
       -0.3569539 0.034973625 -0.21742406 -0.25378147
000130 51 de 09 3e 45 7c c0 3b a0 bc 37 be 9a ff a2 3e
       0.13463713 0.005874189 -0.17943048 0.31835634
000140 61 28 07 3e cf 1e ca bd bd b4 09 3e e5 4f 70 3d
       0.13198997 -0.098691575 0.13447852 0.058669943
000150 ca b2 4a be 36 d8 83 3c f9 cc 32 be 30 84 68 3c
       -0.19794765 0.016094308 -0.17461003 0.014191672
000160 e5 1a 00 3d 0d 5a 34 be 96 9f 9d be 2f 15 47 be
       0.03127565 -0.17612477 -0.30785817 -0.19441675
000170 04 dc a1 3d 65 33 50 bb fe 80 b8 bd 91 e9 bf 3d
       0.07903293 -0.0031768915 -0.09008978 0.09370721
000180 ba db 3a be e4 a1 66 3c 38 3a 87 bc fd 93 ac bd
       -0.18247882 0.014076684 -0.016507253 -0.08426664
000190 b2 6b a7 3d 2b ae 09 3e 2b f0 2a bb ff 83 69 be
       0.08174838 0.13445346 -0.0026083093 -0.22804259
0001a0 49 24 c4 bd 01 2f 79 bd 9c 58 4a 3e 65 92 78 be
       -0.09577233 -0.060835842 0.19760364 -0.24274595
0001b0 e9 37 25 be c2 ff c4 3c e2 5f 17 be b5 ac 87 be
       -0.1613461 0.024047736 -0.1478267 -0.26498953
0001c0 a2 6d 87 bd 41 5e df 3d d2 df 8a 3d df 1d 15 be
       -0.06612708 0.109066494 0.067809716 -0.14562176
0001d0 0e 2b c7 3d 1a ab 9e bc 39 dc 1e bc b6 3b 31 be
       0.09725009 -0.019368697 -0.00969606 -0.17307934
0001e0 02 de bf 3d 29 78 02 3e 1e 45 ce 3d 6f 69 a6 bd
       0.093685165 0.1274115 0.10071777 -0.081255786
0001f0 15 8a d1 3d f7 9b 0c be fe 5c 42 3c 8c 92 0d be
       0.10231415 -0.13731371 0.011862991 -0.13825434
000200 c2 57 34 3b f3 91 0e 3d 82 70 8b be 83 ba 7a be
       0.0027518128 0.034807157 -0.27234274 -0.24485211
000210 94 ce eb 3b d4 52 d2 bc 23 f5 c7 3d 10 4b 22 3d
       0.007196257 -0.025674261 0.09763553 0.039622366
000220 88 65 d3 3d 89 0e bf 3d 16 6d bc bd a4 9d d4 bd
       0.103221 0.09328944 -0.09200494 -0.1038163
000230 ed ee a1 3e 8a e3 a0 3d d4 d6 ab bc 51 86 e9 bd
       0.31627598 0.078559 -0.020976461 -0.11402572
000240 fd c2 10 3d ad b0 93 3c 8a 61 35 3d ed ab 49 3d
       0.035342205 0.018028582 0.044282474 0.049236227
000250 58 65 be 3c 4a 28 24 bc f4 c0 17 3e d1 f0 f3 3c
       0.023241684 -0.010019371 0.148197 0.029777916
000260 53 ca 00 3e 19 b8 63 ba b2 ef 75 3e 11 4d 03 be
       0.1257718 -0.00086867955 0.24017218 -0.12822367
000270 92 f4 50 be 67 7d 29 be 78 62 2d be 4b 20 22 3e
       -0.20405796 -0.16551743 -0.16932094 0.15832631
000280 c7 e3 90 3e fb 53 52 3e 14 e0 bb be 13 ba 20 3d
       0.2829878 0.20539849 -0.36694396 0.039239954
000290 81 b1 b6 be e8 bd 72 3d 8b bd 97 3e 9e 80 ed 3d
       -0.356823 0.05926314 0.29636797 0.115967974
0002a0 a8 8b 6f be 14 10 3d be ef e9 39 3e be d2 20 3e
       -0.23393118 -0.18463165 0.18155645 0.15705392
0002b0 17 02 44 3e 6a 00 b8 3e 7a 1a bd be ca 3d b7 3c
       0.19141422 0.35937816 -0.36934263 0.02236833
0002c0 f3 f8 73 3b ce 44 06 3e bf 39 e6 3e 40 c5 d2 3e
       0.0037227243 0.13112184 0.44965932 0.41166115
0002d0 99 09 a2 be 36 2b bd be 37 43 ee 3d 5b c3 50 3e
       -0.31647947 -0.3694703 0.11633914 0.20387022
0002e0 3e 2b 60 3e 75 31 79 3e ec d6 a3 be b2 c2 24 bb
       0.21891496 0.24335273 -0.3199991 -0.0025140462
0002f0 e6 2b d5 3d 34 ad b6 bc 0f 93 84 3c 8b 89 02 3e
       0.104087636 -0.022299387 0.016183404 0.12747781
000300 32 3c ad be 91 dc 39 3d 21 d4 f6 bd 87 94 f1 bd
       -0.33834988 0.045376364 -0.12052179 -0.117959075
000310 12 68 60 3e 35 e9 74 3d 1d 1e 41 be 8b 4c 04 3e
       0.219147 0.059792716 -0.18859144 0.12919824
000320 76 66 44 bd be 2f 17 3e 6e a6 5e 3e 84 04 0d 3d
       -0.047949277 0.14764306 0.21743175 0.034428135
000330 4f b7 63 bd b7 b0 05 3e a5 e6 05 be b9 46 8b 3d
       -0.05559474 0.13055693 -0.13076265 0.06800599
000340 c2 df 8d 3d b5 30 0e 3d 04 dc df be 1e 59 55 bd
       0.06927444 0.03471442 -0.43722546 -0.052086942
000350 8c 09 66 3e 48 ad 26 3c 37 e1 bd bc 41 e7 9c 3d
       0.2246458 0.010173149 -0.02317868 0.07661296
000360 b4 7d 3a 3c ac 72 d7 be 9f 47 0a 3f 92 1e a1 bd
       0.011382509 -0.42079675 0.54015535 -0.07867159
000370 f1 c1 92 be 27 1f 18 bd 88 d4 20 3e 7e d1 11 bf
       -0.2866359 -0.037139084 0.15706074 -0.56960285
000380 fa 88 5d 3e 2d e7 0a bd 2f ed d9 bd e9 b8 e2 bd
       0.21634284 -0.033911873 -0.10640942 -0.11070425
000390 e0 27 ec bc 62 31 0d bf f7 76 e4 3e 1d 0a 61 3c
       -0.028827608 -0.5515348 0.44622013 0.013735321
0003a0 92 e1 4f bd f8 ca 27 be 5d 22 30 3e bf 44 b8 be
       -0.05075223 -0.1638602 0.17200609 -0.3598995
0003b0 f8 ed 99 3e 48 98 a2 3d 42 05 9e bd 68 82 ef bd
       0.30064368 0.079392016 -0.077158466 -0.11694795
0003c0 34 e0 b6 3e b9 55 0d bf 34 6d a7 3e 4a d3 00 be
       0.35717928 -0.5520893 0.32700503 -0.125806
0003d0 64 04 97 bc 26 c8 90 3d 0f 55 d5 3e d1 e8 13 3e
       -0.01843471 0.07069425 0.41666457 0.14444281
0003e0 b9 dd 3f bf 18 13 52 3a 16 27 46 3e 50 aa 99 be
       -0.74947697 0.00080137094 0.19350848 -0.3001275
0003f0 6e 67 07 be 57 34 02 bd 90 bb 84 bd 5e f0 12 3e
       -0.13223049 -0.031788196 -0.06481087 0.14349505

network_body.linear_encoder.seq_layers.2.bias f4 [128]
000000 94 82 e4 3c f1 d8 1a be cf 3e 70 bd bf a4 24 bd
       0.027894296 -0.15121819 -0.05865365 -0.040196177
000010 b5 3a d5 3c 77 6e 3e be 1d a8 97 bd 72 c5 b3 3d
       0.02602897 -0.18596826 -0.07405112 0.08777894
000020 6b 56 46 be 65 97 cb bc cf 39 49 be 10 be 1d be
       -0.19368903 -0.024852464 -0.19650958 -0.15404534
000030 ea 24 b8 be 28 0f 1e bc ca a0 02 3d 67 a6 af be
       -0.35965663 -0.009647168 0.03189162 -0.34306642
000040 3b b6 00 3e 42 2f b7 bd 0a 2b 89 bd 0a 58 80 be
       0.12569515 -0.089445606 -0.06697662 -0.25067168
000050 86 5a c5 3e 7f 43 6f be 34 5b 4d 3d 4c ed 0d bd
       0.38545626 -0.23365591 0.050135806 -0.034650132
000060 4e dc b4 bb c0 7d 6d be ad be 19 3c e9 09 0e 3e
       -0.0055194264 -0.23192501 0.00938384 0.13870968
000070 bc 20 5f be f0 cc f1 bd 9e f6 0d be a1 57 a6 bd
       -0.21789831 -0.11806667 -0.13863608 -0.08122183
000080 84 2f 9b be 3e 04 aa be 50 99 e3 3d 70 6e b8 bd
       -0.3030969 -0.33206362 0.111132264 -0.09005439
000090 0f 29 91 3e dd 7a 05 bd e3 14 20 3d ff aa 7f be
       0.28351638 -0.032587875 0.03908242 -0.24967574
0000a0 7a 99 44 be 2d 63 3d be b4 f9 1b 3d 97 6e cf 3c
       -0.19199172 -0.18494864 0.038079932 0.025321288
0000b0 b6 d1 04 3c f6 59 f5 bd db 7e 24 be d0 5f 2c 3d
       0.00810664 -0.11980049 -0.16064017 0.04208356
0000c0 46 77 8e bd 76 0d 4c be 77 62 8a bd 0c cc e4 bd
       -0.06956343 -0.1992701 -0.06757062 -0.11171731
0000d0 1f 9d 55 bd 11 82 0d bd da 9d 51 3d 02 cb d4 bd
       -0.052151795 -0.03454787 0.05117593 -0.10390283
0000e0 3e 54 94 bd 92 35 8a be f9 d9 1d 3d 56 90 bb bc
       -0.072426304 -0.26993996 0.038537953 -0.022895973
0000f0 0a 28 0d be a4 8a 5a be 2c c7 6f be ce a4 09 bd
       -0.13784805 -0.2134195 -0.23415822 -0.033604436
000100 ac 9d 13 3d 4b a6 80 be b6 24 26 3e 75 d0 a1 be
       0.03603904 -0.2512687 0.16224942 -0.31604353
000110 d6 d3 b0 3c 01 24 72 3d ec 03 88 bd dc 67 15 bc
       0.021585386 0.059116367 -0.06641373 -0.009119
000120 da 48 db be c1 b9 7d 3c 80 82 ce 3c 85 08 41 bd
       -0.4282902 0.015486182 0.025208712 -0.047127265
000130 6b 6f eb bd 33 f0 a4 be bf 34 db bd fc 3e bc 3c
       -0.11495861 -0.32214507 -0.1070342 0.022979252
000140 25 4b ef bd c5 43 13 be c6 c7 2b 3d e1 44 2a be
       -0.116842546 -0.14381321 0.041938566 -0.16627838
000150 29 9e 8a 3d a4 5a d7 bd 2a 99 57 3d 01 c8 a6 bd
       0.06768448 -0.10515335 0.052636303 -0.081436165
000160 c0 17 6f bd c7 e6 44 be 61 31 08 bd 16 13 53 be
       -0.05837226 -0.1922866 -0.033250216 -0.2061275
000170 fd 3c 8b bd f7 e0 e4 bd 1d 44 47 bc 48 48 fd bd
       -0.06798742 -0.11175721 -0.012162236 -0.12367302
000180 d3 fe d9 3c f5 f3 10 bd e2 65 b2 bd 9c b8 b8 bd
       0.026610767 -0.035388906 -0.08710839 -0.090195864
000190 d8 80 35 3d 4e 3a 58 bc 38 6f 16 be ee 40 5d 3d
       0.044312328 -0.013197495 -0.14690864 0.054017
0001a0 11 96 cc 3c cb 42 8e bd 26 43 17 3d 03 f5 12 be
       0.024973901 -0.069463335 0.036929272 -0.14351277
0001b0 33 c6 26 be 0e 17 75 bd 14 a9 1e be 9e c1 30 be
       -0.16286545 -0.05983644 -0.15494186 -0.17261359
0001c0 2f df ba bc 50 0d 46 3d c7 bd 29 be 3c 87 6b 3e
       -0.0228115 0.04835254 -0.165763 0.23000807
0001d0 6b 16 d4 3d 64 a4 92 bd d2 b5 48 be 9d 7f a4 be
       0.103558384 -0.07160261 -0.19600609 -0.3212861
0001e0 ef 7b 86 bd bb b2 cb 3d e0 46 db 3d 22 ca db bc
       -0.06566607 0.099461995 0.10706878 -0.026829783
0001f0 1e fa 83 be cf 10 06 3b dd 10 07 be 26 cd 8e be
       -0.25776762 0.0020456796 -0.13190027 -0.2789089

network_body.linear_encoder.seq_layers.2.weight f4 [128, 128]
000000 72 06 5b bc 2f b8 1b 3e 1a df b1 bd 9c b2 27 be
       -0.013368236 0.15206979 -0.08685131 -0.16376728
000010 a2 30 d9 bd cc 2e 10 bd 8d dd df 3d f4 51 b6 3d
       -0.10604979 -0.03520088 0.10930929 0.0890235
000020 22 10 0a be 51 50 bf bd d3 78 25 3d 55 9d fd bd
       -0.13482717 -0.09341491 0.04039843 -0.12383524
000030 52 25 59 be b5 be d6 bd 87 0d 6d 3d a8 2f 57 be
       -0.21205643 -0.10485593 0.05787423 -0.21014273
000040 76 a1 9a 3d 87 31 04 be a5 77 17 bc 4f 60 32 3d
       0.075503275 -0.12909518 -0.009244834 0.04354888
000050 b3 75 d3 bc 35 e5 b8 bc 70 1a 6e bc 7c 1f 8d be
       -0.02581296 -0.022570232 -0.01453267 -0.27563083
000060 0b 0e 7e bd 2c 87 ec 3d 7c be b5 be 6a 9d d6 bc
       -0.06202511 0.115492195 -0.3549689 -0.026198108
000070 3c 89 5a 3d 92 12 88 3b bc d0 0d bd 3e 3b 4c bd
       0.053353533 0.0041526044 -0.034622893 -0.049861185
000080 7f 7f 3c bc 8f 2a a4 3d 34 35 90 be a9 5b 51 be
       -0.011505007 0.0801593 -0.2816559 -0.20445122
000090 25 e7 07 3e 24 43 2e 3d b6 82 ba 3d 2f ce 48 be
       0.13271768 0.0425445 0.091069624 -0.19609903
0000a0 4c f2 bf 3c e0 9f 85 bd fc de 38 bc 28 34 8a bc
       0.023430966 -0.06524634 -0.011283632 -0.016870573
0000b0 4a 53 01 3e a8 33 02 bd ea ea 6e 3e 33 75 f8 3d
       0.12629429 -0.031787544 0.233318 0.12131729
0000c0 86 0d 84 be 67 01 5c 3c 82 04 95 be 1b 46 7c 3e
       -0.25791568 0.013428069 -0.29105002 0.24636118
0000d0 1a 43 97 be 33 c7 7e bd ef 91 72 be 97 bb 8d 3c
       -0.29543382 -0.06220169 -0.23688482 0.017301364
0000e0 b2 03 fb 3d 26 3d 0c be 23 03 6e bc de 19 4c 3e
       0.12256564 -0.13695201 -0.014527115 0.19931743
0000f0 aa aa 2e be 95 a4 4d be 1e e0 24 be e5 60 aa bd
       -0.1705729 -0.20082314 -0.16101119 -0.083192624
000100 98 24 a7 be 1c 21 b7 3d fd 40 58 be 59 b6 8d be
       -0.32645106 0.08941862 -0.21118541 -0.27678183
000110 14 f6 9e 3c 2d 99 fd bb 91 b5 d8 3d 8b 96 8d be
       0.019404449 -0.0077392072 0.10581506 -0.27653918
000120 01 34 05 be 81 95 32 be 0f ec b7 3d 2a 6f be 3d
       -0.13008119 -0.17439844 0.089805715 0.092985466
000130 70 59 4d be a0 c9 61 3d ec 0f bb 3d e3 d2 10 be
       -0.20053649 0.055123925 0.09133896 -0.14142947
000140 b0 18 ce 3a b1 1a 5a 3d ee dd ae be d7 04 98 bd
       0.001572391 0.05324811 -0.34153694 -0.07422798
000150 1c ad 52 bd 58 11 98 be e4 d7 d8 3d d0 62 b0 bd
       -0.05143462 -0.29700732 0.10588053 -0.08612597
000160 e5 5c 33 3d 32 3b 1a 3e 29 78 93 be c8 da d9 bc
       0.043789763 0.15061644 -0.28802612 -0.02659358
000170 a6 b6 66 3e 71 2f 04 3d 5b 5d bf 3d 9b 52 5e bd
       0.22530612 0.032271806 0.09343978 -0.054277997
000180 bf 8d 3c bd 9c 96 e6 3d 30 e7 06 be 36 81 28 be
       -0.046033617 0.11259195 -0.13174129 -0.1645554
000190 45 60 12 bd a4 bb b3 bd 13 42 40 be 77 78 d4 bc
       -0.03573634 -0.08776024 -0.18775205 -0.025936348
0001a0 62 f0 cf 3d dd 87 e8 bc cd a0 e7 3d 82 00 12 3e
       0.10153271 -0.028385097 0.11309967 0.14258006
0001b0 dc 23 d3 bc 3b fc dd 3d 04 fb 45 be e6 49 38 be
       -0.025773935 0.10839125 -0.19334036 -0.1799694
0001c0 b9 78 90 be 65 70 ad 3a 70 a7 aa bd f1 ea e0 bd
       -0.28217104 0.0013232349 -0.083327174 -0.109823115
0001d0 eb 7e 81 3d a8 d1 3a be 4d ac 65 bd 15 c1 a6 bd
       0.06323036 -0.1824404 -0.056072522 -0.08142296
0001e0 54 34 aa bd 01 9a 5e bc 6c a3 6e bd e0 20 83 bd
       -0.08310762 -0.013586522 -0.05826132 -0.06402755
0001f0 13 f5 54 bc 62 6d 80 bd 47 36 27 3c b0 43 ec be
       -0.012997883 -0.06270863 0.010205812 -0.4614539
000200 70 a3 99 bc 0e fd 62 be 73 9e 72 bd 06 4b 9f 3d
       -0.01875469 -0.22166845 -0.05923314 0.077779815
000210 b8 81 5c 3e b1 08 b1 ba 1b ce ee 3d a6 ec 4d 3e
       0.21533859 -0.0013506619 0.11660405 0.20109805
000220 71 e4 19 3e 18 47 86 3e 07 37 3d 3e ee 75 d1 bd
       0.1502855 0.26226115 0.18478023 -0.102275714
000230 8c 14 dd 3c 61 d0 a0 be 55 51 8b 3d 59 c2 72 3d
       0.026987337 -0.3140898 0.06802622 0.059267376
000240 ca 6c 8a be 90 4a 96 3d da 09 6b be 70 d7 b4 3d
       -0.27036124 0.073384404 -0.22952977 0.08830154
000250 c0 46 5a 3e c5 c3 26 be a2 05 c3 bc 2d 90 2d 3e
       0.21316051 -0.16285618 -0.023806397 0.1694953
000260 0d db 0f 3e af 57 0c bd 98 2f ca bb c5 9b 8d 3e
       0.14048405 -0.03426331 -0.0061702244 0.27657905
000270 11 ab af bc 65 31 fd bd 4f 5c 7a bd c9 c8 d0 bd
       -0.021443876 -0.12362937 -0.06112319 -0.10194547
000280 d6 63 86 3e 5e 64 03 be e9 24 b0 bb bb a0 6a 3e
       0.26248044 -0.12831256 -0.005375494 0.22912876
000290 64 e4 8f 3e 8b 5d 52 3e 27 a6 86 3d 8e 38 c8 3d
       0.28103936 0.20543496 0.0657466 0.09776412
0002a0 66 db 64 be 30 c5 b6 3d 0d d8 05 3e 4b 4e 01 3e
       -0.22349319 0.08924329 0.13070698 0.12627523
0002b0 30 70 61 3e e6 b2 c7 bd 55 90 54 3e 14 3a b0 3d
       0.22015452 -0.09750919 0.20758183 0.086048275
0002c0 3c a7 a0 3c d6 e1 49 bc 08 86 29 be fd 82 25 3d
       0.019610994 -0.01232191 -0.16555035 0.040408123
0002d0 5a e2 1a 3b 42 d9 9d 3d c6 8e 17 be 8d 6a 6f 3e
       0.0023633451 0.07707454 -0.14800557 0.2338049
0002e0 a5 b5 86 3d 67 a2 03 3e 11 b8 5c 3e b8 ae ed 3d
       0.06577615 0.1285492 0.21554591 0.116055906
0002f0 99 bc 59 3e 57 b3 2f 3e 8f 8a 49 3d 66 f7 a2 3e
       0.2126335 0.17158256 0.049204405 0.31829375
000300 08 12 6e be be 97 54 3d 2a 1a 57 3b 55 19 ad 3d
       -0.23249066 0.051902525 0.0032821991 0.08452097
000310 3d e1 37 3e ba a3 3c be 7f f8 1a 3c a1 7c 1b 3e
       0.17957015 -0.18421832 0.00945866 0.15184261
000320 af b0 5e bd bb b4 9c 3d c1 75 61 be 4c b0 8c 3e
       -0.054367717 0.07651659 -0.22017576 0.27478254
000330 86 bd 15 3d d3 1e 07 3f 8f 9c 5a bc 02 69 bf 3d
       0.036557697 0.5278141 -0.013342991 0.093462005
000340 2a d4 b9 bc b6 1c dd 3d 94 b4 a3 bd 68 f9 1d bd
       -0.022684176 0.10796492 -0.07993427 -0.03856793
000350 aa ff d1 bc 92 8a 4b be b3 5f c5 3e 12 14 59 3b
       -0.025634605 -0.19877079 0.38549575 0.0033123535
000360 59 cf 0f 3e e7 7e c2 3d bb c1 99 bb 64 3f 71 3e
       0.1404394 0.09496861 -0.004692284 0.23559338
000370 3e 58 8d 3d 58 00 24 3e b6 d1 e5 3d d1 6d e9 3d
       0.069015965 0.16015756 0.1122164 0.11397899
000380 ca b8 eb bd b9 0b be bd 97 51 05 be 37 ec 79 3d
       -0.11509855 -0.0927958 -0.13019405 0.061016288
000390 b6 88 d4 3d 28 fa 7e 3e 4f 36 97 3d 6f 2d a7 3d
       0.10377638 0.24900115 0.073834054 0.08162963
0003a0 bc 84 bf 3e 59 f2 24 3e 0d e1 e2 bc dd cd 95 3d
       0.37405956 0.16108073 -0.027695203 0.07314656
0003b0 48 3d 88 ba 9c 7b d3 3e cc 97 7d bd 06 5e ea 3d
       -0.001039424 0.41305244 -0.061912343 0.11443715
0003c0 ee ba fe bb 8e 5d 74 3d 62 c1 b2 3d c5 c1 7b 3c
       -0.0077737486 0.059659533 0.08728291 0.0153660225
0003d0 ee 3c d7 3d d5 7e 4b be 34 bc 97 3d 03 a7 5e 3e
       0.10509668 -0.19872601 0.07408944 0.21743397
0003e0 dc c8 1c 3e a9 63 42 bd 16 de 54 bd c9 67 48 be
       0.15310997 -0.047458325 -0.05196961 -0.19570841
0003f0 6b b7 a3 bd cb fa 21 bd bb 59 af 3e fe e9 65 3e
       -0.079939686 -0.039545815 0.34248146 0.22452542
